<?xml version="1.0" ?>
<net name="torch-jit-export" version="11">
	<layers>
		<layer id="39" name="input" type="Parameter" version="opset1">
			<data shape="1,128" element_type="f32"/>
			<rt_info>
				<attribute name="fused_names" version="0" value="input"/>
			</rt_info>
			<output>
				<port id="0" precision="FP32" names="input">
					<dim>1</dim>
					<dim>128</dim>
					<rt_info>
						<attribute name="layout" version="0" layout="[N,C]"/>
					</rt_info>
				</port>
			</output>
		</layer>
		<layer id="38" name="inp_state_000" type="Parameter" version="opset1">
			<data shape="1,128" element_type="f32"/>
			<rt_info>
				<attribute name="fused_names" version="0" value="inp_state_000"/>
			</rt_info>
			<output>
				<port id="0" precision="FP32" names="inp_state_000">
					<dim>1</dim>
					<dim>128</dim>
					<rt_info>
						<attribute name="layout" version="0" layout="[N,C]"/>
					</rt_info>
				</port>
			</output>
		</layer>
		<layer id="37" name="inp_state_001" type="Parameter" version="opset1">
			<data shape="1,2,129,2" element_type="f32"/>
			<rt_info>
				<attribute name="fused_names" version="0" value="inp_state_001"/>
			</rt_info>
			<output>
				<port id="0" precision="FP32" names="inp_state_001">
					<dim>1</dim>
					<dim>2</dim>
					<dim>129</dim>
					<dim>2</dim>
					<rt_info>
						<attribute name="layout" version="0" layout="[N,C,H,W]"/>
					</rt_info>
				</port>
			</output>
		</layer>
		<layer id="36" name="inp_state_002" type="Parameter" version="opset1">
			<data shape="1,18,129,2" element_type="f32"/>
			<rt_info>
				<attribute name="fused_names" version="0" value="inp_state_002"/>
			</rt_info>
			<output>
				<port id="0" precision="FP32" names="inp_state_002">
					<dim>1</dim>
					<dim>18</dim>
					<dim>129</dim>
					<dim>2</dim>
					<rt_info>
						<attribute name="layout" version="0" layout="[N,C,H,W]"/>
					</rt_info>
				</port>
			</output>
		</layer>
		<layer id="35" name="inp_state_003" type="Parameter" version="opset1">
			<data shape="1,34,129,2" element_type="f32"/>
			<rt_info>
				<attribute name="fused_names" version="0" value="inp_state_003"/>
			</rt_info>
			<output>
				<port id="0" precision="FP32" names="inp_state_003">
					<dim>1</dim>
					<dim>34</dim>
					<dim>129</dim>
					<dim>2</dim>
					<rt_info>
						<attribute name="layout" version="0" layout="[N,C,H,W]"/>
					</rt_info>
				</port>
			</output>
		</layer>
		<layer id="34" name="inp_state_004" type="Parameter" version="opset1">
			<data shape="1,50,129,2" element_type="f32"/>
			<rt_info>
				<attribute name="fused_names" version="0" value="inp_state_004"/>
			</rt_info>
			<output>
				<port id="0" precision="FP32" names="inp_state_004">
					<dim>1</dim>
					<dim>50</dim>
					<dim>129</dim>
					<dim>2</dim>
					<rt_info>
						<attribute name="layout" version="0" layout="[N,C,H,W]"/>
					</rt_info>
				</port>
			</output>
		</layer>
		<layer id="33" name="inp_state_005" type="Parameter" version="opset1">
			<data shape="1,32,129,1" element_type="f32"/>
			<rt_info>
				<attribute name="fused_names" version="0" value="inp_state_005"/>
			</rt_info>
			<output>
				<port id="0" precision="FP32" names="inp_state_005">
					<dim>1</dim>
					<dim>32</dim>
					<dim>129</dim>
					<dim>1</dim>
					<rt_info>
						<attribute name="layout" version="0" layout="[N,C,H,W]"/>
					</rt_info>
				</port>
			</output>
		</layer>
		<layer id="32" name="inp_state_006" type="Parameter" version="opset1">
			<data shape="1,32,64,4" element_type="f32"/>
			<rt_info>
				<attribute name="fused_names" version="0" value="inp_state_006"/>
			</rt_info>
			<output>
				<port id="0" precision="FP32" names="inp_state_006">
					<dim>1</dim>
					<dim>32</dim>
					<dim>64</dim>
					<dim>4</dim>
					<rt_info>
						<attribute name="layout" version="0" layout="[N,C,H,W]"/>
					</rt_info>
				</port>
			</output>
		</layer>
		<layer id="31" name="inp_state_007" type="Parameter" version="opset1">
			<data shape="1,48,64,4" element_type="f32"/>
			<rt_info>
				<attribute name="fused_names" version="0" value="inp_state_007"/>
			</rt_info>
			<output>
				<port id="0" precision="FP32" names="inp_state_007">
					<dim>1</dim>
					<dim>48</dim>
					<dim>64</dim>
					<dim>4</dim>
					<rt_info>
						<attribute name="layout" version="0" layout="[N,C,H,W]"/>
					</rt_info>
				</port>
			</output>
		</layer>
		<layer id="30" name="inp_state_008" type="Parameter" version="opset1">
			<data shape="1,64,64,4" element_type="f32"/>
			<rt_info>
				<attribute name="fused_names" version="0" value="inp_state_008"/>
			</rt_info>
			<output>
				<port id="0" precision="FP32" names="inp_state_008">
					<dim>1</dim>
					<dim>64</dim>
					<dim>64</dim>
					<dim>4</dim>
					<rt_info>
						<attribute name="layout" version="0" layout="[N,C,H,W]"/>
					</rt_info>
				</port>
			</output>
		</layer>
		<layer id="29" name="inp_state_009" type="Parameter" version="opset1">
			<data shape="1,80,64,4" element_type="f32"/>
			<rt_info>
				<attribute name="fused_names" version="0" value="inp_state_009"/>
			</rt_info>
			<output>
				<port id="0" precision="FP32" names="inp_state_009">
					<dim>1</dim>
					<dim>80</dim>
					<dim>64</dim>
					<dim>4</dim>
					<rt_info>
						<attribute name="layout" version="0" layout="[N,C,H,W]"/>
					</rt_info>
				</port>
			</output>
		</layer>
		<layer id="28" name="inp_state_010" type="Parameter" version="opset1">
			<data shape="1,64,64,1" element_type="f32"/>
			<rt_info>
				<attribute name="fused_names" version="0" value="inp_state_010"/>
			</rt_info>
			<output>
				<port id="0" precision="FP32" names="inp_state_010">
					<dim>1</dim>
					<dim>64</dim>
					<dim>64</dim>
					<dim>1</dim>
					<rt_info>
						<attribute name="layout" version="0" layout="[N,C,H,W]"/>
					</rt_info>
				</port>
			</output>
		</layer>
		<layer id="27" name="inp_state_011" type="Parameter" version="opset1">
			<data shape="1,64,32,8" element_type="f32"/>
			<rt_info>
				<attribute name="fused_names" version="0" value="inp_state_011"/>
			</rt_info>
			<output>
				<port id="0" precision="FP32" names="inp_state_011">
					<dim>1</dim>
					<dim>64</dim>
					<dim>32</dim>
					<dim>8</dim>
					<rt_info>
						<attribute name="layout" version="0" layout="[N,C,H,W]"/>
					</rt_info>
				</port>
			</output>
		</layer>
		<layer id="26" name="inp_state_012" type="Parameter" version="opset1">
			<data shape="1,96,32,8" element_type="f32"/>
			<rt_info>
				<attribute name="fused_names" version="0" value="inp_state_012"/>
			</rt_info>
			<output>
				<port id="0" precision="FP32" names="inp_state_012">
					<dim>1</dim>
					<dim>96</dim>
					<dim>32</dim>
					<dim>8</dim>
					<rt_info>
						<attribute name="layout" version="0" layout="[N,C,H,W]"/>
					</rt_info>
				</port>
			</output>
		</layer>
		<layer id="25" name="inp_state_013" type="Parameter" version="opset1">
			<data shape="1,128,32,8" element_type="f32"/>
			<rt_info>
				<attribute name="fused_names" version="0" value="inp_state_013"/>
			</rt_info>
			<output>
				<port id="0" precision="FP32" names="inp_state_013">
					<dim>1</dim>
					<dim>128</dim>
					<dim>32</dim>
					<dim>8</dim>
					<rt_info>
						<attribute name="layout" version="0" layout="[N,C,H,W]"/>
					</rt_info>
				</port>
			</output>
		</layer>
		<layer id="24" name="inp_state_014" type="Parameter" version="opset1">
			<data shape="1,128,32,1" element_type="f32"/>
			<rt_info>
				<attribute name="fused_names" version="0" value="inp_state_014"/>
			</rt_info>
			<output>
				<port id="0" precision="FP32" names="inp_state_014">
					<dim>1</dim>
					<dim>128</dim>
					<dim>32</dim>
					<dim>1</dim>
					<rt_info>
						<attribute name="layout" version="0" layout="[N,C,H,W]"/>
					</rt_info>
				</port>
			</output>
		</layer>
		<layer id="23" name="inp_state_015" type="Parameter" version="opset1">
			<data shape="1,128,16,16" element_type="f32"/>
			<rt_info>
				<attribute name="fused_names" version="0" value="inp_state_015"/>
			</rt_info>
			<output>
				<port id="0" precision="FP32" names="inp_state_015">
					<dim>1</dim>
					<dim>128</dim>
					<dim>16</dim>
					<dim>16</dim>
					<rt_info>
						<attribute name="layout" version="0" layout="[N,C,H,W]"/>
					</rt_info>
				</port>
			</output>
		</layer>
		<layer id="22" name="inp_state_016" type="Parameter" version="opset1">
			<data shape="1,192,16,16" element_type="f32"/>
			<rt_info>
				<attribute name="fused_names" version="0" value="inp_state_016"/>
			</rt_info>
			<output>
				<port id="0" precision="FP32" names="inp_state_016">
					<dim>1</dim>
					<dim>192</dim>
					<dim>16</dim>
					<dim>16</dim>
					<rt_info>
						<attribute name="layout" version="0" layout="[N,C,H,W]"/>
					</rt_info>
				</port>
			</output>
		</layer>
		<layer id="21" name="inp_state_017" type="Parameter" version="opset1">
			<data shape="1,256,16,1" element_type="f32"/>
			<rt_info>
				<attribute name="fused_names" version="0" value="inp_state_017"/>
			</rt_info>
			<output>
				<port id="0" precision="FP32" names="inp_state_017">
					<dim>1</dim>
					<dim>256</dim>
					<dim>16</dim>
					<dim>1</dim>
					<rt_info>
						<attribute name="layout" version="0" layout="[N,C,H,W]"/>
					</rt_info>
				</port>
			</output>
		</layer>
		<layer id="20" name="inp_state_018" type="Parameter" version="opset1">
			<data shape="1,256,8,32" element_type="f32"/>
			<rt_info>
				<attribute name="fused_names" version="0" value="inp_state_018"/>
			</rt_info>
			<output>
				<port id="0" precision="FP32" names="inp_state_018">
					<dim>1</dim>
					<dim>256</dim>
					<dim>8</dim>
					<dim>32</dim>
					<rt_info>
						<attribute name="layout" version="0" layout="[N,C,H,W]"/>
					</rt_info>
				</port>
			</output>
		</layer>
		<layer id="19" name="inp_state_019" type="Parameter" version="opset1">
			<data shape="1,384,8,32" element_type="f32"/>
			<rt_info>
				<attribute name="fused_names" version="0" value="inp_state_019"/>
			</rt_info>
			<output>
				<port id="0" precision="FP32" names="inp_state_019">
					<dim>1</dim>
					<dim>384</dim>
					<dim>8</dim>
					<dim>32</dim>
					<rt_info>
						<attribute name="layout" version="0" layout="[N,C,H,W]"/>
					</rt_info>
				</port>
			</output>
		</layer>
		<layer id="18" name="inp_state_020" type="Parameter" version="opset1">
			<data shape="1,512,16,16" element_type="f32"/>
			<rt_info>
				<attribute name="fused_names" version="0" value="inp_state_020"/>
			</rt_info>
			<output>
				<port id="0" precision="FP32" names="inp_state_020">
					<dim>1</dim>
					<dim>512</dim>
					<dim>16</dim>
					<dim>16</dim>
					<rt_info>
						<attribute name="layout" version="0" layout="[N,C,H,W]"/>
					</rt_info>
				</port>
			</output>
		</layer>
		<layer id="17" name="inp_state_021" type="Parameter" version="opset1">
			<data shape="1,256,16,16" element_type="f32"/>
			<rt_info>
				<attribute name="fused_names" version="0" value="inp_state_021"/>
			</rt_info>
			<output>
				<port id="0" precision="FP32" names="inp_state_021">
					<dim>1</dim>
					<dim>256</dim>
					<dim>16</dim>
					<dim>16</dim>
					<rt_info>
						<attribute name="layout" version="0" layout="[N,C,H,W]"/>
					</rt_info>
				</port>
			</output>
		</layer>
		<layer id="16" name="inp_state_022" type="Parameter" version="opset1">
			<data shape="1,384,16,16" element_type="f32"/>
			<rt_info>
				<attribute name="fused_names" version="0" value="inp_state_022"/>
			</rt_info>
			<output>
				<port id="0" precision="FP32" names="inp_state_022">
					<dim>1</dim>
					<dim>384</dim>
					<dim>16</dim>
					<dim>16</dim>
					<rt_info>
						<attribute name="layout" version="0" layout="[N,C,H,W]"/>
					</rt_info>
				</port>
			</output>
		</layer>
		<layer id="15" name="inp_state_023" type="Parameter" version="opset1">
			<data shape="1,256,32,8" element_type="f32"/>
			<rt_info>
				<attribute name="fused_names" version="0" value="inp_state_023"/>
			</rt_info>
			<output>
				<port id="0" precision="FP32" names="inp_state_023">
					<dim>1</dim>
					<dim>256</dim>
					<dim>32</dim>
					<dim>8</dim>
					<rt_info>
						<attribute name="layout" version="0" layout="[N,C,H,W]"/>
					</rt_info>
				</port>
			</output>
		</layer>
		<layer id="14" name="inp_state_024" type="Parameter" version="opset1">
			<data shape="1,128,32,8" element_type="f32"/>
			<rt_info>
				<attribute name="fused_names" version="0" value="inp_state_024"/>
			</rt_info>
			<output>
				<port id="0" precision="FP32" names="inp_state_024">
					<dim>1</dim>
					<dim>128</dim>
					<dim>32</dim>
					<dim>8</dim>
					<rt_info>
						<attribute name="layout" version="0" layout="[N,C,H,W]"/>
					</rt_info>
				</port>
			</output>
		</layer>
		<layer id="13" name="inp_state_025" type="Parameter" version="opset1">
			<data shape="1,192,32,8" element_type="f32"/>
			<rt_info>
				<attribute name="fused_names" version="0" value="inp_state_025"/>
			</rt_info>
			<output>
				<port id="0" precision="FP32" names="inp_state_025">
					<dim>1</dim>
					<dim>192</dim>
					<dim>32</dim>
					<dim>8</dim>
					<rt_info>
						<attribute name="layout" version="0" layout="[N,C,H,W]"/>
					</rt_info>
				</port>
			</output>
		</layer>
		<layer id="12" name="inp_state_026" type="Parameter" version="opset1">
			<data shape="1,256,32,8" element_type="f32"/>
			<rt_info>
				<attribute name="fused_names" version="0" value="inp_state_026"/>
			</rt_info>
			<output>
				<port id="0" precision="FP32" names="inp_state_026">
					<dim>1</dim>
					<dim>256</dim>
					<dim>32</dim>
					<dim>8</dim>
					<rt_info>
						<attribute name="layout" version="0" layout="[N,C,H,W]"/>
					</rt_info>
				</port>
			</output>
		</layer>
		<layer id="11" name="inp_state_027" type="Parameter" version="opset1">
			<data shape="1,128,64,4" element_type="f32"/>
			<rt_info>
				<attribute name="fused_names" version="0" value="inp_state_027"/>
			</rt_info>
			<output>
				<port id="0" precision="FP32" names="inp_state_027">
					<dim>1</dim>
					<dim>128</dim>
					<dim>64</dim>
					<dim>4</dim>
					<rt_info>
						<attribute name="layout" version="0" layout="[N,C,H,W]"/>
					</rt_info>
				</port>
			</output>
		</layer>
		<layer id="10" name="inp_state_028" type="Parameter" version="opset1">
			<data shape="1,64,64,4" element_type="f32"/>
			<rt_info>
				<attribute name="fused_names" version="0" value="inp_state_028"/>
			</rt_info>
			<output>
				<port id="0" precision="FP32" names="inp_state_028">
					<dim>1</dim>
					<dim>64</dim>
					<dim>64</dim>
					<dim>4</dim>
					<rt_info>
						<attribute name="layout" version="0" layout="[N,C,H,W]"/>
					</rt_info>
				</port>
			</output>
		</layer>
		<layer id="9" name="inp_state_029" type="Parameter" version="opset1">
			<data shape="1,96,64,4" element_type="f32"/>
			<rt_info>
				<attribute name="fused_names" version="0" value="inp_state_029"/>
			</rt_info>
			<output>
				<port id="0" precision="FP32" names="inp_state_029">
					<dim>1</dim>
					<dim>96</dim>
					<dim>64</dim>
					<dim>4</dim>
					<rt_info>
						<attribute name="layout" version="0" layout="[N,C,H,W]"/>
					</rt_info>
				</port>
			</output>
		</layer>
		<layer id="8" name="inp_state_030" type="Parameter" version="opset1">
			<data shape="1,128,64,4" element_type="f32"/>
			<rt_info>
				<attribute name="fused_names" version="0" value="inp_state_030"/>
			</rt_info>
			<output>
				<port id="0" precision="FP32" names="inp_state_030">
					<dim>1</dim>
					<dim>128</dim>
					<dim>64</dim>
					<dim>4</dim>
					<rt_info>
						<attribute name="layout" version="0" layout="[N,C,H,W]"/>
					</rt_info>
				</port>
			</output>
		</layer>
		<layer id="7" name="inp_state_031" type="Parameter" version="opset1">
			<data shape="1,160,64,4" element_type="f32"/>
			<rt_info>
				<attribute name="fused_names" version="0" value="inp_state_031"/>
			</rt_info>
			<output>
				<port id="0" precision="FP32" names="inp_state_031">
					<dim>1</dim>
					<dim>160</dim>
					<dim>64</dim>
					<dim>4</dim>
					<rt_info>
						<attribute name="layout" version="0" layout="[N,C,H,W]"/>
					</rt_info>
				</port>
			</output>
		</layer>
		<layer id="6" name="inp_state_032" type="Parameter" version="opset1">
			<data shape="1,64,129,2" element_type="f32"/>
			<rt_info>
				<attribute name="fused_names" version="0" value="inp_state_032"/>
			</rt_info>
			<output>
				<port id="0" precision="FP32" names="inp_state_032">
					<dim>1</dim>
					<dim>64</dim>
					<dim>129</dim>
					<dim>2</dim>
					<rt_info>
						<attribute name="layout" version="0" layout="[N,C,H,W]"/>
					</rt_info>
				</port>
			</output>
		</layer>
		<layer id="5" name="inp_state_033" type="Parameter" version="opset1">
			<data shape="1,32,129,2" element_type="f32"/>
			<rt_info>
				<attribute name="fused_names" version="0" value="inp_state_033"/>
			</rt_info>
			<output>
				<port id="0" precision="FP32" names="inp_state_033">
					<dim>1</dim>
					<dim>32</dim>
					<dim>129</dim>
					<dim>2</dim>
					<rt_info>
						<attribute name="layout" version="0" layout="[N,C,H,W]"/>
					</rt_info>
				</port>
			</output>
		</layer>
		<layer id="4" name="inp_state_034" type="Parameter" version="opset1">
			<data shape="1,48,129,2" element_type="f32"/>
			<rt_info>
				<attribute name="fused_names" version="0" value="inp_state_034"/>
			</rt_info>
			<output>
				<port id="0" precision="FP32" names="inp_state_034">
					<dim>1</dim>
					<dim>48</dim>
					<dim>129</dim>
					<dim>2</dim>
					<rt_info>
						<attribute name="layout" version="0" layout="[N,C,H,W]"/>
					</rt_info>
				</port>
			</output>
		</layer>
		<layer id="3" name="inp_state_035" type="Parameter" version="opset1">
			<data shape="1,64,129,2" element_type="f32"/>
			<rt_info>
				<attribute name="fused_names" version="0" value="inp_state_035"/>
			</rt_info>
			<output>
				<port id="0" precision="FP32" names="inp_state_035">
					<dim>1</dim>
					<dim>64</dim>
					<dim>129</dim>
					<dim>2</dim>
					<rt_info>
						<attribute name="layout" version="0" layout="[N,C,H,W]"/>
					</rt_info>
				</port>
			</output>
		</layer>
		<layer id="2" name="inp_state_036" type="Parameter" version="opset1">
			<data shape="1,80,129,2" element_type="f32"/>
			<rt_info>
				<attribute name="fused_names" version="0" value="inp_state_036"/>
			</rt_info>
			<output>
				<port id="0" precision="FP32" names="inp_state_036">
					<dim>1</dim>
					<dim>80</dim>
					<dim>129</dim>
					<dim>2</dim>
					<rt_info>
						<attribute name="layout" version="0" layout="[N,C,H,W]"/>
					</rt_info>
				</port>
			</output>
		</layer>
		<layer id="1" name="inp_state_037" type="Parameter" version="opset1">
			<data shape="1,2,129,2" element_type="f32"/>
			<rt_info>
				<attribute name="fused_names" version="0" value="inp_state_037"/>
			</rt_info>
			<output>
				<port id="0" precision="FP32" names="inp_state_037">
					<dim>1</dim>
					<dim>2</dim>
					<dim>129</dim>
					<dim>2</dim>
					<rt_info>
						<attribute name="layout" version="0" layout="[N,C,H,W]"/>
					</rt_info>
				</port>
			</output>
		</layer>
		<layer id="0" name="inp_state_038" type="Parameter" version="opset1">
			<data shape="1,1,128" element_type="f32"/>
			<rt_info>
				<attribute name="fused_names" version="0" value="inp_state_038"/>
			</rt_info>
			<output>
				<port id="0" precision="FP32" names="inp_state_038">
					<dim>1</dim>
					<dim>1</dim>
					<dim>128</dim>
					<rt_info>
						<attribute name="layout" version="0" layout="[N,H,W]"/>
					</rt_info>
				</port>
			</output>
		</layer>
		<layer id="40" name="308" type="Concat" version="opset1">
			<data axis="1"/>
			<rt_info>
				<attribute name="fused_names" version="0" value="308"/>
			</rt_info>
			<input>
				<port id="0" precision="FP32">
					<dim>1</dim>
					<dim>128</dim>
				</port>
				<port id="1" precision="FP32">
					<dim>1</dim>
					<dim>128</dim>
				</port>
			</input>
			<output>
				<port id="2" precision="FP32" names="308">
					<dim>1</dim>
					<dim>256</dim>
				</port>
			</output>
		</layer>
		<layer id="41" name="Constant_500" type="Const" version="opset1">
			<data element_type="i64" shape="1" offset="0" size="8"/>
			<rt_info>
				<attribute name="fused_names" version="0" value="Constant_500"/>
			</rt_info>
			<output>
				<port id="0" precision="I64">
					<dim>1</dim>
				</port>
			</output>
		</layer>
		<layer id="42" name="322" type="Unsqueeze" version="opset1">
			<rt_info>
				<attribute name="fused_names" version="0" value="322"/>
			</rt_info>
			<input>
				<port id="0" precision="FP32">
					<dim>1</dim>
					<dim>256</dim>
				</port>
				<port id="1" precision="I64">
					<dim>1</dim>
				</port>
			</input>
			<output>
				<port id="2" precision="FP32" names="322">
					<dim>1</dim>
					<dim>1</dim>
					<dim>256</dim>
				</port>
			</output>
		</layer>
		<layer id="43" name="Constant_502" type="Const" version="opset1">
			<data element_type="i64" shape="1" offset="8" size="8"/>
			<rt_info>
				<attribute name="fused_names" version="0" value="Constant_502"/>
			</rt_info>
			<output>
				<port id="0" precision="I64">
					<dim>1</dim>
				</port>
			</output>
		</layer>
		<layer id="44" name="323" type="Unsqueeze" version="opset1">
			<rt_info>
				<attribute name="fused_names" version="0" value="323"/>
			</rt_info>
			<input>
				<port id="0" precision="FP32">
					<dim>1</dim>
					<dim>1</dim>
					<dim>256</dim>
				</port>
				<port id="1" precision="I64">
					<dim>1</dim>
				</port>
			</input>
			<output>
				<port id="2" precision="FP32" names="323">
					<dim>1</dim>
					<dim>1</dim>
					<dim>1</dim>
					<dim>256</dim>
				</port>
			</output>
		</layer>
		<layer id="45" name="_encdec_matrix" type="Const" version="opset1">
			<data element_type="f32" shape="258, 1, 1, 256" offset="16" size="264192"/>
			<rt_info>
				<attribute name="fused_names" version="0" value="_encdec_matrix"/>
			</rt_info>
			<output>
				<port id="0" precision="FP32" names="_encdec_matrix">
					<dim>258</dim>
					<dim>1</dim>
					<dim>1</dim>
					<dim>256</dim>
				</port>
			</output>
		</layer>
		<layer id="46" name="324" type="Convolution" version="opset1">
			<data strides="128, 128" dilations="1, 1" pads_begin="0, 0" pads_end="0, 0" auto_pad="explicit"/>
			<rt_info>
				<attribute name="fused_names" version="0" value="324"/>
			</rt_info>
			<input>
				<port id="0" precision="FP32">
					<dim>1</dim>
					<dim>1</dim>
					<dim>1</dim>
					<dim>256</dim>
				</port>
				<port id="1" precision="FP32">
					<dim>258</dim>
					<dim>1</dim>
					<dim>1</dim>
					<dim>256</dim>
				</port>
			</input>
			<output>
				<port id="2" precision="FP32" names="324">
					<dim>1</dim>
					<dim>258</dim>
					<dim>1</dim>
					<dim>1</dim>
				</port>
			</output>
		</layer>
		<layer id="47" name="Constant_45503" type="Const" version="opset1">
			<data element_type="i64" shape="1" offset="264208" size="8"/>
			<output>
				<port id="0" precision="I64">
					<dim>1</dim>
				</port>
			</output>
		</layer>
		<layer id="48" name="2102" type="Const" version="opset1">
			<data element_type="i64" shape="1" offset="8" size="8"/>
			<rt_info>
				<attribute name="fused_names" version="0" value="2102"/>
			</rt_info>
			<output>
				<port id="0" precision="I64" names="2102">
					<dim>1</dim>
				</port>
			</output>
		</layer>
		<layer id="49" name="325" type="ShapeOf" version="opset3">
			<data output_type="i64"/>
			<rt_info>
				<attribute name="fused_names" version="0" value="325, 328, 331"/>
			</rt_info>
			<input>
				<port id="0" precision="FP32">
					<dim>1</dim>
					<dim>258</dim>
					<dim>1</dim>
					<dim>1</dim>
				</port>
			</input>
			<output>
				<port id="1" precision="I64" names="325,328,331">
					<dim>4</dim>
				</port>
			</output>
		</layer>
		<layer id="50" name="329" type="Const" version="opset1">
			<data element_type="i64" shape="" offset="0" size="8"/>
			<rt_info>
				<attribute name="fused_names" version="0" value="329"/>
			</rt_info>
			<output>
				<port id="0" precision="I64" names="329"/>
			</output>
		</layer>
		<layer id="51" name="Constant_512" type="Const" version="opset1">
			<data element_type="i64" shape="" offset="264208" size="8"/>
			<rt_info>
				<attribute name="fused_names" version="0" value="Constant_512"/>
			</rt_info>
			<output>
				<port id="0" precision="I64"/>
			</output>
		</layer>
		<layer id="52" name="330" type="Gather" version="opset8">
			<data batch_dims="0"/>
			<rt_info>
				<attribute name="fused_names" version="0" value="329, 330, Constant_512"/>
			</rt_info>
			<input>
				<port id="0" precision="I64">
					<dim>4</dim>
				</port>
				<port id="1" precision="I64"/>
				<port id="2" precision="I64"/>
			</input>
			<output>
				<port id="3" precision="I64" names="330"/>
			</output>
		</layer>
		<layer id="53" name="334" type="Const" version="opset1">
			<data element_type="i64" shape="" offset="8" size="8"/>
			<rt_info>
				<attribute name="fused_names" version="0" value="334"/>
			</rt_info>
			<output>
				<port id="0" precision="I64" names="334"/>
			</output>
		</layer>
		<layer id="54" name="335" type="Divide" version="opset1">
			<data auto_broadcast="numpy" m_pythondiv="true"/>
			<rt_info>
				<attribute name="fused_names" version="0" value="334, 335, 336, 337"/>
			</rt_info>
			<input>
				<port id="0" precision="I64"/>
				<port id="1" precision="I64"/>
			</input>
			<output>
				<port id="2" precision="I64" names="335,336,337"/>
			</output>
		</layer>
		<layer id="55" name="Constant_524" type="Const" version="opset1">
			<data element_type="i64" shape="1" offset="264208" size="8"/>
			<rt_info>
				<attribute name="fused_names" version="0" value="Constant_524"/>
			</rt_info>
			<output>
				<port id="0" precision="I64">
					<dim>1</dim>
				</port>
			</output>
		</layer>
		<layer id="56" name="341" type="Unsqueeze" version="opset1">
			<rt_info>
				<attribute name="fused_names" version="0" value="341, Constant_524"/>
			</rt_info>
			<input>
				<port id="0" precision="I64"/>
				<port id="1" precision="I64">
					<dim>1</dim>
				</port>
			</input>
			<output>
				<port id="2" precision="I64" names="341">
					<dim>1</dim>
				</port>
			</output>
		</layer>
		<layer id="57" name="Constant_45504" type="Const" version="opset1">
			<data element_type="i64" shape="1" offset="264208" size="8"/>
			<output>
				<port id="0" precision="I64">
					<dim>1</dim>
				</port>
			</output>
		</layer>
		<layer id="58" name="343" type="Concat" version="opset1">
			<data axis="0"/>
			<rt_info>
				<attribute name="fused_names" version="0" value="2102, 343"/>
			</rt_info>
			<input>
				<port id="0" precision="I64">
					<dim>1</dim>
				</port>
				<port id="1" precision="I64">
					<dim>1</dim>
				</port>
				<port id="2" precision="I64">
					<dim>1</dim>
				</port>
				<port id="3" precision="I64">
					<dim>1</dim>
				</port>
			</input>
			<output>
				<port id="4" precision="I64">
					<dim>4</dim>
				</port>
			</output>
		</layer>
		<layer id="59" name="344" type="Reshape" version="opset1">
			<data special_zero="true"/>
			<rt_info>
				<attribute name="fused_names" version="0" value="344"/>
			</rt_info>
			<input>
				<port id="0" precision="FP32">
					<dim>1</dim>
					<dim>258</dim>
					<dim>1</dim>
					<dim>1</dim>
				</port>
				<port id="1" precision="I64">
					<dim>4</dim>
				</port>
			</input>
			<output>
				<port id="2" precision="FP32" names="344">
					<dim>1</dim>
					<dim>2</dim>
					<dim>129</dim>
					<dim>1</dim>
				</port>
			</output>
		</layer>
		<layer id="60" name="2035" type="Concat" version="opset1">
			<data axis="3"/>
			<rt_info>
				<attribute name="fused_names" version="0" value="2035"/>
			</rt_info>
			<input>
				<port id="0" precision="FP32">
					<dim>1</dim>
					<dim>2</dim>
					<dim>129</dim>
					<dim>2</dim>
				</port>
				<port id="1" precision="FP32">
					<dim>1</dim>
					<dim>2</dim>
					<dim>129</dim>
					<dim>1</dim>
				</port>
			</input>
			<output>
				<port id="2" precision="FP32" names="2035">
					<dim>1</dim>
					<dim>2</dim>
					<dim>129</dim>
					<dim>3</dim>
				</port>
			</output>
		</layer>
		<layer id="61" name="Constant_59442" type="Const" version="opset1">
			<data element_type="i64" shape="4" offset="264216" size="32"/>
			<rt_info>
				<attribute name="fused_names" version="0" value="2048, Broadcast_10649"/>
			</rt_info>
			<output>
				<port id="0" precision="I64">
					<dim>4</dim>
				</port>
			</output>
		</layer>
		<layer id="62" name="Constant_59443" type="Const" version="opset1">
			<data element_type="i64" shape="4" offset="264216" size="32"/>
			<rt_info>
				<attribute name="fused_names" version="0" value="2048, Broadcast_10649"/>
			</rt_info>
			<output>
				<port id="0" precision="I64">
					<dim>4</dim>
				</port>
			</output>
		</layer>
		<layer id="63" name="Constant_59439" type="Const" version="opset1">
			<data element_type="i64" shape="1" offset="264248" size="8"/>
			<rt_info>
				<attribute name="fused_names" version="0" value="2048, Broadcast_10649"/>
			</rt_info>
			<output>
				<port id="0" precision="I64">
					<dim>1</dim>
				</port>
			</output>
		</layer>
		<layer id="64" name="2036" type="ShapeOf" version="opset3">
			<data output_type="i64"/>
			<rt_info>
				<attribute name="fused_names" version="0" value="2036"/>
			</rt_info>
			<input>
				<port id="0" precision="FP32">
					<dim>1</dim>
					<dim>2</dim>
					<dim>129</dim>
					<dim>3</dim>
				</port>
			</input>
			<output>
				<port id="1" precision="I64" names="2036">
					<dim>4</dim>
				</port>
			</output>
		</layer>
		<layer id="65" name="2037" type="Const" version="opset1">
			<data element_type="i64" shape="" offset="264248" size="8"/>
			<rt_info>
				<attribute name="fused_names" version="0" value="2037"/>
			</rt_info>
			<output>
				<port id="0" precision="I64" names="2037"/>
			</output>
		</layer>
		<layer id="66" name="Constant_10637" type="Const" version="opset1">
			<data element_type="i64" shape="" offset="264208" size="8"/>
			<rt_info>
				<attribute name="fused_names" version="0" value="Constant_10637"/>
			</rt_info>
			<output>
				<port id="0" precision="I64"/>
			</output>
		</layer>
		<layer id="67" name="2038" type="Gather" version="opset8">
			<data batch_dims="0"/>
			<rt_info>
				<attribute name="fused_names" version="0" value="2037, 2038, Constant_10637"/>
			</rt_info>
			<input>
				<port id="0" precision="I64">
					<dim>4</dim>
				</port>
				<port id="1" precision="I64"/>
				<port id="2" precision="I64"/>
			</input>
			<output>
				<port id="3" precision="I64" names="2038"/>
			</output>
		</layer>
		<layer id="68" name="2039" type="Const" version="opset1">
			<data element_type="i64" shape="" offset="8" size="8"/>
			<rt_info>
				<attribute name="fused_names" version="0" value="2039"/>
			</rt_info>
			<output>
				<port id="0" precision="I64" names="2039"/>
			</output>
		</layer>
		<layer id="69" name="2040" type="Subtract" version="opset1">
			<data auto_broadcast="numpy"/>
			<rt_info>
				<attribute name="fused_names" version="0" value="2039, 2040"/>
			</rt_info>
			<input>
				<port id="0" precision="I64"/>
				<port id="1" precision="I64"/>
			</input>
			<output>
				<port id="2" precision="I64" names="2040"/>
			</output>
		</layer>
		<layer id="70" name="Constant_10641" type="Const" version="opset1">
			<data element_type="i64" shape="1" offset="264208" size="8"/>
			<rt_info>
				<attribute name="fused_names" version="0" value="Constant_10641"/>
			</rt_info>
			<output>
				<port id="0" precision="I64">
					<dim>1</dim>
				</port>
			</output>
		</layer>
		<layer id="71" name="2042" type="Unsqueeze" version="opset1">
			<rt_info>
				<attribute name="fused_names" version="0" value="2042, 2046, 2047, Constant_10641"/>
			</rt_info>
			<input>
				<port id="0" precision="I64"/>
				<port id="1" precision="I64">
					<dim>1</dim>
				</port>
			</input>
			<output>
				<port id="2" precision="I64" names="2042,2047">
					<dim>1</dim>
				</port>
			</output>
		</layer>
		<layer id="72" name="Constant_59438" type="Const" version="opset1">
			<data element_type="i32" shape="1" offset="264256" size="4"/>
			<rt_info>
				<attribute name="fused_names" version="0" value="2048, Broadcast_10649"/>
			</rt_info>
			<output>
				<port id="0" precision="I32">
					<dim>1</dim>
				</port>
			</output>
		</layer>
		<layer id="73" name="ScatterUpdate_59444" type="ScatterUpdate" version="opset3">
			<rt_info>
				<attribute name="fused_names" version="0" value="2048, Broadcast_10649"/>
			</rt_info>
			<input>
				<port id="0" precision="I64">
					<dim>4</dim>
				</port>
				<port id="1" precision="I64">
					<dim>1</dim>
				</port>
				<port id="2" precision="I64">
					<dim>1</dim>
				</port>
				<port id="3" precision="I32">
					<dim>1</dim>
				</port>
			</input>
			<output>
				<port id="4" precision="I64">
					<dim>4</dim>
				</port>
			</output>
		</layer>
		<layer id="74" name="Constant_59447" type="Const" version="opset1">
			<data element_type="i64" shape="4" offset="264260" size="32"/>
			<rt_info>
				<attribute name="fused_names" version="0" value="2048, Broadcast_10649"/>
			</rt_info>
			<output>
				<port id="0" precision="I64">
					<dim>4</dim>
				</port>
			</output>
		</layer>
		<layer id="75" name="2048" type="StridedSlice" version="opset1">
			<data begin_mask="1, 1, 1, 0" end_mask="1, 1, 1, 0" new_axis_mask="" shrink_axis_mask="" ellipsis_mask=""/>
			<rt_info>
				<attribute name="fused_names" version="0" value="2048, Broadcast_10649"/>
			</rt_info>
			<input>
				<port id="0" precision="FP32">
					<dim>1</dim>
					<dim>2</dim>
					<dim>129</dim>
					<dim>3</dim>
				</port>
				<port id="1" precision="I64">
					<dim>4</dim>
				</port>
				<port id="2" precision="I64">
					<dim>4</dim>
				</port>
				<port id="3" precision="I64">
					<dim>4</dim>
				</port>
			</input>
			<output>
				<port id="4" precision="FP32" names="2048">
					<dim>1</dim>
					<dim>2</dim>
					<dim>129</dim>
					<dim>1</dim>
				</port>
			</output>
		</layer>
		<layer id="76" name="2055" type="Const" version="opset1">
			<data element_type="i64" shape="" offset="264208" size="8"/>
			<rt_info>
				<attribute name="fused_names" version="0" value="2055"/>
			</rt_info>
			<output>
				<port id="0" precision="I64" names="2055"/>
			</output>
		</layer>
		<layer id="77" name="Constant_10762" type="Const" version="opset1">
			<data element_type="i64" shape="" offset="0" size="8"/>
			<rt_info>
				<attribute name="fused_names" version="0" value="Constant_10762"/>
			</rt_info>
			<output>
				<port id="0" precision="I64"/>
			</output>
		</layer>
		<layer id="78" name="2056" type="Gather" version="opset8">
			<data batch_dims="0"/>
			<rt_info>
				<attribute name="fused_names" version="0" value="2056"/>
			</rt_info>
			<input>
				<port id="0" precision="FP32">
					<dim>1</dim>
					<dim>2</dim>
					<dim>129</dim>
					<dim>1</dim>
				</port>
				<port id="1" precision="I64"/>
				<port id="2" precision="I64"/>
			</input>
			<output>
				<port id="3" precision="FP32" names="2056">
					<dim>1</dim>
					<dim>129</dim>
					<dim>1</dim>
				</port>
			</output>
		</layer>
		<layer id="79" name="Constant_113662" type="Const" version="opset1">
			<data element_type="f32" shape="1, 2, 1, 1" offset="264292" size="8"/>
			<rt_info>
				<attribute name="fused_names" version="0" value="345, blocks_down.0.bd.0.bn.bias, blocks_down.0.bd.0.bn.running_mean, blocks_down.0.bd.0.bn.running_var, blocks_down.0.bd.0.bn.weight"/>
			</rt_info>
			<output>
				<port id="0" precision="FP32">
					<dim>1</dim>
					<dim>2</dim>
					<dim>1</dim>
					<dim>1</dim>
				</port>
			</output>
		</layer>
		<layer id="80" name="Multiply_118202" type="Multiply" version="opset1">
			<data auto_broadcast="numpy"/>
			<rt_info>
				<attribute name="fused_names" version="0" value="345, blocks_down.0.bd.0.bn.bias, blocks_down.0.bd.0.bn.running_mean, blocks_down.0.bd.0.bn.running_var, blocks_down.0.bd.0.bn.weight"/>
			</rt_info>
			<input>
				<port id="0" precision="FP32">
					<dim>1</dim>
					<dim>2</dim>
					<dim>129</dim>
					<dim>1</dim>
				</port>
				<port id="1" precision="FP32">
					<dim>1</dim>
					<dim>2</dim>
					<dim>1</dim>
					<dim>1</dim>
				</port>
			</input>
			<output>
				<port id="2" precision="FP32">
					<dim>1</dim>
					<dim>2</dim>
					<dim>129</dim>
					<dim>1</dim>
				</port>
			</output>
		</layer>
		<layer id="81" name="Constant_118207" type="Const" version="opset1">
			<data element_type="f32" shape="1, 2, 1, 1" offset="264300" size="8"/>
			<output>
				<port id="0" precision="FP32">
					<dim>1</dim>
					<dim>2</dim>
					<dim>1</dim>
					<dim>1</dim>
				</port>
			</output>
		</layer>
		<layer id="82" name="345" type="Add" version="opset1">
			<data auto_broadcast="numpy"/>
			<rt_info>
				<attribute name="fused_names" version="0" value="345, blocks_down.0.bd.0.bn.bias, blocks_down.0.bd.0.bn.running_mean, blocks_down.0.bd.0.bn.running_var, blocks_down.0.bd.0.bn.weight"/>
			</rt_info>
			<input>
				<port id="0" precision="FP32">
					<dim>1</dim>
					<dim>2</dim>
					<dim>129</dim>
					<dim>1</dim>
				</port>
				<port id="1" precision="FP32">
					<dim>1</dim>
					<dim>2</dim>
					<dim>1</dim>
					<dim>1</dim>
				</port>
			</input>
			<output>
				<port id="2" precision="FP32" names="345">
					<dim>1</dim>
					<dim>2</dim>
					<dim>129</dim>
					<dim>1</dim>
				</port>
			</output>
		</layer>
		<layer id="83" name="Constant_630" type="Const" version="opset1">
			<data element_type="f32" shape="1" offset="264308" size="4"/>
			<rt_info>
				<attribute name="fused_names" version="0" value="Constant_630"/>
			</rt_info>
			<output>
				<port id="0" precision="FP32">
					<dim>1</dim>
				</port>
			</output>
		</layer>
		<layer id="84" name="346" type="PReLU" version="opset1">
			<rt_info>
				<attribute name="fused_names" version="0" value="346"/>
			</rt_info>
			<input>
				<port id="0" precision="FP32">
					<dim>1</dim>
					<dim>2</dim>
					<dim>129</dim>
					<dim>1</dim>
				</port>
				<port id="1" precision="FP32">
					<dim>1</dim>
				</port>
			</input>
			<output>
				<port id="2" precision="FP32" names="346">
					<dim>1</dim>
					<dim>2</dim>
					<dim>129</dim>
					<dim>1</dim>
				</port>
			</output>
		</layer>
		<layer id="85" name="347" type="Concat" version="opset1">
			<data axis="3"/>
			<rt_info>
				<attribute name="fused_names" version="0" value="347"/>
			</rt_info>
			<input>
				<port id="0" precision="FP32">
					<dim>1</dim>
					<dim>2</dim>
					<dim>129</dim>
					<dim>2</dim>
				</port>
				<port id="1" precision="FP32">
					<dim>1</dim>
					<dim>2</dim>
					<dim>129</dim>
					<dim>1</dim>
				</port>
			</input>
			<output>
				<port id="2" precision="FP32" names="347">
					<dim>1</dim>
					<dim>2</dim>
					<dim>129</dim>
					<dim>3</dim>
				</port>
			</output>
		</layer>
		<layer id="86" name="blocks_down.0.bd.0.conv.weight" type="Const" version="opset1">
			<data element_type="f32" shape="16, 2, 3, 3" offset="264312" size="1152"/>
			<rt_info>
				<attribute name="fused_names" version="0" value="blocks_down.0.bd.0.conv.weight"/>
			</rt_info>
			<output>
				<port id="0" precision="FP32" names="blocks_down.0.bd.0.conv.weight">
					<dim>16</dim>
					<dim>2</dim>
					<dim>3</dim>
					<dim>3</dim>
				</port>
			</output>
		</layer>
		<layer id="87" name="Convolution_833" type="Convolution" version="opset1">
			<data strides="1, 1" dilations="1, 1" pads_begin="1, 0" pads_end="1, 0" auto_pad="explicit"/>
			<rt_info>
				<attribute name="fused_names" version="0" value="384, Convolution_833, Split_765"/>
			</rt_info>
			<input>
				<port id="0" precision="FP32">
					<dim>1</dim>
					<dim>2</dim>
					<dim>129</dim>
					<dim>3</dim>
				</port>
				<port id="1" precision="FP32">
					<dim>16</dim>
					<dim>2</dim>
					<dim>3</dim>
					<dim>3</dim>
				</port>
			</input>
			<output>
				<port id="2" precision="FP32">
					<dim>1</dim>
					<dim>16</dim>
					<dim>129</dim>
					<dim>1</dim>
				</port>
			</output>
		</layer>
		<layer id="88" name="Reshape_853" type="Const" version="opset1">
			<data element_type="f32" shape="1, 16, 1, 1" offset="265464" size="64"/>
			<output>
				<port id="0" precision="FP32">
					<dim>1</dim>
					<dim>16</dim>
					<dim>1</dim>
					<dim>1</dim>
				</port>
			</output>
		</layer>
		<layer id="89" name="385" type="Add" version="opset1">
			<data auto_broadcast="numpy"/>
			<rt_info>
				<attribute name="fused_names" version="0" value="385, Concat_852, Reshape_853"/>
			</rt_info>
			<input>
				<port id="0" precision="FP32">
					<dim>1</dim>
					<dim>16</dim>
					<dim>129</dim>
					<dim>1</dim>
				</port>
				<port id="1" precision="FP32">
					<dim>1</dim>
					<dim>16</dim>
					<dim>1</dim>
					<dim>1</dim>
				</port>
			</input>
			<output>
				<port id="2" precision="FP32" names="385">
					<dim>1</dim>
					<dim>16</dim>
					<dim>129</dim>
					<dim>1</dim>
				</port>
			</output>
		</layer>
		<layer id="90" name="386" type="Concat" version="opset1">
			<data axis="1"/>
			<rt_info>
				<attribute name="fused_names" version="0" value="386"/>
			</rt_info>
			<input>
				<port id="0" precision="FP32">
					<dim>1</dim>
					<dim>2</dim>
					<dim>129</dim>
					<dim>1</dim>
				</port>
				<port id="1" precision="FP32">
					<dim>1</dim>
					<dim>16</dim>
					<dim>129</dim>
					<dim>1</dim>
				</port>
			</input>
			<output>
				<port id="2" precision="FP32" names="386">
					<dim>1</dim>
					<dim>18</dim>
					<dim>129</dim>
					<dim>1</dim>
				</port>
			</output>
		</layer>
		<layer id="91" name="Constant_113788" type="Const" version="opset1">
			<data element_type="f32" shape="1, 18, 1, 1" offset="265528" size="72"/>
			<rt_info>
				<attribute name="fused_names" version="0" value="387, blocks_down.0.bd.1.bn.bias, blocks_down.0.bd.1.bn.running_mean, blocks_down.0.bd.1.bn.running_var, blocks_down.0.bd.1.bn.weight"/>
			</rt_info>
			<output>
				<port id="0" precision="FP32">
					<dim>1</dim>
					<dim>18</dim>
					<dim>1</dim>
					<dim>1</dim>
				</port>
			</output>
		</layer>
		<layer id="92" name="Multiply_118209" type="Multiply" version="opset1">
			<data auto_broadcast="numpy"/>
			<rt_info>
				<attribute name="fused_names" version="0" value="387, blocks_down.0.bd.1.bn.bias, blocks_down.0.bd.1.bn.running_mean, blocks_down.0.bd.1.bn.running_var, blocks_down.0.bd.1.bn.weight"/>
			</rt_info>
			<input>
				<port id="0" precision="FP32">
					<dim>1</dim>
					<dim>18</dim>
					<dim>129</dim>
					<dim>1</dim>
				</port>
				<port id="1" precision="FP32">
					<dim>1</dim>
					<dim>18</dim>
					<dim>1</dim>
					<dim>1</dim>
				</port>
			</input>
			<output>
				<port id="2" precision="FP32">
					<dim>1</dim>
					<dim>18</dim>
					<dim>129</dim>
					<dim>1</dim>
				</port>
			</output>
		</layer>
		<layer id="93" name="Constant_118214" type="Const" version="opset1">
			<data element_type="f32" shape="1, 18, 1, 1" offset="265600" size="72"/>
			<output>
				<port id="0" precision="FP32">
					<dim>1</dim>
					<dim>18</dim>
					<dim>1</dim>
					<dim>1</dim>
				</port>
			</output>
		</layer>
		<layer id="94" name="387" type="Add" version="opset1">
			<data auto_broadcast="numpy"/>
			<rt_info>
				<attribute name="fused_names" version="0" value="387, blocks_down.0.bd.1.bn.bias, blocks_down.0.bd.1.bn.running_mean, blocks_down.0.bd.1.bn.running_var, blocks_down.0.bd.1.bn.weight"/>
			</rt_info>
			<input>
				<port id="0" precision="FP32">
					<dim>1</dim>
					<dim>18</dim>
					<dim>129</dim>
					<dim>1</dim>
				</port>
				<port id="1" precision="FP32">
					<dim>1</dim>
					<dim>18</dim>
					<dim>1</dim>
					<dim>1</dim>
				</port>
			</input>
			<output>
				<port id="2" precision="FP32" names="387">
					<dim>1</dim>
					<dim>18</dim>
					<dim>129</dim>
					<dim>1</dim>
				</port>
			</output>
		</layer>
		<layer id="95" name="Constant_883" type="Const" version="opset1">
			<data element_type="f32" shape="1" offset="264308" size="4"/>
			<rt_info>
				<attribute name="fused_names" version="0" value="Constant_883"/>
			</rt_info>
			<output>
				<port id="0" precision="FP32">
					<dim>1</dim>
				</port>
			</output>
		</layer>
		<layer id="96" name="388" type="PReLU" version="opset1">
			<rt_info>
				<attribute name="fused_names" version="0" value="388"/>
			</rt_info>
			<input>
				<port id="0" precision="FP32">
					<dim>1</dim>
					<dim>18</dim>
					<dim>129</dim>
					<dim>1</dim>
				</port>
				<port id="1" precision="FP32">
					<dim>1</dim>
				</port>
			</input>
			<output>
				<port id="2" precision="FP32" names="388">
					<dim>1</dim>
					<dim>18</dim>
					<dim>129</dim>
					<dim>1</dim>
				</port>
			</output>
		</layer>
		<layer id="97" name="389" type="Concat" version="opset1">
			<data axis="3"/>
			<rt_info>
				<attribute name="fused_names" version="0" value="389"/>
			</rt_info>
			<input>
				<port id="0" precision="FP32">
					<dim>1</dim>
					<dim>18</dim>
					<dim>129</dim>
					<dim>2</dim>
				</port>
				<port id="1" precision="FP32">
					<dim>1</dim>
					<dim>18</dim>
					<dim>129</dim>
					<dim>1</dim>
				</port>
			</input>
			<output>
				<port id="2" precision="FP32" names="389">
					<dim>1</dim>
					<dim>18</dim>
					<dim>129</dim>
					<dim>3</dim>
				</port>
			</output>
		</layer>
		<layer id="98" name="blocks_down.0.bd.1.conv.weight" type="Const" version="opset1">
			<data element_type="f32" shape="16, 18, 3, 3" offset="265672" size="10368"/>
			<rt_info>
				<attribute name="fused_names" version="0" value="blocks_down.0.bd.1.conv.weight"/>
			</rt_info>
			<output>
				<port id="0" precision="FP32" names="blocks_down.0.bd.1.conv.weight">
					<dim>16</dim>
					<dim>18</dim>
					<dim>3</dim>
					<dim>3</dim>
				</port>
			</output>
		</layer>
		<layer id="99" name="Convolution_1086" type="Convolution" version="opset1">
			<data strides="1, 1" dilations="1, 1" pads_begin="1, 0" pads_end="1, 0" auto_pad="explicit"/>
			<rt_info>
				<attribute name="fused_names" version="0" value="426, Convolution_1086, Split_1018"/>
			</rt_info>
			<input>
				<port id="0" precision="FP32">
					<dim>1</dim>
					<dim>18</dim>
					<dim>129</dim>
					<dim>3</dim>
				</port>
				<port id="1" precision="FP32">
					<dim>16</dim>
					<dim>18</dim>
					<dim>3</dim>
					<dim>3</dim>
				</port>
			</input>
			<output>
				<port id="2" precision="FP32">
					<dim>1</dim>
					<dim>16</dim>
					<dim>129</dim>
					<dim>1</dim>
				</port>
			</output>
		</layer>
		<layer id="100" name="Reshape_1106" type="Const" version="opset1">
			<data element_type="f32" shape="1, 16, 1, 1" offset="276040" size="64"/>
			<output>
				<port id="0" precision="FP32">
					<dim>1</dim>
					<dim>16</dim>
					<dim>1</dim>
					<dim>1</dim>
				</port>
			</output>
		</layer>
		<layer id="101" name="427" type="Add" version="opset1">
			<data auto_broadcast="numpy"/>
			<rt_info>
				<attribute name="fused_names" version="0" value="427, Concat_1105, Reshape_1106"/>
			</rt_info>
			<input>
				<port id="0" precision="FP32">
					<dim>1</dim>
					<dim>16</dim>
					<dim>129</dim>
					<dim>1</dim>
				</port>
				<port id="1" precision="FP32">
					<dim>1</dim>
					<dim>16</dim>
					<dim>1</dim>
					<dim>1</dim>
				</port>
			</input>
			<output>
				<port id="2" precision="FP32" names="427">
					<dim>1</dim>
					<dim>16</dim>
					<dim>129</dim>
					<dim>1</dim>
				</port>
			</output>
		</layer>
		<layer id="102" name="428" type="Concat" version="opset1">
			<data axis="1"/>
			<rt_info>
				<attribute name="fused_names" version="0" value="428"/>
			</rt_info>
			<input>
				<port id="0" precision="FP32">
					<dim>1</dim>
					<dim>18</dim>
					<dim>129</dim>
					<dim>1</dim>
				</port>
				<port id="1" precision="FP32">
					<dim>1</dim>
					<dim>16</dim>
					<dim>129</dim>
					<dim>1</dim>
				</port>
			</input>
			<output>
				<port id="2" precision="FP32" names="428">
					<dim>1</dim>
					<dim>34</dim>
					<dim>129</dim>
					<dim>1</dim>
				</port>
			</output>
		</layer>
		<layer id="103" name="Constant_113914" type="Const" version="opset1">
			<data element_type="f32" shape="1, 34, 1, 1" offset="276104" size="136"/>
			<rt_info>
				<attribute name="fused_names" version="0" value="429, blocks_down.0.bd.2.bn.bias, blocks_down.0.bd.2.bn.running_mean, blocks_down.0.bd.2.bn.running_var, blocks_down.0.bd.2.bn.weight"/>
			</rt_info>
			<output>
				<port id="0" precision="FP32">
					<dim>1</dim>
					<dim>34</dim>
					<dim>1</dim>
					<dim>1</dim>
				</port>
			</output>
		</layer>
		<layer id="104" name="Multiply_118216" type="Multiply" version="opset1">
			<data auto_broadcast="numpy"/>
			<rt_info>
				<attribute name="fused_names" version="0" value="429, blocks_down.0.bd.2.bn.bias, blocks_down.0.bd.2.bn.running_mean, blocks_down.0.bd.2.bn.running_var, blocks_down.0.bd.2.bn.weight"/>
			</rt_info>
			<input>
				<port id="0" precision="FP32">
					<dim>1</dim>
					<dim>34</dim>
					<dim>129</dim>
					<dim>1</dim>
				</port>
				<port id="1" precision="FP32">
					<dim>1</dim>
					<dim>34</dim>
					<dim>1</dim>
					<dim>1</dim>
				</port>
			</input>
			<output>
				<port id="2" precision="FP32">
					<dim>1</dim>
					<dim>34</dim>
					<dim>129</dim>
					<dim>1</dim>
				</port>
			</output>
		</layer>
		<layer id="105" name="Constant_118221" type="Const" version="opset1">
			<data element_type="f32" shape="1, 34, 1, 1" offset="276240" size="136"/>
			<output>
				<port id="0" precision="FP32">
					<dim>1</dim>
					<dim>34</dim>
					<dim>1</dim>
					<dim>1</dim>
				</port>
			</output>
		</layer>
		<layer id="106" name="429" type="Add" version="opset1">
			<data auto_broadcast="numpy"/>
			<rt_info>
				<attribute name="fused_names" version="0" value="429, blocks_down.0.bd.2.bn.bias, blocks_down.0.bd.2.bn.running_mean, blocks_down.0.bd.2.bn.running_var, blocks_down.0.bd.2.bn.weight"/>
			</rt_info>
			<input>
				<port id="0" precision="FP32">
					<dim>1</dim>
					<dim>34</dim>
					<dim>129</dim>
					<dim>1</dim>
				</port>
				<port id="1" precision="FP32">
					<dim>1</dim>
					<dim>34</dim>
					<dim>1</dim>
					<dim>1</dim>
				</port>
			</input>
			<output>
				<port id="2" precision="FP32" names="429">
					<dim>1</dim>
					<dim>34</dim>
					<dim>129</dim>
					<dim>1</dim>
				</port>
			</output>
		</layer>
		<layer id="107" name="Constant_1136" type="Const" version="opset1">
			<data element_type="f32" shape="1" offset="264308" size="4"/>
			<rt_info>
				<attribute name="fused_names" version="0" value="Constant_1136"/>
			</rt_info>
			<output>
				<port id="0" precision="FP32">
					<dim>1</dim>
				</port>
			</output>
		</layer>
		<layer id="108" name="430" type="PReLU" version="opset1">
			<rt_info>
				<attribute name="fused_names" version="0" value="430"/>
			</rt_info>
			<input>
				<port id="0" precision="FP32">
					<dim>1</dim>
					<dim>34</dim>
					<dim>129</dim>
					<dim>1</dim>
				</port>
				<port id="1" precision="FP32">
					<dim>1</dim>
				</port>
			</input>
			<output>
				<port id="2" precision="FP32" names="430">
					<dim>1</dim>
					<dim>34</dim>
					<dim>129</dim>
					<dim>1</dim>
				</port>
			</output>
		</layer>
		<layer id="109" name="431" type="Concat" version="opset1">
			<data axis="3"/>
			<rt_info>
				<attribute name="fused_names" version="0" value="431"/>
			</rt_info>
			<input>
				<port id="0" precision="FP32">
					<dim>1</dim>
					<dim>34</dim>
					<dim>129</dim>
					<dim>2</dim>
				</port>
				<port id="1" precision="FP32">
					<dim>1</dim>
					<dim>34</dim>
					<dim>129</dim>
					<dim>1</dim>
				</port>
			</input>
			<output>
				<port id="2" precision="FP32" names="431">
					<dim>1</dim>
					<dim>34</dim>
					<dim>129</dim>
					<dim>3</dim>
				</port>
			</output>
		</layer>
		<layer id="110" name="blocks_down.0.bd.2.conv.weight" type="Const" version="opset1">
			<data element_type="f32" shape="16, 34, 3, 3" offset="276376" size="19584"/>
			<rt_info>
				<attribute name="fused_names" version="0" value="blocks_down.0.bd.2.conv.weight"/>
			</rt_info>
			<output>
				<port id="0" precision="FP32" names="blocks_down.0.bd.2.conv.weight">
					<dim>16</dim>
					<dim>34</dim>
					<dim>3</dim>
					<dim>3</dim>
				</port>
			</output>
		</layer>
		<layer id="111" name="Convolution_1339" type="Convolution" version="opset1">
			<data strides="1, 1" dilations="1, 1" pads_begin="1, 0" pads_end="1, 0" auto_pad="explicit"/>
			<rt_info>
				<attribute name="fused_names" version="0" value="468, Convolution_1339, Split_1271"/>
			</rt_info>
			<input>
				<port id="0" precision="FP32">
					<dim>1</dim>
					<dim>34</dim>
					<dim>129</dim>
					<dim>3</dim>
				</port>
				<port id="1" precision="FP32">
					<dim>16</dim>
					<dim>34</dim>
					<dim>3</dim>
					<dim>3</dim>
				</port>
			</input>
			<output>
				<port id="2" precision="FP32">
					<dim>1</dim>
					<dim>16</dim>
					<dim>129</dim>
					<dim>1</dim>
				</port>
			</output>
		</layer>
		<layer id="112" name="Reshape_1359" type="Const" version="opset1">
			<data element_type="f32" shape="1, 16, 1, 1" offset="295960" size="64"/>
			<output>
				<port id="0" precision="FP32">
					<dim>1</dim>
					<dim>16</dim>
					<dim>1</dim>
					<dim>1</dim>
				</port>
			</output>
		</layer>
		<layer id="113" name="469" type="Add" version="opset1">
			<data auto_broadcast="numpy"/>
			<rt_info>
				<attribute name="fused_names" version="0" value="469, Concat_1358, Reshape_1359"/>
			</rt_info>
			<input>
				<port id="0" precision="FP32">
					<dim>1</dim>
					<dim>16</dim>
					<dim>129</dim>
					<dim>1</dim>
				</port>
				<port id="1" precision="FP32">
					<dim>1</dim>
					<dim>16</dim>
					<dim>1</dim>
					<dim>1</dim>
				</port>
			</input>
			<output>
				<port id="2" precision="FP32" names="469">
					<dim>1</dim>
					<dim>16</dim>
					<dim>129</dim>
					<dim>1</dim>
				</port>
			</output>
		</layer>
		<layer id="114" name="470" type="Concat" version="opset1">
			<data axis="1"/>
			<rt_info>
				<attribute name="fused_names" version="0" value="470"/>
			</rt_info>
			<input>
				<port id="0" precision="FP32">
					<dim>1</dim>
					<dim>34</dim>
					<dim>129</dim>
					<dim>1</dim>
				</port>
				<port id="1" precision="FP32">
					<dim>1</dim>
					<dim>16</dim>
					<dim>129</dim>
					<dim>1</dim>
				</port>
			</input>
			<output>
				<port id="2" precision="FP32" names="470">
					<dim>1</dim>
					<dim>50</dim>
					<dim>129</dim>
					<dim>1</dim>
				</port>
			</output>
		</layer>
		<layer id="115" name="Constant_114040" type="Const" version="opset1">
			<data element_type="f32" shape="1, 50, 1, 1" offset="296024" size="200"/>
			<rt_info>
				<attribute name="fused_names" version="0" value="471, blocks_down.0.bd.3.bn.bias, blocks_down.0.bd.3.bn.running_mean, blocks_down.0.bd.3.bn.running_var, blocks_down.0.bd.3.bn.weight"/>
			</rt_info>
			<output>
				<port id="0" precision="FP32">
					<dim>1</dim>
					<dim>50</dim>
					<dim>1</dim>
					<dim>1</dim>
				</port>
			</output>
		</layer>
		<layer id="116" name="Multiply_118223" type="Multiply" version="opset1">
			<data auto_broadcast="numpy"/>
			<rt_info>
				<attribute name="fused_names" version="0" value="471, blocks_down.0.bd.3.bn.bias, blocks_down.0.bd.3.bn.running_mean, blocks_down.0.bd.3.bn.running_var, blocks_down.0.bd.3.bn.weight"/>
			</rt_info>
			<input>
				<port id="0" precision="FP32">
					<dim>1</dim>
					<dim>50</dim>
					<dim>129</dim>
					<dim>1</dim>
				</port>
				<port id="1" precision="FP32">
					<dim>1</dim>
					<dim>50</dim>
					<dim>1</dim>
					<dim>1</dim>
				</port>
			</input>
			<output>
				<port id="2" precision="FP32">
					<dim>1</dim>
					<dim>50</dim>
					<dim>129</dim>
					<dim>1</dim>
				</port>
			</output>
		</layer>
		<layer id="117" name="Constant_118228" type="Const" version="opset1">
			<data element_type="f32" shape="1, 50, 1, 1" offset="296224" size="200"/>
			<output>
				<port id="0" precision="FP32">
					<dim>1</dim>
					<dim>50</dim>
					<dim>1</dim>
					<dim>1</dim>
				</port>
			</output>
		</layer>
		<layer id="118" name="471" type="Add" version="opset1">
			<data auto_broadcast="numpy"/>
			<rt_info>
				<attribute name="fused_names" version="0" value="471, blocks_down.0.bd.3.bn.bias, blocks_down.0.bd.3.bn.running_mean, blocks_down.0.bd.3.bn.running_var, blocks_down.0.bd.3.bn.weight"/>
			</rt_info>
			<input>
				<port id="0" precision="FP32">
					<dim>1</dim>
					<dim>50</dim>
					<dim>129</dim>
					<dim>1</dim>
				</port>
				<port id="1" precision="FP32">
					<dim>1</dim>
					<dim>50</dim>
					<dim>1</dim>
					<dim>1</dim>
				</port>
			</input>
			<output>
				<port id="2" precision="FP32" names="471">
					<dim>1</dim>
					<dim>50</dim>
					<dim>129</dim>
					<dim>1</dim>
				</port>
			</output>
		</layer>
		<layer id="119" name="Constant_1389" type="Const" version="opset1">
			<data element_type="f32" shape="1" offset="264308" size="4"/>
			<rt_info>
				<attribute name="fused_names" version="0" value="Constant_1389"/>
			</rt_info>
			<output>
				<port id="0" precision="FP32">
					<dim>1</dim>
				</port>
			</output>
		</layer>
		<layer id="120" name="472" type="PReLU" version="opset1">
			<rt_info>
				<attribute name="fused_names" version="0" value="472"/>
			</rt_info>
			<input>
				<port id="0" precision="FP32">
					<dim>1</dim>
					<dim>50</dim>
					<dim>129</dim>
					<dim>1</dim>
				</port>
				<port id="1" precision="FP32">
					<dim>1</dim>
				</port>
			</input>
			<output>
				<port id="2" precision="FP32" names="472">
					<dim>1</dim>
					<dim>50</dim>
					<dim>129</dim>
					<dim>1</dim>
				</port>
			</output>
		</layer>
		<layer id="121" name="473" type="Concat" version="opset1">
			<data axis="3"/>
			<rt_info>
				<attribute name="fused_names" version="0" value="473"/>
			</rt_info>
			<input>
				<port id="0" precision="FP32">
					<dim>1</dim>
					<dim>50</dim>
					<dim>129</dim>
					<dim>2</dim>
				</port>
				<port id="1" precision="FP32">
					<dim>1</dim>
					<dim>50</dim>
					<dim>129</dim>
					<dim>1</dim>
				</port>
			</input>
			<output>
				<port id="2" precision="FP32" names="473">
					<dim>1</dim>
					<dim>50</dim>
					<dim>129</dim>
					<dim>3</dim>
				</port>
			</output>
		</layer>
		<layer id="122" name="blocks_down.0.bd.3.conv.weight" type="Const" version="opset1">
			<data element_type="f32" shape="16, 50, 3, 3" offset="296424" size="28800"/>
			<rt_info>
				<attribute name="fused_names" version="0" value="blocks_down.0.bd.3.conv.weight"/>
			</rt_info>
			<output>
				<port id="0" precision="FP32" names="blocks_down.0.bd.3.conv.weight">
					<dim>16</dim>
					<dim>50</dim>
					<dim>3</dim>
					<dim>3</dim>
				</port>
			</output>
		</layer>
		<layer id="123" name="Convolution_1592" type="Convolution" version="opset1">
			<data strides="1, 1" dilations="1, 1" pads_begin="1, 0" pads_end="1, 0" auto_pad="explicit"/>
			<rt_info>
				<attribute name="fused_names" version="0" value="510, Convolution_1592, Split_1524"/>
			</rt_info>
			<input>
				<port id="0" precision="FP32">
					<dim>1</dim>
					<dim>50</dim>
					<dim>129</dim>
					<dim>3</dim>
				</port>
				<port id="1" precision="FP32">
					<dim>16</dim>
					<dim>50</dim>
					<dim>3</dim>
					<dim>3</dim>
				</port>
			</input>
			<output>
				<port id="2" precision="FP32">
					<dim>1</dim>
					<dim>16</dim>
					<dim>129</dim>
					<dim>1</dim>
				</port>
			</output>
		</layer>
		<layer id="124" name="Reshape_1612" type="Const" version="opset1">
			<data element_type="f32" shape="1, 16, 1, 1" offset="325224" size="64"/>
			<output>
				<port id="0" precision="FP32">
					<dim>1</dim>
					<dim>16</dim>
					<dim>1</dim>
					<dim>1</dim>
				</port>
			</output>
		</layer>
		<layer id="125" name="511" type="Add" version="opset1">
			<data auto_broadcast="numpy"/>
			<rt_info>
				<attribute name="fused_names" version="0" value="511, Concat_1611, Reshape_1612"/>
			</rt_info>
			<input>
				<port id="0" precision="FP32">
					<dim>1</dim>
					<dim>16</dim>
					<dim>129</dim>
					<dim>1</dim>
				</port>
				<port id="1" precision="FP32">
					<dim>1</dim>
					<dim>16</dim>
					<dim>1</dim>
					<dim>1</dim>
				</port>
			</input>
			<output>
				<port id="2" precision="FP32" names="511">
					<dim>1</dim>
					<dim>16</dim>
					<dim>129</dim>
					<dim>1</dim>
				</port>
			</output>
		</layer>
		<layer id="126" name="512" type="Concat" version="opset1">
			<data axis="1"/>
			<rt_info>
				<attribute name="fused_names" version="0" value="512"/>
			</rt_info>
			<input>
				<port id="0" precision="FP32">
					<dim>1</dim>
					<dim>50</dim>
					<dim>129</dim>
					<dim>1</dim>
				</port>
				<port id="1" precision="FP32">
					<dim>1</dim>
					<dim>16</dim>
					<dim>129</dim>
					<dim>1</dim>
				</port>
			</input>
			<output>
				<port id="2" precision="FP32" names="512">
					<dim>1</dim>
					<dim>66</dim>
					<dim>129</dim>
					<dim>1</dim>
				</port>
			</output>
		</layer>
		<layer id="127" name="Constant_114166" type="Const" version="opset1">
			<data element_type="f32" shape="1, 66, 1, 1" offset="325288" size="264"/>
			<rt_info>
				<attribute name="fused_names" version="0" value="513, blocks_down.0.bd_out.bn.bias, blocks_down.0.bd_out.bn.running_mean, blocks_down.0.bd_out.bn.running_var, blocks_down.0.bd_out.bn.weight"/>
			</rt_info>
			<output>
				<port id="0" precision="FP32">
					<dim>1</dim>
					<dim>66</dim>
					<dim>1</dim>
					<dim>1</dim>
				</port>
			</output>
		</layer>
		<layer id="128" name="Multiply_118230" type="Multiply" version="opset1">
			<data auto_broadcast="numpy"/>
			<rt_info>
				<attribute name="fused_names" version="0" value="513, blocks_down.0.bd_out.bn.bias, blocks_down.0.bd_out.bn.running_mean, blocks_down.0.bd_out.bn.running_var, blocks_down.0.bd_out.bn.weight"/>
			</rt_info>
			<input>
				<port id="0" precision="FP32">
					<dim>1</dim>
					<dim>66</dim>
					<dim>129</dim>
					<dim>1</dim>
				</port>
				<port id="1" precision="FP32">
					<dim>1</dim>
					<dim>66</dim>
					<dim>1</dim>
					<dim>1</dim>
				</port>
			</input>
			<output>
				<port id="2" precision="FP32">
					<dim>1</dim>
					<dim>66</dim>
					<dim>129</dim>
					<dim>1</dim>
				</port>
			</output>
		</layer>
		<layer id="129" name="Constant_118235" type="Const" version="opset1">
			<data element_type="f32" shape="1, 66, 1, 1" offset="325552" size="264"/>
			<output>
				<port id="0" precision="FP32">
					<dim>1</dim>
					<dim>66</dim>
					<dim>1</dim>
					<dim>1</dim>
				</port>
			</output>
		</layer>
		<layer id="130" name="513" type="Add" version="opset1">
			<data auto_broadcast="numpy"/>
			<rt_info>
				<attribute name="fused_names" version="0" value="513, blocks_down.0.bd_out.bn.bias, blocks_down.0.bd_out.bn.running_mean, blocks_down.0.bd_out.bn.running_var, blocks_down.0.bd_out.bn.weight"/>
			</rt_info>
			<input>
				<port id="0" precision="FP32">
					<dim>1</dim>
					<dim>66</dim>
					<dim>129</dim>
					<dim>1</dim>
				</port>
				<port id="1" precision="FP32">
					<dim>1</dim>
					<dim>66</dim>
					<dim>1</dim>
					<dim>1</dim>
				</port>
			</input>
			<output>
				<port id="2" precision="FP32" names="513">
					<dim>1</dim>
					<dim>66</dim>
					<dim>129</dim>
					<dim>1</dim>
				</port>
			</output>
		</layer>
		<layer id="131" name="Constant_1642" type="Const" version="opset1">
			<data element_type="f32" shape="1" offset="264308" size="4"/>
			<rt_info>
				<attribute name="fused_names" version="0" value="Constant_1642"/>
			</rt_info>
			<output>
				<port id="0" precision="FP32">
					<dim>1</dim>
				</port>
			</output>
		</layer>
		<layer id="132" name="514" type="PReLU" version="opset1">
			<rt_info>
				<attribute name="fused_names" version="0" value="514, 538, Split_1677"/>
			</rt_info>
			<input>
				<port id="0" precision="FP32">
					<dim>1</dim>
					<dim>66</dim>
					<dim>129</dim>
					<dim>1</dim>
				</port>
				<port id="1" precision="FP32">
					<dim>1</dim>
				</port>
			</input>
			<output>
				<port id="2" precision="FP32" names="514,538">
					<dim>1</dim>
					<dim>66</dim>
					<dim>129</dim>
					<dim>1</dim>
				</port>
			</output>
		</layer>
		<layer id="133" name="blocks_down.0.bd_out.conv.weight" type="Const" version="opset1">
			<data element_type="f32" shape="32, 66, 1, 1" offset="325816" size="8448"/>
			<rt_info>
				<attribute name="fused_names" version="0" value="blocks_down.0.bd_out.conv.weight"/>
			</rt_info>
			<output>
				<port id="0" precision="FP32" names="blocks_down.0.bd_out.conv.weight">
					<dim>32</dim>
					<dim>66</dim>
					<dim>1</dim>
					<dim>1</dim>
				</port>
			</output>
		</layer>
		<layer id="134" name="Convolution_1745" type="Convolution" version="opset1">
			<data strides="1, 1" dilations="1, 1" pads_begin="0, 0" pads_end="0, 0" auto_pad="explicit"/>
			<rt_info>
				<attribute name="fused_names" version="0" value="Convolution_1745"/>
			</rt_info>
			<input>
				<port id="0" precision="FP32">
					<dim>1</dim>
					<dim>66</dim>
					<dim>129</dim>
					<dim>1</dim>
				</port>
				<port id="1" precision="FP32">
					<dim>32</dim>
					<dim>66</dim>
					<dim>1</dim>
					<dim>1</dim>
				</port>
			</input>
			<output>
				<port id="2" precision="FP32">
					<dim>1</dim>
					<dim>32</dim>
					<dim>129</dim>
					<dim>1</dim>
				</port>
			</output>
		</layer>
		<layer id="135" name="Reshape_1765" type="Const" version="opset1">
			<data element_type="f32" shape="1, 32, 1, 1" offset="334264" size="128"/>
			<output>
				<port id="0" precision="FP32">
					<dim>1</dim>
					<dim>32</dim>
					<dim>1</dim>
					<dim>1</dim>
				</port>
			</output>
		</layer>
		<layer id="136" name="539" type="Add" version="opset1">
			<data auto_broadcast="numpy"/>
			<rt_info>
				<attribute name="fused_names" version="0" value="539, Concat_1764, Reshape_1765"/>
			</rt_info>
			<input>
				<port id="0" precision="FP32">
					<dim>1</dim>
					<dim>32</dim>
					<dim>129</dim>
					<dim>1</dim>
				</port>
				<port id="1" precision="FP32">
					<dim>1</dim>
					<dim>32</dim>
					<dim>1</dim>
					<dim>1</dim>
				</port>
			</input>
			<output>
				<port id="2" precision="FP32" names="539">
					<dim>1</dim>
					<dim>32</dim>
					<dim>129</dim>
					<dim>1</dim>
				</port>
			</output>
		</layer>
		<layer id="137" name="540" type="Concat" version="opset1">
			<data axis="3"/>
			<rt_info>
				<attribute name="fused_names" version="0" value="540, 555"/>
			</rt_info>
			<input>
				<port id="0" precision="FP32">
					<dim>1</dim>
					<dim>32</dim>
					<dim>129</dim>
					<dim>1</dim>
				</port>
				<port id="1" precision="FP32">
					<dim>1</dim>
					<dim>32</dim>
					<dim>129</dim>
					<dim>1</dim>
				</port>
			</input>
			<output>
				<port id="2" precision="FP32" names="540,555">
					<dim>1</dim>
					<dim>32</dim>
					<dim>129</dim>
					<dim>2</dim>
				</port>
			</output>
		</layer>
		<layer id="138" name="556" type="AvgPool" version="opset1">
			<data kernel="2, 2" strides="2, 1" pads_begin="0, 0" pads_end="0, 0" exclude-pad="true" auto_pad="explicit" rounding_type="floor"/>
			<rt_info>
				<attribute name="fused_names" version="0" value="556"/>
			</rt_info>
			<input>
				<port id="0" precision="FP32">
					<dim>1</dim>
					<dim>32</dim>
					<dim>129</dim>
					<dim>2</dim>
				</port>
			</input>
			<output>
				<port id="1" precision="FP32" names="556">
					<dim>1</dim>
					<dim>32</dim>
					<dim>64</dim>
					<dim>1</dim>
				</port>
			</output>
		</layer>
		<layer id="139" name="Constant_114292" type="Const" version="opset1">
			<data element_type="f32" shape="1, 32, 1, 1" offset="334392" size="128"/>
			<rt_info>
				<attribute name="fused_names" version="0" value="557, blocks_down.1.bd.0.bn.bias, blocks_down.1.bd.0.bn.running_mean, blocks_down.1.bd.0.bn.running_var, blocks_down.1.bd.0.bn.weight"/>
			</rt_info>
			<output>
				<port id="0" precision="FP32">
					<dim>1</dim>
					<dim>32</dim>
					<dim>1</dim>
					<dim>1</dim>
				</port>
			</output>
		</layer>
		<layer id="140" name="Multiply_118237" type="Multiply" version="opset1">
			<data auto_broadcast="numpy"/>
			<rt_info>
				<attribute name="fused_names" version="0" value="557, blocks_down.1.bd.0.bn.bias, blocks_down.1.bd.0.bn.running_mean, blocks_down.1.bd.0.bn.running_var, blocks_down.1.bd.0.bn.weight"/>
			</rt_info>
			<input>
				<port id="0" precision="FP32">
					<dim>1</dim>
					<dim>32</dim>
					<dim>64</dim>
					<dim>1</dim>
				</port>
				<port id="1" precision="FP32">
					<dim>1</dim>
					<dim>32</dim>
					<dim>1</dim>
					<dim>1</dim>
				</port>
			</input>
			<output>
				<port id="2" precision="FP32">
					<dim>1</dim>
					<dim>32</dim>
					<dim>64</dim>
					<dim>1</dim>
				</port>
			</output>
		</layer>
		<layer id="141" name="Constant_118242" type="Const" version="opset1">
			<data element_type="f32" shape="1, 32, 1, 1" offset="334520" size="128"/>
			<output>
				<port id="0" precision="FP32">
					<dim>1</dim>
					<dim>32</dim>
					<dim>1</dim>
					<dim>1</dim>
				</port>
			</output>
		</layer>
		<layer id="142" name="557" type="Add" version="opset1">
			<data auto_broadcast="numpy"/>
			<rt_info>
				<attribute name="fused_names" version="0" value="557, blocks_down.1.bd.0.bn.bias, blocks_down.1.bd.0.bn.running_mean, blocks_down.1.bd.0.bn.running_var, blocks_down.1.bd.0.bn.weight"/>
			</rt_info>
			<input>
				<port id="0" precision="FP32">
					<dim>1</dim>
					<dim>32</dim>
					<dim>64</dim>
					<dim>1</dim>
				</port>
				<port id="1" precision="FP32">
					<dim>1</dim>
					<dim>32</dim>
					<dim>1</dim>
					<dim>1</dim>
				</port>
			</input>
			<output>
				<port id="2" precision="FP32" names="557">
					<dim>1</dim>
					<dim>32</dim>
					<dim>64</dim>
					<dim>1</dim>
				</port>
			</output>
		</layer>
		<layer id="143" name="Constant_1900" type="Const" version="opset1">
			<data element_type="f32" shape="1" offset="264308" size="4"/>
			<rt_info>
				<attribute name="fused_names" version="0" value="Constant_1900"/>
			</rt_info>
			<output>
				<port id="0" precision="FP32">
					<dim>1</dim>
				</port>
			</output>
		</layer>
		<layer id="144" name="558" type="PReLU" version="opset1">
			<rt_info>
				<attribute name="fused_names" version="0" value="558"/>
			</rt_info>
			<input>
				<port id="0" precision="FP32">
					<dim>1</dim>
					<dim>32</dim>
					<dim>64</dim>
					<dim>1</dim>
				</port>
				<port id="1" precision="FP32">
					<dim>1</dim>
				</port>
			</input>
			<output>
				<port id="2" precision="FP32" names="558">
					<dim>1</dim>
					<dim>32</dim>
					<dim>64</dim>
					<dim>1</dim>
				</port>
			</output>
		</layer>
		<layer id="145" name="559" type="Concat" version="opset1">
			<data axis="3"/>
			<rt_info>
				<attribute name="fused_names" version="0" value="559"/>
			</rt_info>
			<input>
				<port id="0" precision="FP32">
					<dim>1</dim>
					<dim>32</dim>
					<dim>64</dim>
					<dim>4</dim>
				</port>
				<port id="1" precision="FP32">
					<dim>1</dim>
					<dim>32</dim>
					<dim>64</dim>
					<dim>1</dim>
				</port>
			</input>
			<output>
				<port id="2" precision="FP32" names="559">
					<dim>1</dim>
					<dim>32</dim>
					<dim>64</dim>
					<dim>5</dim>
				</port>
			</output>
		</layer>
		<layer id="146" name="blocks_down.1.bd.0.conv.weight" type="Const" version="opset1">
			<data element_type="f32" shape="16, 32, 3, 3" offset="334648" size="18432"/>
			<rt_info>
				<attribute name="fused_names" version="0" value="blocks_down.1.bd.0.conv.weight"/>
			</rt_info>
			<output>
				<port id="0" precision="FP32" names="blocks_down.1.bd.0.conv.weight">
					<dim>16</dim>
					<dim>32</dim>
					<dim>3</dim>
					<dim>3</dim>
				</port>
			</output>
		</layer>
		<layer id="147" name="Convolution_2103" type="Convolution" version="opset1">
			<data strides="1, 1" dilations="1, 2" pads_begin="1, 0" pads_end="1, 0" auto_pad="explicit"/>
			<rt_info>
				<attribute name="fused_names" version="0" value="596, Convolution_2103, Split_2035"/>
			</rt_info>
			<input>
				<port id="0" precision="FP32">
					<dim>1</dim>
					<dim>32</dim>
					<dim>64</dim>
					<dim>5</dim>
				</port>
				<port id="1" precision="FP32">
					<dim>16</dim>
					<dim>32</dim>
					<dim>3</dim>
					<dim>3</dim>
				</port>
			</input>
			<output>
				<port id="2" precision="FP32">
					<dim>1</dim>
					<dim>16</dim>
					<dim>64</dim>
					<dim>1</dim>
				</port>
			</output>
		</layer>
		<layer id="148" name="Reshape_2123" type="Const" version="opset1">
			<data element_type="f32" shape="1, 16, 1, 1" offset="353080" size="64"/>
			<output>
				<port id="0" precision="FP32">
					<dim>1</dim>
					<dim>16</dim>
					<dim>1</dim>
					<dim>1</dim>
				</port>
			</output>
		</layer>
		<layer id="149" name="597" type="Add" version="opset1">
			<data auto_broadcast="numpy"/>
			<rt_info>
				<attribute name="fused_names" version="0" value="597, Concat_2122, Reshape_2123"/>
			</rt_info>
			<input>
				<port id="0" precision="FP32">
					<dim>1</dim>
					<dim>16</dim>
					<dim>64</dim>
					<dim>1</dim>
				</port>
				<port id="1" precision="FP32">
					<dim>1</dim>
					<dim>16</dim>
					<dim>1</dim>
					<dim>1</dim>
				</port>
			</input>
			<output>
				<port id="2" precision="FP32" names="597">
					<dim>1</dim>
					<dim>16</dim>
					<dim>64</dim>
					<dim>1</dim>
				</port>
			</output>
		</layer>
		<layer id="150" name="598" type="Concat" version="opset1">
			<data axis="1"/>
			<rt_info>
				<attribute name="fused_names" version="0" value="598"/>
			</rt_info>
			<input>
				<port id="0" precision="FP32">
					<dim>1</dim>
					<dim>32</dim>
					<dim>64</dim>
					<dim>1</dim>
				</port>
				<port id="1" precision="FP32">
					<dim>1</dim>
					<dim>16</dim>
					<dim>64</dim>
					<dim>1</dim>
				</port>
			</input>
			<output>
				<port id="2" precision="FP32" names="598">
					<dim>1</dim>
					<dim>48</dim>
					<dim>64</dim>
					<dim>1</dim>
				</port>
			</output>
		</layer>
		<layer id="151" name="Constant_114418" type="Const" version="opset1">
			<data element_type="f32" shape="1, 48, 1, 1" offset="353144" size="192"/>
			<rt_info>
				<attribute name="fused_names" version="0" value="599, blocks_down.1.bd.1.bn.bias, blocks_down.1.bd.1.bn.running_mean, blocks_down.1.bd.1.bn.running_var, blocks_down.1.bd.1.bn.weight"/>
			</rt_info>
			<output>
				<port id="0" precision="FP32">
					<dim>1</dim>
					<dim>48</dim>
					<dim>1</dim>
					<dim>1</dim>
				</port>
			</output>
		</layer>
		<layer id="152" name="Multiply_118244" type="Multiply" version="opset1">
			<data auto_broadcast="numpy"/>
			<rt_info>
				<attribute name="fused_names" version="0" value="599, blocks_down.1.bd.1.bn.bias, blocks_down.1.bd.1.bn.running_mean, blocks_down.1.bd.1.bn.running_var, blocks_down.1.bd.1.bn.weight"/>
			</rt_info>
			<input>
				<port id="0" precision="FP32">
					<dim>1</dim>
					<dim>48</dim>
					<dim>64</dim>
					<dim>1</dim>
				</port>
				<port id="1" precision="FP32">
					<dim>1</dim>
					<dim>48</dim>
					<dim>1</dim>
					<dim>1</dim>
				</port>
			</input>
			<output>
				<port id="2" precision="FP32">
					<dim>1</dim>
					<dim>48</dim>
					<dim>64</dim>
					<dim>1</dim>
				</port>
			</output>
		</layer>
		<layer id="153" name="Constant_118249" type="Const" version="opset1">
			<data element_type="f32" shape="1, 48, 1, 1" offset="353336" size="192"/>
			<output>
				<port id="0" precision="FP32">
					<dim>1</dim>
					<dim>48</dim>
					<dim>1</dim>
					<dim>1</dim>
				</port>
			</output>
		</layer>
		<layer id="154" name="599" type="Add" version="opset1">
			<data auto_broadcast="numpy"/>
			<rt_info>
				<attribute name="fused_names" version="0" value="599, blocks_down.1.bd.1.bn.bias, blocks_down.1.bd.1.bn.running_mean, blocks_down.1.bd.1.bn.running_var, blocks_down.1.bd.1.bn.weight"/>
			</rt_info>
			<input>
				<port id="0" precision="FP32">
					<dim>1</dim>
					<dim>48</dim>
					<dim>64</dim>
					<dim>1</dim>
				</port>
				<port id="1" precision="FP32">
					<dim>1</dim>
					<dim>48</dim>
					<dim>1</dim>
					<dim>1</dim>
				</port>
			</input>
			<output>
				<port id="2" precision="FP32" names="599">
					<dim>1</dim>
					<dim>48</dim>
					<dim>64</dim>
					<dim>1</dim>
				</port>
			</output>
		</layer>
		<layer id="155" name="Constant_2153" type="Const" version="opset1">
			<data element_type="f32" shape="1" offset="264308" size="4"/>
			<rt_info>
				<attribute name="fused_names" version="0" value="Constant_2153"/>
			</rt_info>
			<output>
				<port id="0" precision="FP32">
					<dim>1</dim>
				</port>
			</output>
		</layer>
		<layer id="156" name="600" type="PReLU" version="opset1">
			<rt_info>
				<attribute name="fused_names" version="0" value="600"/>
			</rt_info>
			<input>
				<port id="0" precision="FP32">
					<dim>1</dim>
					<dim>48</dim>
					<dim>64</dim>
					<dim>1</dim>
				</port>
				<port id="1" precision="FP32">
					<dim>1</dim>
				</port>
			</input>
			<output>
				<port id="2" precision="FP32" names="600">
					<dim>1</dim>
					<dim>48</dim>
					<dim>64</dim>
					<dim>1</dim>
				</port>
			</output>
		</layer>
		<layer id="157" name="601" type="Concat" version="opset1">
			<data axis="3"/>
			<rt_info>
				<attribute name="fused_names" version="0" value="601"/>
			</rt_info>
			<input>
				<port id="0" precision="FP32">
					<dim>1</dim>
					<dim>48</dim>
					<dim>64</dim>
					<dim>4</dim>
				</port>
				<port id="1" precision="FP32">
					<dim>1</dim>
					<dim>48</dim>
					<dim>64</dim>
					<dim>1</dim>
				</port>
			</input>
			<output>
				<port id="2" precision="FP32" names="601">
					<dim>1</dim>
					<dim>48</dim>
					<dim>64</dim>
					<dim>5</dim>
				</port>
			</output>
		</layer>
		<layer id="158" name="blocks_down.1.bd.1.conv.weight" type="Const" version="opset1">
			<data element_type="f32" shape="16, 48, 3, 3" offset="353528" size="27648"/>
			<rt_info>
				<attribute name="fused_names" version="0" value="blocks_down.1.bd.1.conv.weight"/>
			</rt_info>
			<output>
				<port id="0" precision="FP32" names="blocks_down.1.bd.1.conv.weight">
					<dim>16</dim>
					<dim>48</dim>
					<dim>3</dim>
					<dim>3</dim>
				</port>
			</output>
		</layer>
		<layer id="159" name="Convolution_2356" type="Convolution" version="opset1">
			<data strides="1, 1" dilations="1, 2" pads_begin="1, 0" pads_end="1, 0" auto_pad="explicit"/>
			<rt_info>
				<attribute name="fused_names" version="0" value="638, Convolution_2356, Split_2288"/>
			</rt_info>
			<input>
				<port id="0" precision="FP32">
					<dim>1</dim>
					<dim>48</dim>
					<dim>64</dim>
					<dim>5</dim>
				</port>
				<port id="1" precision="FP32">
					<dim>16</dim>
					<dim>48</dim>
					<dim>3</dim>
					<dim>3</dim>
				</port>
			</input>
			<output>
				<port id="2" precision="FP32">
					<dim>1</dim>
					<dim>16</dim>
					<dim>64</dim>
					<dim>1</dim>
				</port>
			</output>
		</layer>
		<layer id="160" name="Reshape_2376" type="Const" version="opset1">
			<data element_type="f32" shape="1, 16, 1, 1" offset="381176" size="64"/>
			<output>
				<port id="0" precision="FP32">
					<dim>1</dim>
					<dim>16</dim>
					<dim>1</dim>
					<dim>1</dim>
				</port>
			</output>
		</layer>
		<layer id="161" name="639" type="Add" version="opset1">
			<data auto_broadcast="numpy"/>
			<rt_info>
				<attribute name="fused_names" version="0" value="639, Concat_2375, Reshape_2376"/>
			</rt_info>
			<input>
				<port id="0" precision="FP32">
					<dim>1</dim>
					<dim>16</dim>
					<dim>64</dim>
					<dim>1</dim>
				</port>
				<port id="1" precision="FP32">
					<dim>1</dim>
					<dim>16</dim>
					<dim>1</dim>
					<dim>1</dim>
				</port>
			</input>
			<output>
				<port id="2" precision="FP32" names="639">
					<dim>1</dim>
					<dim>16</dim>
					<dim>64</dim>
					<dim>1</dim>
				</port>
			</output>
		</layer>
		<layer id="162" name="640" type="Concat" version="opset1">
			<data axis="1"/>
			<rt_info>
				<attribute name="fused_names" version="0" value="640"/>
			</rt_info>
			<input>
				<port id="0" precision="FP32">
					<dim>1</dim>
					<dim>48</dim>
					<dim>64</dim>
					<dim>1</dim>
				</port>
				<port id="1" precision="FP32">
					<dim>1</dim>
					<dim>16</dim>
					<dim>64</dim>
					<dim>1</dim>
				</port>
			</input>
			<output>
				<port id="2" precision="FP32" names="640">
					<dim>1</dim>
					<dim>64</dim>
					<dim>64</dim>
					<dim>1</dim>
				</port>
			</output>
		</layer>
		<layer id="163" name="Constant_114544" type="Const" version="opset1">
			<data element_type="f32" shape="1, 64, 1, 1" offset="381240" size="256"/>
			<rt_info>
				<attribute name="fused_names" version="0" value="641, blocks_down.1.bd.2.bn.bias, blocks_down.1.bd.2.bn.running_mean, blocks_down.1.bd.2.bn.running_var, blocks_down.1.bd.2.bn.weight"/>
			</rt_info>
			<output>
				<port id="0" precision="FP32">
					<dim>1</dim>
					<dim>64</dim>
					<dim>1</dim>
					<dim>1</dim>
				</port>
			</output>
		</layer>
		<layer id="164" name="Multiply_118251" type="Multiply" version="opset1">
			<data auto_broadcast="numpy"/>
			<rt_info>
				<attribute name="fused_names" version="0" value="641, blocks_down.1.bd.2.bn.bias, blocks_down.1.bd.2.bn.running_mean, blocks_down.1.bd.2.bn.running_var, blocks_down.1.bd.2.bn.weight"/>
			</rt_info>
			<input>
				<port id="0" precision="FP32">
					<dim>1</dim>
					<dim>64</dim>
					<dim>64</dim>
					<dim>1</dim>
				</port>
				<port id="1" precision="FP32">
					<dim>1</dim>
					<dim>64</dim>
					<dim>1</dim>
					<dim>1</dim>
				</port>
			</input>
			<output>
				<port id="2" precision="FP32">
					<dim>1</dim>
					<dim>64</dim>
					<dim>64</dim>
					<dim>1</dim>
				</port>
			</output>
		</layer>
		<layer id="165" name="Constant_118256" type="Const" version="opset1">
			<data element_type="f32" shape="1, 64, 1, 1" offset="381496" size="256"/>
			<output>
				<port id="0" precision="FP32">
					<dim>1</dim>
					<dim>64</dim>
					<dim>1</dim>
					<dim>1</dim>
				</port>
			</output>
		</layer>
		<layer id="166" name="641" type="Add" version="opset1">
			<data auto_broadcast="numpy"/>
			<rt_info>
				<attribute name="fused_names" version="0" value="641, blocks_down.1.bd.2.bn.bias, blocks_down.1.bd.2.bn.running_mean, blocks_down.1.bd.2.bn.running_var, blocks_down.1.bd.2.bn.weight"/>
			</rt_info>
			<input>
				<port id="0" precision="FP32">
					<dim>1</dim>
					<dim>64</dim>
					<dim>64</dim>
					<dim>1</dim>
				</port>
				<port id="1" precision="FP32">
					<dim>1</dim>
					<dim>64</dim>
					<dim>1</dim>
					<dim>1</dim>
				</port>
			</input>
			<output>
				<port id="2" precision="FP32" names="641">
					<dim>1</dim>
					<dim>64</dim>
					<dim>64</dim>
					<dim>1</dim>
				</port>
			</output>
		</layer>
		<layer id="167" name="Constant_2406" type="Const" version="opset1">
			<data element_type="f32" shape="1" offset="264308" size="4"/>
			<rt_info>
				<attribute name="fused_names" version="0" value="Constant_2406"/>
			</rt_info>
			<output>
				<port id="0" precision="FP32">
					<dim>1</dim>
				</port>
			</output>
		</layer>
		<layer id="168" name="642" type="PReLU" version="opset1">
			<rt_info>
				<attribute name="fused_names" version="0" value="642"/>
			</rt_info>
			<input>
				<port id="0" precision="FP32">
					<dim>1</dim>
					<dim>64</dim>
					<dim>64</dim>
					<dim>1</dim>
				</port>
				<port id="1" precision="FP32">
					<dim>1</dim>
				</port>
			</input>
			<output>
				<port id="2" precision="FP32" names="642">
					<dim>1</dim>
					<dim>64</dim>
					<dim>64</dim>
					<dim>1</dim>
				</port>
			</output>
		</layer>
		<layer id="169" name="643" type="Concat" version="opset1">
			<data axis="3"/>
			<rt_info>
				<attribute name="fused_names" version="0" value="643"/>
			</rt_info>
			<input>
				<port id="0" precision="FP32">
					<dim>1</dim>
					<dim>64</dim>
					<dim>64</dim>
					<dim>4</dim>
				</port>
				<port id="1" precision="FP32">
					<dim>1</dim>
					<dim>64</dim>
					<dim>64</dim>
					<dim>1</dim>
				</port>
			</input>
			<output>
				<port id="2" precision="FP32" names="643">
					<dim>1</dim>
					<dim>64</dim>
					<dim>64</dim>
					<dim>5</dim>
				</port>
			</output>
		</layer>
		<layer id="170" name="blocks_down.1.bd.2.conv.weight" type="Const" version="opset1">
			<data element_type="f32" shape="16, 64, 3, 3" offset="381752" size="36864"/>
			<rt_info>
				<attribute name="fused_names" version="0" value="blocks_down.1.bd.2.conv.weight"/>
			</rt_info>
			<output>
				<port id="0" precision="FP32" names="blocks_down.1.bd.2.conv.weight">
					<dim>16</dim>
					<dim>64</dim>
					<dim>3</dim>
					<dim>3</dim>
				</port>
			</output>
		</layer>
		<layer id="171" name="Convolution_2609" type="Convolution" version="opset1">
			<data strides="1, 1" dilations="1, 2" pads_begin="1, 0" pads_end="1, 0" auto_pad="explicit"/>
			<rt_info>
				<attribute name="fused_names" version="0" value="680, Convolution_2609, Split_2541"/>
			</rt_info>
			<input>
				<port id="0" precision="FP32">
					<dim>1</dim>
					<dim>64</dim>
					<dim>64</dim>
					<dim>5</dim>
				</port>
				<port id="1" precision="FP32">
					<dim>16</dim>
					<dim>64</dim>
					<dim>3</dim>
					<dim>3</dim>
				</port>
			</input>
			<output>
				<port id="2" precision="FP32">
					<dim>1</dim>
					<dim>16</dim>
					<dim>64</dim>
					<dim>1</dim>
				</port>
			</output>
		</layer>
		<layer id="172" name="Reshape_2629" type="Const" version="opset1">
			<data element_type="f32" shape="1, 16, 1, 1" offset="418616" size="64"/>
			<output>
				<port id="0" precision="FP32">
					<dim>1</dim>
					<dim>16</dim>
					<dim>1</dim>
					<dim>1</dim>
				</port>
			</output>
		</layer>
		<layer id="173" name="681" type="Add" version="opset1">
			<data auto_broadcast="numpy"/>
			<rt_info>
				<attribute name="fused_names" version="0" value="681, Concat_2628, Reshape_2629"/>
			</rt_info>
			<input>
				<port id="0" precision="FP32">
					<dim>1</dim>
					<dim>16</dim>
					<dim>64</dim>
					<dim>1</dim>
				</port>
				<port id="1" precision="FP32">
					<dim>1</dim>
					<dim>16</dim>
					<dim>1</dim>
					<dim>1</dim>
				</port>
			</input>
			<output>
				<port id="2" precision="FP32" names="681">
					<dim>1</dim>
					<dim>16</dim>
					<dim>64</dim>
					<dim>1</dim>
				</port>
			</output>
		</layer>
		<layer id="174" name="682" type="Concat" version="opset1">
			<data axis="1"/>
			<rt_info>
				<attribute name="fused_names" version="0" value="682"/>
			</rt_info>
			<input>
				<port id="0" precision="FP32">
					<dim>1</dim>
					<dim>64</dim>
					<dim>64</dim>
					<dim>1</dim>
				</port>
				<port id="1" precision="FP32">
					<dim>1</dim>
					<dim>16</dim>
					<dim>64</dim>
					<dim>1</dim>
				</port>
			</input>
			<output>
				<port id="2" precision="FP32" names="682">
					<dim>1</dim>
					<dim>80</dim>
					<dim>64</dim>
					<dim>1</dim>
				</port>
			</output>
		</layer>
		<layer id="175" name="Constant_114670" type="Const" version="opset1">
			<data element_type="f32" shape="1, 80, 1, 1" offset="418680" size="320"/>
			<rt_info>
				<attribute name="fused_names" version="0" value="683, blocks_down.1.bd.3.bn.bias, blocks_down.1.bd.3.bn.running_mean, blocks_down.1.bd.3.bn.running_var, blocks_down.1.bd.3.bn.weight"/>
			</rt_info>
			<output>
				<port id="0" precision="FP32">
					<dim>1</dim>
					<dim>80</dim>
					<dim>1</dim>
					<dim>1</dim>
				</port>
			</output>
		</layer>
		<layer id="176" name="Multiply_118258" type="Multiply" version="opset1">
			<data auto_broadcast="numpy"/>
			<rt_info>
				<attribute name="fused_names" version="0" value="683, blocks_down.1.bd.3.bn.bias, blocks_down.1.bd.3.bn.running_mean, blocks_down.1.bd.3.bn.running_var, blocks_down.1.bd.3.bn.weight"/>
			</rt_info>
			<input>
				<port id="0" precision="FP32">
					<dim>1</dim>
					<dim>80</dim>
					<dim>64</dim>
					<dim>1</dim>
				</port>
				<port id="1" precision="FP32">
					<dim>1</dim>
					<dim>80</dim>
					<dim>1</dim>
					<dim>1</dim>
				</port>
			</input>
			<output>
				<port id="2" precision="FP32">
					<dim>1</dim>
					<dim>80</dim>
					<dim>64</dim>
					<dim>1</dim>
				</port>
			</output>
		</layer>
		<layer id="177" name="Constant_118263" type="Const" version="opset1">
			<data element_type="f32" shape="1, 80, 1, 1" offset="419000" size="320"/>
			<output>
				<port id="0" precision="FP32">
					<dim>1</dim>
					<dim>80</dim>
					<dim>1</dim>
					<dim>1</dim>
				</port>
			</output>
		</layer>
		<layer id="178" name="683" type="Add" version="opset1">
			<data auto_broadcast="numpy"/>
			<rt_info>
				<attribute name="fused_names" version="0" value="683, blocks_down.1.bd.3.bn.bias, blocks_down.1.bd.3.bn.running_mean, blocks_down.1.bd.3.bn.running_var, blocks_down.1.bd.3.bn.weight"/>
			</rt_info>
			<input>
				<port id="0" precision="FP32">
					<dim>1</dim>
					<dim>80</dim>
					<dim>64</dim>
					<dim>1</dim>
				</port>
				<port id="1" precision="FP32">
					<dim>1</dim>
					<dim>80</dim>
					<dim>1</dim>
					<dim>1</dim>
				</port>
			</input>
			<output>
				<port id="2" precision="FP32" names="683">
					<dim>1</dim>
					<dim>80</dim>
					<dim>64</dim>
					<dim>1</dim>
				</port>
			</output>
		</layer>
		<layer id="179" name="Constant_2659" type="Const" version="opset1">
			<data element_type="f32" shape="1" offset="264308" size="4"/>
			<rt_info>
				<attribute name="fused_names" version="0" value="Constant_2659"/>
			</rt_info>
			<output>
				<port id="0" precision="FP32">
					<dim>1</dim>
				</port>
			</output>
		</layer>
		<layer id="180" name="684" type="PReLU" version="opset1">
			<rt_info>
				<attribute name="fused_names" version="0" value="684"/>
			</rt_info>
			<input>
				<port id="0" precision="FP32">
					<dim>1</dim>
					<dim>80</dim>
					<dim>64</dim>
					<dim>1</dim>
				</port>
				<port id="1" precision="FP32">
					<dim>1</dim>
				</port>
			</input>
			<output>
				<port id="2" precision="FP32" names="684">
					<dim>1</dim>
					<dim>80</dim>
					<dim>64</dim>
					<dim>1</dim>
				</port>
			</output>
		</layer>
		<layer id="181" name="685" type="Concat" version="opset1">
			<data axis="3"/>
			<rt_info>
				<attribute name="fused_names" version="0" value="685"/>
			</rt_info>
			<input>
				<port id="0" precision="FP32">
					<dim>1</dim>
					<dim>80</dim>
					<dim>64</dim>
					<dim>4</dim>
				</port>
				<port id="1" precision="FP32">
					<dim>1</dim>
					<dim>80</dim>
					<dim>64</dim>
					<dim>1</dim>
				</port>
			</input>
			<output>
				<port id="2" precision="FP32" names="685">
					<dim>1</dim>
					<dim>80</dim>
					<dim>64</dim>
					<dim>5</dim>
				</port>
			</output>
		</layer>
		<layer id="182" name="blocks_down.1.bd.3.conv.weight" type="Const" version="opset1">
			<data element_type="f32" shape="16, 80, 3, 3" offset="419320" size="46080"/>
			<rt_info>
				<attribute name="fused_names" version="0" value="blocks_down.1.bd.3.conv.weight"/>
			</rt_info>
			<output>
				<port id="0" precision="FP32" names="blocks_down.1.bd.3.conv.weight">
					<dim>16</dim>
					<dim>80</dim>
					<dim>3</dim>
					<dim>3</dim>
				</port>
			</output>
		</layer>
		<layer id="183" name="Convolution_2862" type="Convolution" version="opset1">
			<data strides="1, 1" dilations="1, 2" pads_begin="1, 0" pads_end="1, 0" auto_pad="explicit"/>
			<rt_info>
				<attribute name="fused_names" version="0" value="722, Convolution_2862, Split_2794"/>
			</rt_info>
			<input>
				<port id="0" precision="FP32">
					<dim>1</dim>
					<dim>80</dim>
					<dim>64</dim>
					<dim>5</dim>
				</port>
				<port id="1" precision="FP32">
					<dim>16</dim>
					<dim>80</dim>
					<dim>3</dim>
					<dim>3</dim>
				</port>
			</input>
			<output>
				<port id="2" precision="FP32">
					<dim>1</dim>
					<dim>16</dim>
					<dim>64</dim>
					<dim>1</dim>
				</port>
			</output>
		</layer>
		<layer id="184" name="Reshape_2882" type="Const" version="opset1">
			<data element_type="f32" shape="1, 16, 1, 1" offset="465400" size="64"/>
			<output>
				<port id="0" precision="FP32">
					<dim>1</dim>
					<dim>16</dim>
					<dim>1</dim>
					<dim>1</dim>
				</port>
			</output>
		</layer>
		<layer id="185" name="723" type="Add" version="opset1">
			<data auto_broadcast="numpy"/>
			<rt_info>
				<attribute name="fused_names" version="0" value="723, Concat_2881, Reshape_2882"/>
			</rt_info>
			<input>
				<port id="0" precision="FP32">
					<dim>1</dim>
					<dim>16</dim>
					<dim>64</dim>
					<dim>1</dim>
				</port>
				<port id="1" precision="FP32">
					<dim>1</dim>
					<dim>16</dim>
					<dim>1</dim>
					<dim>1</dim>
				</port>
			</input>
			<output>
				<port id="2" precision="FP32" names="723">
					<dim>1</dim>
					<dim>16</dim>
					<dim>64</dim>
					<dim>1</dim>
				</port>
			</output>
		</layer>
		<layer id="186" name="724" type="Concat" version="opset1">
			<data axis="1"/>
			<rt_info>
				<attribute name="fused_names" version="0" value="724"/>
			</rt_info>
			<input>
				<port id="0" precision="FP32">
					<dim>1</dim>
					<dim>80</dim>
					<dim>64</dim>
					<dim>1</dim>
				</port>
				<port id="1" precision="FP32">
					<dim>1</dim>
					<dim>16</dim>
					<dim>64</dim>
					<dim>1</dim>
				</port>
			</input>
			<output>
				<port id="2" precision="FP32" names="724">
					<dim>1</dim>
					<dim>96</dim>
					<dim>64</dim>
					<dim>1</dim>
				</port>
			</output>
		</layer>
		<layer id="187" name="Constant_114796" type="Const" version="opset1">
			<data element_type="f32" shape="1, 96, 1, 1" offset="465464" size="384"/>
			<rt_info>
				<attribute name="fused_names" version="0" value="725, blocks_down.1.bd_out.bn.bias, blocks_down.1.bd_out.bn.running_mean, blocks_down.1.bd_out.bn.running_var, blocks_down.1.bd_out.bn.weight"/>
			</rt_info>
			<output>
				<port id="0" precision="FP32">
					<dim>1</dim>
					<dim>96</dim>
					<dim>1</dim>
					<dim>1</dim>
				</port>
			</output>
		</layer>
		<layer id="188" name="Multiply_118265" type="Multiply" version="opset1">
			<data auto_broadcast="numpy"/>
			<rt_info>
				<attribute name="fused_names" version="0" value="725, blocks_down.1.bd_out.bn.bias, blocks_down.1.bd_out.bn.running_mean, blocks_down.1.bd_out.bn.running_var, blocks_down.1.bd_out.bn.weight"/>
			</rt_info>
			<input>
				<port id="0" precision="FP32">
					<dim>1</dim>
					<dim>96</dim>
					<dim>64</dim>
					<dim>1</dim>
				</port>
				<port id="1" precision="FP32">
					<dim>1</dim>
					<dim>96</dim>
					<dim>1</dim>
					<dim>1</dim>
				</port>
			</input>
			<output>
				<port id="2" precision="FP32">
					<dim>1</dim>
					<dim>96</dim>
					<dim>64</dim>
					<dim>1</dim>
				</port>
			</output>
		</layer>
		<layer id="189" name="Constant_118270" type="Const" version="opset1">
			<data element_type="f32" shape="1, 96, 1, 1" offset="465848" size="384"/>
			<output>
				<port id="0" precision="FP32">
					<dim>1</dim>
					<dim>96</dim>
					<dim>1</dim>
					<dim>1</dim>
				</port>
			</output>
		</layer>
		<layer id="190" name="725" type="Add" version="opset1">
			<data auto_broadcast="numpy"/>
			<rt_info>
				<attribute name="fused_names" version="0" value="725, blocks_down.1.bd_out.bn.bias, blocks_down.1.bd_out.bn.running_mean, blocks_down.1.bd_out.bn.running_var, blocks_down.1.bd_out.bn.weight"/>
			</rt_info>
			<input>
				<port id="0" precision="FP32">
					<dim>1</dim>
					<dim>96</dim>
					<dim>64</dim>
					<dim>1</dim>
				</port>
				<port id="1" precision="FP32">
					<dim>1</dim>
					<dim>96</dim>
					<dim>1</dim>
					<dim>1</dim>
				</port>
			</input>
			<output>
				<port id="2" precision="FP32" names="725">
					<dim>1</dim>
					<dim>96</dim>
					<dim>64</dim>
					<dim>1</dim>
				</port>
			</output>
		</layer>
		<layer id="191" name="Constant_2912" type="Const" version="opset1">
			<data element_type="f32" shape="1" offset="264308" size="4"/>
			<rt_info>
				<attribute name="fused_names" version="0" value="Constant_2912"/>
			</rt_info>
			<output>
				<port id="0" precision="FP32">
					<dim>1</dim>
				</port>
			</output>
		</layer>
		<layer id="192" name="726" type="PReLU" version="opset1">
			<rt_info>
				<attribute name="fused_names" version="0" value="726, 750, Split_2947"/>
			</rt_info>
			<input>
				<port id="0" precision="FP32">
					<dim>1</dim>
					<dim>96</dim>
					<dim>64</dim>
					<dim>1</dim>
				</port>
				<port id="1" precision="FP32">
					<dim>1</dim>
				</port>
			</input>
			<output>
				<port id="2" precision="FP32" names="726,750">
					<dim>1</dim>
					<dim>96</dim>
					<dim>64</dim>
					<dim>1</dim>
				</port>
			</output>
		</layer>
		<layer id="193" name="blocks_down.1.bd_out.conv.weight" type="Const" version="opset1">
			<data element_type="f32" shape="64, 96, 1, 1" offset="466232" size="24576"/>
			<rt_info>
				<attribute name="fused_names" version="0" value="blocks_down.1.bd_out.conv.weight"/>
			</rt_info>
			<output>
				<port id="0" precision="FP32" names="blocks_down.1.bd_out.conv.weight">
					<dim>64</dim>
					<dim>96</dim>
					<dim>1</dim>
					<dim>1</dim>
				</port>
			</output>
		</layer>
		<layer id="194" name="Convolution_3015" type="Convolution" version="opset1">
			<data strides="1, 1" dilations="1, 2" pads_begin="0, 0" pads_end="0, 0" auto_pad="explicit"/>
			<rt_info>
				<attribute name="fused_names" version="0" value="Convolution_3015"/>
			</rt_info>
			<input>
				<port id="0" precision="FP32">
					<dim>1</dim>
					<dim>96</dim>
					<dim>64</dim>
					<dim>1</dim>
				</port>
				<port id="1" precision="FP32">
					<dim>64</dim>
					<dim>96</dim>
					<dim>1</dim>
					<dim>1</dim>
				</port>
			</input>
			<output>
				<port id="2" precision="FP32">
					<dim>1</dim>
					<dim>64</dim>
					<dim>64</dim>
					<dim>1</dim>
				</port>
			</output>
		</layer>
		<layer id="195" name="Reshape_3035" type="Const" version="opset1">
			<data element_type="f32" shape="1, 64, 1, 1" offset="490808" size="256"/>
			<output>
				<port id="0" precision="FP32">
					<dim>1</dim>
					<dim>64</dim>
					<dim>1</dim>
					<dim>1</dim>
				</port>
			</output>
		</layer>
		<layer id="196" name="751" type="Add" version="opset1">
			<data auto_broadcast="numpy"/>
			<rt_info>
				<attribute name="fused_names" version="0" value="751, Concat_3034, Reshape_3035"/>
			</rt_info>
			<input>
				<port id="0" precision="FP32">
					<dim>1</dim>
					<dim>64</dim>
					<dim>64</dim>
					<dim>1</dim>
				</port>
				<port id="1" precision="FP32">
					<dim>1</dim>
					<dim>64</dim>
					<dim>1</dim>
					<dim>1</dim>
				</port>
			</input>
			<output>
				<port id="2" precision="FP32" names="751">
					<dim>1</dim>
					<dim>64</dim>
					<dim>64</dim>
					<dim>1</dim>
				</port>
			</output>
		</layer>
		<layer id="197" name="752" type="Concat" version="opset1">
			<data axis="3"/>
			<rt_info>
				<attribute name="fused_names" version="0" value="752, 767"/>
			</rt_info>
			<input>
				<port id="0" precision="FP32">
					<dim>1</dim>
					<dim>64</dim>
					<dim>64</dim>
					<dim>1</dim>
				</port>
				<port id="1" precision="FP32">
					<dim>1</dim>
					<dim>64</dim>
					<dim>64</dim>
					<dim>1</dim>
				</port>
			</input>
			<output>
				<port id="2" precision="FP32" names="752,767">
					<dim>1</dim>
					<dim>64</dim>
					<dim>64</dim>
					<dim>2</dim>
				</port>
			</output>
		</layer>
		<layer id="198" name="768" type="AvgPool" version="opset1">
			<data kernel="2, 2" strides="2, 1" pads_begin="0, 0" pads_end="0, 0" exclude-pad="true" auto_pad="explicit" rounding_type="floor"/>
			<rt_info>
				<attribute name="fused_names" version="0" value="768"/>
			</rt_info>
			<input>
				<port id="0" precision="FP32">
					<dim>1</dim>
					<dim>64</dim>
					<dim>64</dim>
					<dim>2</dim>
				</port>
			</input>
			<output>
				<port id="1" precision="FP32" names="768">
					<dim>1</dim>
					<dim>64</dim>
					<dim>32</dim>
					<dim>1</dim>
				</port>
			</output>
		</layer>
		<layer id="199" name="Constant_114922" type="Const" version="opset1">
			<data element_type="f32" shape="1, 64, 1, 1" offset="491064" size="256"/>
			<rt_info>
				<attribute name="fused_names" version="0" value="769, blocks_down.2.bd.0.bn.bias, blocks_down.2.bd.0.bn.running_mean, blocks_down.2.bd.0.bn.running_var, blocks_down.2.bd.0.bn.weight"/>
			</rt_info>
			<output>
				<port id="0" precision="FP32">
					<dim>1</dim>
					<dim>64</dim>
					<dim>1</dim>
					<dim>1</dim>
				</port>
			</output>
		</layer>
		<layer id="200" name="Multiply_118272" type="Multiply" version="opset1">
			<data auto_broadcast="numpy"/>
			<rt_info>
				<attribute name="fused_names" version="0" value="769, blocks_down.2.bd.0.bn.bias, blocks_down.2.bd.0.bn.running_mean, blocks_down.2.bd.0.bn.running_var, blocks_down.2.bd.0.bn.weight"/>
			</rt_info>
			<input>
				<port id="0" precision="FP32">
					<dim>1</dim>
					<dim>64</dim>
					<dim>32</dim>
					<dim>1</dim>
				</port>
				<port id="1" precision="FP32">
					<dim>1</dim>
					<dim>64</dim>
					<dim>1</dim>
					<dim>1</dim>
				</port>
			</input>
			<output>
				<port id="2" precision="FP32">
					<dim>1</dim>
					<dim>64</dim>
					<dim>32</dim>
					<dim>1</dim>
				</port>
			</output>
		</layer>
		<layer id="201" name="Constant_118277" type="Const" version="opset1">
			<data element_type="f32" shape="1, 64, 1, 1" offset="491320" size="256"/>
			<output>
				<port id="0" precision="FP32">
					<dim>1</dim>
					<dim>64</dim>
					<dim>1</dim>
					<dim>1</dim>
				</port>
			</output>
		</layer>
		<layer id="202" name="769" type="Add" version="opset1">
			<data auto_broadcast="numpy"/>
			<rt_info>
				<attribute name="fused_names" version="0" value="769, blocks_down.2.bd.0.bn.bias, blocks_down.2.bd.0.bn.running_mean, blocks_down.2.bd.0.bn.running_var, blocks_down.2.bd.0.bn.weight"/>
			</rt_info>
			<input>
				<port id="0" precision="FP32">
					<dim>1</dim>
					<dim>64</dim>
					<dim>32</dim>
					<dim>1</dim>
				</port>
				<port id="1" precision="FP32">
					<dim>1</dim>
					<dim>64</dim>
					<dim>1</dim>
					<dim>1</dim>
				</port>
			</input>
			<output>
				<port id="2" precision="FP32" names="769">
					<dim>1</dim>
					<dim>64</dim>
					<dim>32</dim>
					<dim>1</dim>
				</port>
			</output>
		</layer>
		<layer id="203" name="Constant_3170" type="Const" version="opset1">
			<data element_type="f32" shape="1" offset="264308" size="4"/>
			<rt_info>
				<attribute name="fused_names" version="0" value="Constant_3170"/>
			</rt_info>
			<output>
				<port id="0" precision="FP32">
					<dim>1</dim>
				</port>
			</output>
		</layer>
		<layer id="204" name="770" type="PReLU" version="opset1">
			<rt_info>
				<attribute name="fused_names" version="0" value="770"/>
			</rt_info>
			<input>
				<port id="0" precision="FP32">
					<dim>1</dim>
					<dim>64</dim>
					<dim>32</dim>
					<dim>1</dim>
				</port>
				<port id="1" precision="FP32">
					<dim>1</dim>
				</port>
			</input>
			<output>
				<port id="2" precision="FP32" names="770">
					<dim>1</dim>
					<dim>64</dim>
					<dim>32</dim>
					<dim>1</dim>
				</port>
			</output>
		</layer>
		<layer id="205" name="771" type="Concat" version="opset1">
			<data axis="3"/>
			<rt_info>
				<attribute name="fused_names" version="0" value="771"/>
			</rt_info>
			<input>
				<port id="0" precision="FP32">
					<dim>1</dim>
					<dim>64</dim>
					<dim>32</dim>
					<dim>8</dim>
				</port>
				<port id="1" precision="FP32">
					<dim>1</dim>
					<dim>64</dim>
					<dim>32</dim>
					<dim>1</dim>
				</port>
			</input>
			<output>
				<port id="2" precision="FP32" names="771">
					<dim>1</dim>
					<dim>64</dim>
					<dim>32</dim>
					<dim>9</dim>
				</port>
			</output>
		</layer>
		<layer id="206" name="blocks_down.2.bd.0.conv.weight" type="Const" version="opset1">
			<data element_type="f32" shape="32, 64, 3, 3" offset="491576" size="73728"/>
			<rt_info>
				<attribute name="fused_names" version="0" value="blocks_down.2.bd.0.conv.weight"/>
			</rt_info>
			<output>
				<port id="0" precision="FP32" names="blocks_down.2.bd.0.conv.weight">
					<dim>32</dim>
					<dim>64</dim>
					<dim>3</dim>
					<dim>3</dim>
				</port>
			</output>
		</layer>
		<layer id="207" name="Convolution_3373" type="Convolution" version="opset1">
			<data strides="1, 1" dilations="1, 4" pads_begin="1, 0" pads_end="1, 0" auto_pad="explicit"/>
			<rt_info>
				<attribute name="fused_names" version="0" value="808, Convolution_3373, Split_3305"/>
			</rt_info>
			<input>
				<port id="0" precision="FP32">
					<dim>1</dim>
					<dim>64</dim>
					<dim>32</dim>
					<dim>9</dim>
				</port>
				<port id="1" precision="FP32">
					<dim>32</dim>
					<dim>64</dim>
					<dim>3</dim>
					<dim>3</dim>
				</port>
			</input>
			<output>
				<port id="2" precision="FP32">
					<dim>1</dim>
					<dim>32</dim>
					<dim>32</dim>
					<dim>1</dim>
				</port>
			</output>
		</layer>
		<layer id="208" name="Reshape_3393" type="Const" version="opset1">
			<data element_type="f32" shape="1, 32, 1, 1" offset="565304" size="128"/>
			<output>
				<port id="0" precision="FP32">
					<dim>1</dim>
					<dim>32</dim>
					<dim>1</dim>
					<dim>1</dim>
				</port>
			</output>
		</layer>
		<layer id="209" name="809" type="Add" version="opset1">
			<data auto_broadcast="numpy"/>
			<rt_info>
				<attribute name="fused_names" version="0" value="809, Concat_3392, Reshape_3393"/>
			</rt_info>
			<input>
				<port id="0" precision="FP32">
					<dim>1</dim>
					<dim>32</dim>
					<dim>32</dim>
					<dim>1</dim>
				</port>
				<port id="1" precision="FP32">
					<dim>1</dim>
					<dim>32</dim>
					<dim>1</dim>
					<dim>1</dim>
				</port>
			</input>
			<output>
				<port id="2" precision="FP32" names="809">
					<dim>1</dim>
					<dim>32</dim>
					<dim>32</dim>
					<dim>1</dim>
				</port>
			</output>
		</layer>
		<layer id="210" name="810" type="Concat" version="opset1">
			<data axis="1"/>
			<rt_info>
				<attribute name="fused_names" version="0" value="810"/>
			</rt_info>
			<input>
				<port id="0" precision="FP32">
					<dim>1</dim>
					<dim>64</dim>
					<dim>32</dim>
					<dim>1</dim>
				</port>
				<port id="1" precision="FP32">
					<dim>1</dim>
					<dim>32</dim>
					<dim>32</dim>
					<dim>1</dim>
				</port>
			</input>
			<output>
				<port id="2" precision="FP32" names="810">
					<dim>1</dim>
					<dim>96</dim>
					<dim>32</dim>
					<dim>1</dim>
				</port>
			</output>
		</layer>
		<layer id="211" name="Constant_115048" type="Const" version="opset1">
			<data element_type="f32" shape="1, 96, 1, 1" offset="565432" size="384"/>
			<rt_info>
				<attribute name="fused_names" version="0" value="811, blocks_down.2.bd.1.bn.bias, blocks_down.2.bd.1.bn.running_mean, blocks_down.2.bd.1.bn.running_var, blocks_down.2.bd.1.bn.weight"/>
			</rt_info>
			<output>
				<port id="0" precision="FP32">
					<dim>1</dim>
					<dim>96</dim>
					<dim>1</dim>
					<dim>1</dim>
				</port>
			</output>
		</layer>
		<layer id="212" name="Multiply_118279" type="Multiply" version="opset1">
			<data auto_broadcast="numpy"/>
			<rt_info>
				<attribute name="fused_names" version="0" value="811, blocks_down.2.bd.1.bn.bias, blocks_down.2.bd.1.bn.running_mean, blocks_down.2.bd.1.bn.running_var, blocks_down.2.bd.1.bn.weight"/>
			</rt_info>
			<input>
				<port id="0" precision="FP32">
					<dim>1</dim>
					<dim>96</dim>
					<dim>32</dim>
					<dim>1</dim>
				</port>
				<port id="1" precision="FP32">
					<dim>1</dim>
					<dim>96</dim>
					<dim>1</dim>
					<dim>1</dim>
				</port>
			</input>
			<output>
				<port id="2" precision="FP32">
					<dim>1</dim>
					<dim>96</dim>
					<dim>32</dim>
					<dim>1</dim>
				</port>
			</output>
		</layer>
		<layer id="213" name="Constant_118284" type="Const" version="opset1">
			<data element_type="f32" shape="1, 96, 1, 1" offset="565816" size="384"/>
			<output>
				<port id="0" precision="FP32">
					<dim>1</dim>
					<dim>96</dim>
					<dim>1</dim>
					<dim>1</dim>
				</port>
			</output>
		</layer>
		<layer id="214" name="811" type="Add" version="opset1">
			<data auto_broadcast="numpy"/>
			<rt_info>
				<attribute name="fused_names" version="0" value="811, blocks_down.2.bd.1.bn.bias, blocks_down.2.bd.1.bn.running_mean, blocks_down.2.bd.1.bn.running_var, blocks_down.2.bd.1.bn.weight"/>
			</rt_info>
			<input>
				<port id="0" precision="FP32">
					<dim>1</dim>
					<dim>96</dim>
					<dim>32</dim>
					<dim>1</dim>
				</port>
				<port id="1" precision="FP32">
					<dim>1</dim>
					<dim>96</dim>
					<dim>1</dim>
					<dim>1</dim>
				</port>
			</input>
			<output>
				<port id="2" precision="FP32" names="811">
					<dim>1</dim>
					<dim>96</dim>
					<dim>32</dim>
					<dim>1</dim>
				</port>
			</output>
		</layer>
		<layer id="215" name="Constant_3423" type="Const" version="opset1">
			<data element_type="f32" shape="1" offset="264308" size="4"/>
			<rt_info>
				<attribute name="fused_names" version="0" value="Constant_3423"/>
			</rt_info>
			<output>
				<port id="0" precision="FP32">
					<dim>1</dim>
				</port>
			</output>
		</layer>
		<layer id="216" name="812" type="PReLU" version="opset1">
			<rt_info>
				<attribute name="fused_names" version="0" value="812"/>
			</rt_info>
			<input>
				<port id="0" precision="FP32">
					<dim>1</dim>
					<dim>96</dim>
					<dim>32</dim>
					<dim>1</dim>
				</port>
				<port id="1" precision="FP32">
					<dim>1</dim>
				</port>
			</input>
			<output>
				<port id="2" precision="FP32" names="812">
					<dim>1</dim>
					<dim>96</dim>
					<dim>32</dim>
					<dim>1</dim>
				</port>
			</output>
		</layer>
		<layer id="217" name="813" type="Concat" version="opset1">
			<data axis="3"/>
			<rt_info>
				<attribute name="fused_names" version="0" value="813"/>
			</rt_info>
			<input>
				<port id="0" precision="FP32">
					<dim>1</dim>
					<dim>96</dim>
					<dim>32</dim>
					<dim>8</dim>
				</port>
				<port id="1" precision="FP32">
					<dim>1</dim>
					<dim>96</dim>
					<dim>32</dim>
					<dim>1</dim>
				</port>
			</input>
			<output>
				<port id="2" precision="FP32" names="813">
					<dim>1</dim>
					<dim>96</dim>
					<dim>32</dim>
					<dim>9</dim>
				</port>
			</output>
		</layer>
		<layer id="218" name="blocks_down.2.bd.1.conv.weight" type="Const" version="opset1">
			<data element_type="f32" shape="32, 96, 3, 3" offset="566200" size="110592"/>
			<rt_info>
				<attribute name="fused_names" version="0" value="blocks_down.2.bd.1.conv.weight"/>
			</rt_info>
			<output>
				<port id="0" precision="FP32" names="blocks_down.2.bd.1.conv.weight">
					<dim>32</dim>
					<dim>96</dim>
					<dim>3</dim>
					<dim>3</dim>
				</port>
			</output>
		</layer>
		<layer id="219" name="Convolution_3626" type="Convolution" version="opset1">
			<data strides="1, 1" dilations="1, 4" pads_begin="1, 0" pads_end="1, 0" auto_pad="explicit"/>
			<rt_info>
				<attribute name="fused_names" version="0" value="850, Convolution_3626, Split_3558"/>
			</rt_info>
			<input>
				<port id="0" precision="FP32">
					<dim>1</dim>
					<dim>96</dim>
					<dim>32</dim>
					<dim>9</dim>
				</port>
				<port id="1" precision="FP32">
					<dim>32</dim>
					<dim>96</dim>
					<dim>3</dim>
					<dim>3</dim>
				</port>
			</input>
			<output>
				<port id="2" precision="FP32">
					<dim>1</dim>
					<dim>32</dim>
					<dim>32</dim>
					<dim>1</dim>
				</port>
			</output>
		</layer>
		<layer id="220" name="Reshape_3646" type="Const" version="opset1">
			<data element_type="f32" shape="1, 32, 1, 1" offset="676792" size="128"/>
			<output>
				<port id="0" precision="FP32">
					<dim>1</dim>
					<dim>32</dim>
					<dim>1</dim>
					<dim>1</dim>
				</port>
			</output>
		</layer>
		<layer id="221" name="851" type="Add" version="opset1">
			<data auto_broadcast="numpy"/>
			<rt_info>
				<attribute name="fused_names" version="0" value="851, Concat_3645, Reshape_3646"/>
			</rt_info>
			<input>
				<port id="0" precision="FP32">
					<dim>1</dim>
					<dim>32</dim>
					<dim>32</dim>
					<dim>1</dim>
				</port>
				<port id="1" precision="FP32">
					<dim>1</dim>
					<dim>32</dim>
					<dim>1</dim>
					<dim>1</dim>
				</port>
			</input>
			<output>
				<port id="2" precision="FP32" names="851">
					<dim>1</dim>
					<dim>32</dim>
					<dim>32</dim>
					<dim>1</dim>
				</port>
			</output>
		</layer>
		<layer id="222" name="852" type="Concat" version="opset1">
			<data axis="1"/>
			<rt_info>
				<attribute name="fused_names" version="0" value="852"/>
			</rt_info>
			<input>
				<port id="0" precision="FP32">
					<dim>1</dim>
					<dim>96</dim>
					<dim>32</dim>
					<dim>1</dim>
				</port>
				<port id="1" precision="FP32">
					<dim>1</dim>
					<dim>32</dim>
					<dim>32</dim>
					<dim>1</dim>
				</port>
			</input>
			<output>
				<port id="2" precision="FP32" names="852">
					<dim>1</dim>
					<dim>128</dim>
					<dim>32</dim>
					<dim>1</dim>
				</port>
			</output>
		</layer>
		<layer id="223" name="Constant_115174" type="Const" version="opset1">
			<data element_type="f32" shape="1, 128, 1, 1" offset="676920" size="512"/>
			<rt_info>
				<attribute name="fused_names" version="0" value="853, blocks_down.2.bd.2.bn.bias, blocks_down.2.bd.2.bn.running_mean, blocks_down.2.bd.2.bn.running_var, blocks_down.2.bd.2.bn.weight"/>
			</rt_info>
			<output>
				<port id="0" precision="FP32">
					<dim>1</dim>
					<dim>128</dim>
					<dim>1</dim>
					<dim>1</dim>
				</port>
			</output>
		</layer>
		<layer id="224" name="Multiply_118286" type="Multiply" version="opset1">
			<data auto_broadcast="numpy"/>
			<rt_info>
				<attribute name="fused_names" version="0" value="853, blocks_down.2.bd.2.bn.bias, blocks_down.2.bd.2.bn.running_mean, blocks_down.2.bd.2.bn.running_var, blocks_down.2.bd.2.bn.weight"/>
			</rt_info>
			<input>
				<port id="0" precision="FP32">
					<dim>1</dim>
					<dim>128</dim>
					<dim>32</dim>
					<dim>1</dim>
				</port>
				<port id="1" precision="FP32">
					<dim>1</dim>
					<dim>128</dim>
					<dim>1</dim>
					<dim>1</dim>
				</port>
			</input>
			<output>
				<port id="2" precision="FP32">
					<dim>1</dim>
					<dim>128</dim>
					<dim>32</dim>
					<dim>1</dim>
				</port>
			</output>
		</layer>
		<layer id="225" name="Constant_118291" type="Const" version="opset1">
			<data element_type="f32" shape="1, 128, 1, 1" offset="677432" size="512"/>
			<output>
				<port id="0" precision="FP32">
					<dim>1</dim>
					<dim>128</dim>
					<dim>1</dim>
					<dim>1</dim>
				</port>
			</output>
		</layer>
		<layer id="226" name="853" type="Add" version="opset1">
			<data auto_broadcast="numpy"/>
			<rt_info>
				<attribute name="fused_names" version="0" value="853, blocks_down.2.bd.2.bn.bias, blocks_down.2.bd.2.bn.running_mean, blocks_down.2.bd.2.bn.running_var, blocks_down.2.bd.2.bn.weight"/>
			</rt_info>
			<input>
				<port id="0" precision="FP32">
					<dim>1</dim>
					<dim>128</dim>
					<dim>32</dim>
					<dim>1</dim>
				</port>
				<port id="1" precision="FP32">
					<dim>1</dim>
					<dim>128</dim>
					<dim>1</dim>
					<dim>1</dim>
				</port>
			</input>
			<output>
				<port id="2" precision="FP32" names="853">
					<dim>1</dim>
					<dim>128</dim>
					<dim>32</dim>
					<dim>1</dim>
				</port>
			</output>
		</layer>
		<layer id="227" name="Constant_3676" type="Const" version="opset1">
			<data element_type="f32" shape="1" offset="264308" size="4"/>
			<rt_info>
				<attribute name="fused_names" version="0" value="Constant_3676"/>
			</rt_info>
			<output>
				<port id="0" precision="FP32">
					<dim>1</dim>
				</port>
			</output>
		</layer>
		<layer id="228" name="854" type="PReLU" version="opset1">
			<rt_info>
				<attribute name="fused_names" version="0" value="854"/>
			</rt_info>
			<input>
				<port id="0" precision="FP32">
					<dim>1</dim>
					<dim>128</dim>
					<dim>32</dim>
					<dim>1</dim>
				</port>
				<port id="1" precision="FP32">
					<dim>1</dim>
				</port>
			</input>
			<output>
				<port id="2" precision="FP32" names="854">
					<dim>1</dim>
					<dim>128</dim>
					<dim>32</dim>
					<dim>1</dim>
				</port>
			</output>
		</layer>
		<layer id="229" name="855" type="Concat" version="opset1">
			<data axis="3"/>
			<rt_info>
				<attribute name="fused_names" version="0" value="855"/>
			</rt_info>
			<input>
				<port id="0" precision="FP32">
					<dim>1</dim>
					<dim>128</dim>
					<dim>32</dim>
					<dim>8</dim>
				</port>
				<port id="1" precision="FP32">
					<dim>1</dim>
					<dim>128</dim>
					<dim>32</dim>
					<dim>1</dim>
				</port>
			</input>
			<output>
				<port id="2" precision="FP32" names="855">
					<dim>1</dim>
					<dim>128</dim>
					<dim>32</dim>
					<dim>9</dim>
				</port>
			</output>
		</layer>
		<layer id="230" name="blocks_down.2.bd.2.conv.weight" type="Const" version="opset1">
			<data element_type="f32" shape="32, 128, 3, 3" offset="677944" size="147456"/>
			<rt_info>
				<attribute name="fused_names" version="0" value="blocks_down.2.bd.2.conv.weight"/>
			</rt_info>
			<output>
				<port id="0" precision="FP32" names="blocks_down.2.bd.2.conv.weight">
					<dim>32</dim>
					<dim>128</dim>
					<dim>3</dim>
					<dim>3</dim>
				</port>
			</output>
		</layer>
		<layer id="231" name="Convolution_3879" type="Convolution" version="opset1">
			<data strides="1, 1" dilations="1, 4" pads_begin="1, 0" pads_end="1, 0" auto_pad="explicit"/>
			<rt_info>
				<attribute name="fused_names" version="0" value="892, Convolution_3879, Split_3811"/>
			</rt_info>
			<input>
				<port id="0" precision="FP32">
					<dim>1</dim>
					<dim>128</dim>
					<dim>32</dim>
					<dim>9</dim>
				</port>
				<port id="1" precision="FP32">
					<dim>32</dim>
					<dim>128</dim>
					<dim>3</dim>
					<dim>3</dim>
				</port>
			</input>
			<output>
				<port id="2" precision="FP32">
					<dim>1</dim>
					<dim>32</dim>
					<dim>32</dim>
					<dim>1</dim>
				</port>
			</output>
		</layer>
		<layer id="232" name="Reshape_3899" type="Const" version="opset1">
			<data element_type="f32" shape="1, 32, 1, 1" offset="825400" size="128"/>
			<output>
				<port id="0" precision="FP32">
					<dim>1</dim>
					<dim>32</dim>
					<dim>1</dim>
					<dim>1</dim>
				</port>
			</output>
		</layer>
		<layer id="233" name="893" type="Add" version="opset1">
			<data auto_broadcast="numpy"/>
			<rt_info>
				<attribute name="fused_names" version="0" value="893, Concat_3898, Reshape_3899"/>
			</rt_info>
			<input>
				<port id="0" precision="FP32">
					<dim>1</dim>
					<dim>32</dim>
					<dim>32</dim>
					<dim>1</dim>
				</port>
				<port id="1" precision="FP32">
					<dim>1</dim>
					<dim>32</dim>
					<dim>1</dim>
					<dim>1</dim>
				</port>
			</input>
			<output>
				<port id="2" precision="FP32" names="893">
					<dim>1</dim>
					<dim>32</dim>
					<dim>32</dim>
					<dim>1</dim>
				</port>
			</output>
		</layer>
		<layer id="234" name="894" type="Concat" version="opset1">
			<data axis="1"/>
			<rt_info>
				<attribute name="fused_names" version="0" value="894"/>
			</rt_info>
			<input>
				<port id="0" precision="FP32">
					<dim>1</dim>
					<dim>128</dim>
					<dim>32</dim>
					<dim>1</dim>
				</port>
				<port id="1" precision="FP32">
					<dim>1</dim>
					<dim>32</dim>
					<dim>32</dim>
					<dim>1</dim>
				</port>
			</input>
			<output>
				<port id="2" precision="FP32" names="894">
					<dim>1</dim>
					<dim>160</dim>
					<dim>32</dim>
					<dim>1</dim>
				</port>
			</output>
		</layer>
		<layer id="235" name="Constant_115300" type="Const" version="opset1">
			<data element_type="f32" shape="1, 160, 1, 1" offset="825528" size="640"/>
			<rt_info>
				<attribute name="fused_names" version="0" value="895, blocks_down.2.bd_out.bn.bias, blocks_down.2.bd_out.bn.running_mean, blocks_down.2.bd_out.bn.running_var, blocks_down.2.bd_out.bn.weight"/>
			</rt_info>
			<output>
				<port id="0" precision="FP32">
					<dim>1</dim>
					<dim>160</dim>
					<dim>1</dim>
					<dim>1</dim>
				</port>
			</output>
		</layer>
		<layer id="236" name="Multiply_118293" type="Multiply" version="opset1">
			<data auto_broadcast="numpy"/>
			<rt_info>
				<attribute name="fused_names" version="0" value="895, blocks_down.2.bd_out.bn.bias, blocks_down.2.bd_out.bn.running_mean, blocks_down.2.bd_out.bn.running_var, blocks_down.2.bd_out.bn.weight"/>
			</rt_info>
			<input>
				<port id="0" precision="FP32">
					<dim>1</dim>
					<dim>160</dim>
					<dim>32</dim>
					<dim>1</dim>
				</port>
				<port id="1" precision="FP32">
					<dim>1</dim>
					<dim>160</dim>
					<dim>1</dim>
					<dim>1</dim>
				</port>
			</input>
			<output>
				<port id="2" precision="FP32">
					<dim>1</dim>
					<dim>160</dim>
					<dim>32</dim>
					<dim>1</dim>
				</port>
			</output>
		</layer>
		<layer id="237" name="Constant_118298" type="Const" version="opset1">
			<data element_type="f32" shape="1, 160, 1, 1" offset="826168" size="640"/>
			<output>
				<port id="0" precision="FP32">
					<dim>1</dim>
					<dim>160</dim>
					<dim>1</dim>
					<dim>1</dim>
				</port>
			</output>
		</layer>
		<layer id="238" name="895" type="Add" version="opset1">
			<data auto_broadcast="numpy"/>
			<rt_info>
				<attribute name="fused_names" version="0" value="895, blocks_down.2.bd_out.bn.bias, blocks_down.2.bd_out.bn.running_mean, blocks_down.2.bd_out.bn.running_var, blocks_down.2.bd_out.bn.weight"/>
			</rt_info>
			<input>
				<port id="0" precision="FP32">
					<dim>1</dim>
					<dim>160</dim>
					<dim>32</dim>
					<dim>1</dim>
				</port>
				<port id="1" precision="FP32">
					<dim>1</dim>
					<dim>160</dim>
					<dim>1</dim>
					<dim>1</dim>
				</port>
			</input>
			<output>
				<port id="2" precision="FP32" names="895">
					<dim>1</dim>
					<dim>160</dim>
					<dim>32</dim>
					<dim>1</dim>
				</port>
			</output>
		</layer>
		<layer id="239" name="Constant_3929" type="Const" version="opset1">
			<data element_type="f32" shape="1" offset="264308" size="4"/>
			<rt_info>
				<attribute name="fused_names" version="0" value="Constant_3929"/>
			</rt_info>
			<output>
				<port id="0" precision="FP32">
					<dim>1</dim>
				</port>
			</output>
		</layer>
		<layer id="240" name="896" type="PReLU" version="opset1">
			<rt_info>
				<attribute name="fused_names" version="0" value="896, 920, Split_3964"/>
			</rt_info>
			<input>
				<port id="0" precision="FP32">
					<dim>1</dim>
					<dim>160</dim>
					<dim>32</dim>
					<dim>1</dim>
				</port>
				<port id="1" precision="FP32">
					<dim>1</dim>
				</port>
			</input>
			<output>
				<port id="2" precision="FP32" names="896,920">
					<dim>1</dim>
					<dim>160</dim>
					<dim>32</dim>
					<dim>1</dim>
				</port>
			</output>
		</layer>
		<layer id="241" name="blocks_down.2.bd_out.conv.weight" type="Const" version="opset1">
			<data element_type="f32" shape="128, 160, 1, 1" offset="826808" size="81920"/>
			<rt_info>
				<attribute name="fused_names" version="0" value="blocks_down.2.bd_out.conv.weight"/>
			</rt_info>
			<output>
				<port id="0" precision="FP32" names="blocks_down.2.bd_out.conv.weight">
					<dim>128</dim>
					<dim>160</dim>
					<dim>1</dim>
					<dim>1</dim>
				</port>
			</output>
		</layer>
		<layer id="242" name="Convolution_4032" type="Convolution" version="opset1">
			<data strides="1, 1" dilations="1, 4" pads_begin="0, 0" pads_end="0, 0" auto_pad="explicit"/>
			<rt_info>
				<attribute name="fused_names" version="0" value="Convolution_4032"/>
			</rt_info>
			<input>
				<port id="0" precision="FP32">
					<dim>1</dim>
					<dim>160</dim>
					<dim>32</dim>
					<dim>1</dim>
				</port>
				<port id="1" precision="FP32">
					<dim>128</dim>
					<dim>160</dim>
					<dim>1</dim>
					<dim>1</dim>
				</port>
			</input>
			<output>
				<port id="2" precision="FP32">
					<dim>1</dim>
					<dim>128</dim>
					<dim>32</dim>
					<dim>1</dim>
				</port>
			</output>
		</layer>
		<layer id="243" name="Reshape_4052" type="Const" version="opset1">
			<data element_type="f32" shape="1, 128, 1, 1" offset="908728" size="512"/>
			<output>
				<port id="0" precision="FP32">
					<dim>1</dim>
					<dim>128</dim>
					<dim>1</dim>
					<dim>1</dim>
				</port>
			</output>
		</layer>
		<layer id="244" name="921" type="Add" version="opset1">
			<data auto_broadcast="numpy"/>
			<rt_info>
				<attribute name="fused_names" version="0" value="921, Concat_4051, Reshape_4052"/>
			</rt_info>
			<input>
				<port id="0" precision="FP32">
					<dim>1</dim>
					<dim>128</dim>
					<dim>32</dim>
					<dim>1</dim>
				</port>
				<port id="1" precision="FP32">
					<dim>1</dim>
					<dim>128</dim>
					<dim>1</dim>
					<dim>1</dim>
				</port>
			</input>
			<output>
				<port id="2" precision="FP32" names="921">
					<dim>1</dim>
					<dim>128</dim>
					<dim>32</dim>
					<dim>1</dim>
				</port>
			</output>
		</layer>
		<layer id="245" name="922" type="Concat" version="opset1">
			<data axis="3"/>
			<rt_info>
				<attribute name="fused_names" version="0" value="922, 937"/>
			</rt_info>
			<input>
				<port id="0" precision="FP32">
					<dim>1</dim>
					<dim>128</dim>
					<dim>32</dim>
					<dim>1</dim>
				</port>
				<port id="1" precision="FP32">
					<dim>1</dim>
					<dim>128</dim>
					<dim>32</dim>
					<dim>1</dim>
				</port>
			</input>
			<output>
				<port id="2" precision="FP32" names="922,937">
					<dim>1</dim>
					<dim>128</dim>
					<dim>32</dim>
					<dim>2</dim>
				</port>
			</output>
		</layer>
		<layer id="246" name="938" type="AvgPool" version="opset1">
			<data kernel="2, 2" strides="2, 1" pads_begin="0, 0" pads_end="0, 0" exclude-pad="true" auto_pad="explicit" rounding_type="floor"/>
			<rt_info>
				<attribute name="fused_names" version="0" value="938"/>
			</rt_info>
			<input>
				<port id="0" precision="FP32">
					<dim>1</dim>
					<dim>128</dim>
					<dim>32</dim>
					<dim>2</dim>
				</port>
			</input>
			<output>
				<port id="1" precision="FP32" names="938">
					<dim>1</dim>
					<dim>128</dim>
					<dim>16</dim>
					<dim>1</dim>
				</port>
			</output>
		</layer>
		<layer id="247" name="Constant_115426" type="Const" version="opset1">
			<data element_type="f32" shape="1, 128, 1, 1" offset="909240" size="512"/>
			<rt_info>
				<attribute name="fused_names" version="0" value="939, blocks_down.3.bd.0.bn.bias, blocks_down.3.bd.0.bn.running_mean, blocks_down.3.bd.0.bn.running_var, blocks_down.3.bd.0.bn.weight"/>
			</rt_info>
			<output>
				<port id="0" precision="FP32">
					<dim>1</dim>
					<dim>128</dim>
					<dim>1</dim>
					<dim>1</dim>
				</port>
			</output>
		</layer>
		<layer id="248" name="Multiply_118300" type="Multiply" version="opset1">
			<data auto_broadcast="numpy"/>
			<rt_info>
				<attribute name="fused_names" version="0" value="939, blocks_down.3.bd.0.bn.bias, blocks_down.3.bd.0.bn.running_mean, blocks_down.3.bd.0.bn.running_var, blocks_down.3.bd.0.bn.weight"/>
			</rt_info>
			<input>
				<port id="0" precision="FP32">
					<dim>1</dim>
					<dim>128</dim>
					<dim>16</dim>
					<dim>1</dim>
				</port>
				<port id="1" precision="FP32">
					<dim>1</dim>
					<dim>128</dim>
					<dim>1</dim>
					<dim>1</dim>
				</port>
			</input>
			<output>
				<port id="2" precision="FP32">
					<dim>1</dim>
					<dim>128</dim>
					<dim>16</dim>
					<dim>1</dim>
				</port>
			</output>
		</layer>
		<layer id="249" name="Constant_118305" type="Const" version="opset1">
			<data element_type="f32" shape="1, 128, 1, 1" offset="909752" size="512"/>
			<output>
				<port id="0" precision="FP32">
					<dim>1</dim>
					<dim>128</dim>
					<dim>1</dim>
					<dim>1</dim>
				</port>
			</output>
		</layer>
		<layer id="250" name="939" type="Add" version="opset1">
			<data auto_broadcast="numpy"/>
			<rt_info>
				<attribute name="fused_names" version="0" value="939, blocks_down.3.bd.0.bn.bias, blocks_down.3.bd.0.bn.running_mean, blocks_down.3.bd.0.bn.running_var, blocks_down.3.bd.0.bn.weight"/>
			</rt_info>
			<input>
				<port id="0" precision="FP32">
					<dim>1</dim>
					<dim>128</dim>
					<dim>16</dim>
					<dim>1</dim>
				</port>
				<port id="1" precision="FP32">
					<dim>1</dim>
					<dim>128</dim>
					<dim>1</dim>
					<dim>1</dim>
				</port>
			</input>
			<output>
				<port id="2" precision="FP32" names="939">
					<dim>1</dim>
					<dim>128</dim>
					<dim>16</dim>
					<dim>1</dim>
				</port>
			</output>
		</layer>
		<layer id="251" name="Constant_4187" type="Const" version="opset1">
			<data element_type="f32" shape="1" offset="264308" size="4"/>
			<rt_info>
				<attribute name="fused_names" version="0" value="Constant_4187"/>
			</rt_info>
			<output>
				<port id="0" precision="FP32">
					<dim>1</dim>
				</port>
			</output>
		</layer>
		<layer id="252" name="940" type="PReLU" version="opset1">
			<rt_info>
				<attribute name="fused_names" version="0" value="940"/>
			</rt_info>
			<input>
				<port id="0" precision="FP32">
					<dim>1</dim>
					<dim>128</dim>
					<dim>16</dim>
					<dim>1</dim>
				</port>
				<port id="1" precision="FP32">
					<dim>1</dim>
				</port>
			</input>
			<output>
				<port id="2" precision="FP32" names="940">
					<dim>1</dim>
					<dim>128</dim>
					<dim>16</dim>
					<dim>1</dim>
				</port>
			</output>
		</layer>
		<layer id="253" name="941" type="Concat" version="opset1">
			<data axis="3"/>
			<rt_info>
				<attribute name="fused_names" version="0" value="941"/>
			</rt_info>
			<input>
				<port id="0" precision="FP32">
					<dim>1</dim>
					<dim>128</dim>
					<dim>16</dim>
					<dim>16</dim>
				</port>
				<port id="1" precision="FP32">
					<dim>1</dim>
					<dim>128</dim>
					<dim>16</dim>
					<dim>1</dim>
				</port>
			</input>
			<output>
				<port id="2" precision="FP32" names="941">
					<dim>1</dim>
					<dim>128</dim>
					<dim>16</dim>
					<dim>17</dim>
				</port>
			</output>
		</layer>
		<layer id="254" name="blocks_down.3.bd.0.conv.weight" type="Const" version="opset1">
			<data element_type="f32" shape="64, 128, 3, 3" offset="910264" size="294912"/>
			<rt_info>
				<attribute name="fused_names" version="0" value="blocks_down.3.bd.0.conv.weight"/>
			</rt_info>
			<output>
				<port id="0" precision="FP32" names="blocks_down.3.bd.0.conv.weight">
					<dim>64</dim>
					<dim>128</dim>
					<dim>3</dim>
					<dim>3</dim>
				</port>
			</output>
		</layer>
		<layer id="255" name="Convolution_4390" type="Convolution" version="opset1">
			<data strides="1, 1" dilations="1, 8" pads_begin="1, 0" pads_end="1, 0" auto_pad="explicit"/>
			<rt_info>
				<attribute name="fused_names" version="0" value="978, Convolution_4390, Split_4322"/>
			</rt_info>
			<input>
				<port id="0" precision="FP32">
					<dim>1</dim>
					<dim>128</dim>
					<dim>16</dim>
					<dim>17</dim>
				</port>
				<port id="1" precision="FP32">
					<dim>64</dim>
					<dim>128</dim>
					<dim>3</dim>
					<dim>3</dim>
				</port>
			</input>
			<output>
				<port id="2" precision="FP32">
					<dim>1</dim>
					<dim>64</dim>
					<dim>16</dim>
					<dim>1</dim>
				</port>
			</output>
		</layer>
		<layer id="256" name="Reshape_4410" type="Const" version="opset1">
			<data element_type="f32" shape="1, 64, 1, 1" offset="1205176" size="256"/>
			<output>
				<port id="0" precision="FP32">
					<dim>1</dim>
					<dim>64</dim>
					<dim>1</dim>
					<dim>1</dim>
				</port>
			</output>
		</layer>
		<layer id="257" name="979" type="Add" version="opset1">
			<data auto_broadcast="numpy"/>
			<rt_info>
				<attribute name="fused_names" version="0" value="979, Concat_4409, Reshape_4410"/>
			</rt_info>
			<input>
				<port id="0" precision="FP32">
					<dim>1</dim>
					<dim>64</dim>
					<dim>16</dim>
					<dim>1</dim>
				</port>
				<port id="1" precision="FP32">
					<dim>1</dim>
					<dim>64</dim>
					<dim>1</dim>
					<dim>1</dim>
				</port>
			</input>
			<output>
				<port id="2" precision="FP32" names="979">
					<dim>1</dim>
					<dim>64</dim>
					<dim>16</dim>
					<dim>1</dim>
				</port>
			</output>
		</layer>
		<layer id="258" name="980" type="Concat" version="opset1">
			<data axis="1"/>
			<rt_info>
				<attribute name="fused_names" version="0" value="980"/>
			</rt_info>
			<input>
				<port id="0" precision="FP32">
					<dim>1</dim>
					<dim>128</dim>
					<dim>16</dim>
					<dim>1</dim>
				</port>
				<port id="1" precision="FP32">
					<dim>1</dim>
					<dim>64</dim>
					<dim>16</dim>
					<dim>1</dim>
				</port>
			</input>
			<output>
				<port id="2" precision="FP32" names="980">
					<dim>1</dim>
					<dim>192</dim>
					<dim>16</dim>
					<dim>1</dim>
				</port>
			</output>
		</layer>
		<layer id="259" name="Constant_115552" type="Const" version="opset1">
			<data element_type="f32" shape="1, 192, 1, 1" offset="1205432" size="768"/>
			<rt_info>
				<attribute name="fused_names" version="0" value="981, blocks_down.3.bd.1.bn.bias, blocks_down.3.bd.1.bn.running_mean, blocks_down.3.bd.1.bn.running_var, blocks_down.3.bd.1.bn.weight"/>
			</rt_info>
			<output>
				<port id="0" precision="FP32">
					<dim>1</dim>
					<dim>192</dim>
					<dim>1</dim>
					<dim>1</dim>
				</port>
			</output>
		</layer>
		<layer id="260" name="Multiply_118307" type="Multiply" version="opset1">
			<data auto_broadcast="numpy"/>
			<rt_info>
				<attribute name="fused_names" version="0" value="981, blocks_down.3.bd.1.bn.bias, blocks_down.3.bd.1.bn.running_mean, blocks_down.3.bd.1.bn.running_var, blocks_down.3.bd.1.bn.weight"/>
			</rt_info>
			<input>
				<port id="0" precision="FP32">
					<dim>1</dim>
					<dim>192</dim>
					<dim>16</dim>
					<dim>1</dim>
				</port>
				<port id="1" precision="FP32">
					<dim>1</dim>
					<dim>192</dim>
					<dim>1</dim>
					<dim>1</dim>
				</port>
			</input>
			<output>
				<port id="2" precision="FP32">
					<dim>1</dim>
					<dim>192</dim>
					<dim>16</dim>
					<dim>1</dim>
				</port>
			</output>
		</layer>
		<layer id="261" name="Constant_118312" type="Const" version="opset1">
			<data element_type="f32" shape="1, 192, 1, 1" offset="1206200" size="768"/>
			<output>
				<port id="0" precision="FP32">
					<dim>1</dim>
					<dim>192</dim>
					<dim>1</dim>
					<dim>1</dim>
				</port>
			</output>
		</layer>
		<layer id="262" name="981" type="Add" version="opset1">
			<data auto_broadcast="numpy"/>
			<rt_info>
				<attribute name="fused_names" version="0" value="981, blocks_down.3.bd.1.bn.bias, blocks_down.3.bd.1.bn.running_mean, blocks_down.3.bd.1.bn.running_var, blocks_down.3.bd.1.bn.weight"/>
			</rt_info>
			<input>
				<port id="0" precision="FP32">
					<dim>1</dim>
					<dim>192</dim>
					<dim>16</dim>
					<dim>1</dim>
				</port>
				<port id="1" precision="FP32">
					<dim>1</dim>
					<dim>192</dim>
					<dim>1</dim>
					<dim>1</dim>
				</port>
			</input>
			<output>
				<port id="2" precision="FP32" names="981">
					<dim>1</dim>
					<dim>192</dim>
					<dim>16</dim>
					<dim>1</dim>
				</port>
			</output>
		</layer>
		<layer id="263" name="Constant_4440" type="Const" version="opset1">
			<data element_type="f32" shape="1" offset="264308" size="4"/>
			<rt_info>
				<attribute name="fused_names" version="0" value="Constant_4440"/>
			</rt_info>
			<output>
				<port id="0" precision="FP32">
					<dim>1</dim>
				</port>
			</output>
		</layer>
		<layer id="264" name="982" type="PReLU" version="opset1">
			<rt_info>
				<attribute name="fused_names" version="0" value="982"/>
			</rt_info>
			<input>
				<port id="0" precision="FP32">
					<dim>1</dim>
					<dim>192</dim>
					<dim>16</dim>
					<dim>1</dim>
				</port>
				<port id="1" precision="FP32">
					<dim>1</dim>
				</port>
			</input>
			<output>
				<port id="2" precision="FP32" names="982">
					<dim>1</dim>
					<dim>192</dim>
					<dim>16</dim>
					<dim>1</dim>
				</port>
			</output>
		</layer>
		<layer id="265" name="983" type="Concat" version="opset1">
			<data axis="3"/>
			<rt_info>
				<attribute name="fused_names" version="0" value="983"/>
			</rt_info>
			<input>
				<port id="0" precision="FP32">
					<dim>1</dim>
					<dim>192</dim>
					<dim>16</dim>
					<dim>16</dim>
				</port>
				<port id="1" precision="FP32">
					<dim>1</dim>
					<dim>192</dim>
					<dim>16</dim>
					<dim>1</dim>
				</port>
			</input>
			<output>
				<port id="2" precision="FP32" names="983">
					<dim>1</dim>
					<dim>192</dim>
					<dim>16</dim>
					<dim>17</dim>
				</port>
			</output>
		</layer>
		<layer id="266" name="blocks_down.3.bd.1.conv.weight" type="Const" version="opset1">
			<data element_type="f32" shape="64, 192, 3, 3" offset="1206968" size="442368"/>
			<rt_info>
				<attribute name="fused_names" version="0" value="blocks_down.3.bd.1.conv.weight"/>
			</rt_info>
			<output>
				<port id="0" precision="FP32" names="blocks_down.3.bd.1.conv.weight">
					<dim>64</dim>
					<dim>192</dim>
					<dim>3</dim>
					<dim>3</dim>
				</port>
			</output>
		</layer>
		<layer id="267" name="Convolution_4643" type="Convolution" version="opset1">
			<data strides="1, 1" dilations="1, 8" pads_begin="1, 0" pads_end="1, 0" auto_pad="explicit"/>
			<rt_info>
				<attribute name="fused_names" version="0" value="1020, Convolution_4643, Split_4575"/>
			</rt_info>
			<input>
				<port id="0" precision="FP32">
					<dim>1</dim>
					<dim>192</dim>
					<dim>16</dim>
					<dim>17</dim>
				</port>
				<port id="1" precision="FP32">
					<dim>64</dim>
					<dim>192</dim>
					<dim>3</dim>
					<dim>3</dim>
				</port>
			</input>
			<output>
				<port id="2" precision="FP32">
					<dim>1</dim>
					<dim>64</dim>
					<dim>16</dim>
					<dim>1</dim>
				</port>
			</output>
		</layer>
		<layer id="268" name="Reshape_4663" type="Const" version="opset1">
			<data element_type="f32" shape="1, 64, 1, 1" offset="1649336" size="256"/>
			<output>
				<port id="0" precision="FP32">
					<dim>1</dim>
					<dim>64</dim>
					<dim>1</dim>
					<dim>1</dim>
				</port>
			</output>
		</layer>
		<layer id="269" name="1021" type="Add" version="opset1">
			<data auto_broadcast="numpy"/>
			<rt_info>
				<attribute name="fused_names" version="0" value="1021, Concat_4662, Reshape_4663"/>
			</rt_info>
			<input>
				<port id="0" precision="FP32">
					<dim>1</dim>
					<dim>64</dim>
					<dim>16</dim>
					<dim>1</dim>
				</port>
				<port id="1" precision="FP32">
					<dim>1</dim>
					<dim>64</dim>
					<dim>1</dim>
					<dim>1</dim>
				</port>
			</input>
			<output>
				<port id="2" precision="FP32" names="1021">
					<dim>1</dim>
					<dim>64</dim>
					<dim>16</dim>
					<dim>1</dim>
				</port>
			</output>
		</layer>
		<layer id="270" name="1022" type="Concat" version="opset1">
			<data axis="1"/>
			<rt_info>
				<attribute name="fused_names" version="0" value="1022"/>
			</rt_info>
			<input>
				<port id="0" precision="FP32">
					<dim>1</dim>
					<dim>192</dim>
					<dim>16</dim>
					<dim>1</dim>
				</port>
				<port id="1" precision="FP32">
					<dim>1</dim>
					<dim>64</dim>
					<dim>16</dim>
					<dim>1</dim>
				</port>
			</input>
			<output>
				<port id="2" precision="FP32" names="1022">
					<dim>1</dim>
					<dim>256</dim>
					<dim>16</dim>
					<dim>1</dim>
				</port>
			</output>
		</layer>
		<layer id="271" name="Constant_115678" type="Const" version="opset1">
			<data element_type="f32" shape="1, 256, 1, 1" offset="1649592" size="1024"/>
			<rt_info>
				<attribute name="fused_names" version="0" value="1023, blocks_down.3.bd_out.bn.bias, blocks_down.3.bd_out.bn.running_mean, blocks_down.3.bd_out.bn.running_var, blocks_down.3.bd_out.bn.weight"/>
			</rt_info>
			<output>
				<port id="0" precision="FP32">
					<dim>1</dim>
					<dim>256</dim>
					<dim>1</dim>
					<dim>1</dim>
				</port>
			</output>
		</layer>
		<layer id="272" name="Multiply_118314" type="Multiply" version="opset1">
			<data auto_broadcast="numpy"/>
			<rt_info>
				<attribute name="fused_names" version="0" value="1023, blocks_down.3.bd_out.bn.bias, blocks_down.3.bd_out.bn.running_mean, blocks_down.3.bd_out.bn.running_var, blocks_down.3.bd_out.bn.weight"/>
			</rt_info>
			<input>
				<port id="0" precision="FP32">
					<dim>1</dim>
					<dim>256</dim>
					<dim>16</dim>
					<dim>1</dim>
				</port>
				<port id="1" precision="FP32">
					<dim>1</dim>
					<dim>256</dim>
					<dim>1</dim>
					<dim>1</dim>
				</port>
			</input>
			<output>
				<port id="2" precision="FP32">
					<dim>1</dim>
					<dim>256</dim>
					<dim>16</dim>
					<dim>1</dim>
				</port>
			</output>
		</layer>
		<layer id="273" name="Constant_118319" type="Const" version="opset1">
			<data element_type="f32" shape="1, 256, 1, 1" offset="1650616" size="1024"/>
			<output>
				<port id="0" precision="FP32">
					<dim>1</dim>
					<dim>256</dim>
					<dim>1</dim>
					<dim>1</dim>
				</port>
			</output>
		</layer>
		<layer id="274" name="1023" type="Add" version="opset1">
			<data auto_broadcast="numpy"/>
			<rt_info>
				<attribute name="fused_names" version="0" value="1023, blocks_down.3.bd_out.bn.bias, blocks_down.3.bd_out.bn.running_mean, blocks_down.3.bd_out.bn.running_var, blocks_down.3.bd_out.bn.weight"/>
			</rt_info>
			<input>
				<port id="0" precision="FP32">
					<dim>1</dim>
					<dim>256</dim>
					<dim>16</dim>
					<dim>1</dim>
				</port>
				<port id="1" precision="FP32">
					<dim>1</dim>
					<dim>256</dim>
					<dim>1</dim>
					<dim>1</dim>
				</port>
			</input>
			<output>
				<port id="2" precision="FP32" names="1023">
					<dim>1</dim>
					<dim>256</dim>
					<dim>16</dim>
					<dim>1</dim>
				</port>
			</output>
		</layer>
		<layer id="275" name="Constant_4693" type="Const" version="opset1">
			<data element_type="f32" shape="1" offset="264308" size="4"/>
			<rt_info>
				<attribute name="fused_names" version="0" value="Constant_4693"/>
			</rt_info>
			<output>
				<port id="0" precision="FP32">
					<dim>1</dim>
				</port>
			</output>
		</layer>
		<layer id="276" name="1024" type="PReLU" version="opset1">
			<rt_info>
				<attribute name="fused_names" version="0" value="1024, 1048, Split_4728"/>
			</rt_info>
			<input>
				<port id="0" precision="FP32">
					<dim>1</dim>
					<dim>256</dim>
					<dim>16</dim>
					<dim>1</dim>
				</port>
				<port id="1" precision="FP32">
					<dim>1</dim>
				</port>
			</input>
			<output>
				<port id="2" precision="FP32" names="1024,1048">
					<dim>1</dim>
					<dim>256</dim>
					<dim>16</dim>
					<dim>1</dim>
				</port>
			</output>
		</layer>
		<layer id="277" name="blocks_down.3.bd_out.conv.weight" type="Const" version="opset1">
			<data element_type="f32" shape="256, 256, 1, 1" offset="1651640" size="262144"/>
			<rt_info>
				<attribute name="fused_names" version="0" value="blocks_down.3.bd_out.conv.weight"/>
			</rt_info>
			<output>
				<port id="0" precision="FP32" names="blocks_down.3.bd_out.conv.weight">
					<dim>256</dim>
					<dim>256</dim>
					<dim>1</dim>
					<dim>1</dim>
				</port>
			</output>
		</layer>
		<layer id="278" name="Convolution_4796" type="Convolution" version="opset1">
			<data strides="1, 1" dilations="1, 8" pads_begin="0, 0" pads_end="0, 0" auto_pad="explicit"/>
			<rt_info>
				<attribute name="fused_names" version="0" value="Convolution_4796"/>
			</rt_info>
			<input>
				<port id="0" precision="FP32">
					<dim>1</dim>
					<dim>256</dim>
					<dim>16</dim>
					<dim>1</dim>
				</port>
				<port id="1" precision="FP32">
					<dim>256</dim>
					<dim>256</dim>
					<dim>1</dim>
					<dim>1</dim>
				</port>
			</input>
			<output>
				<port id="2" precision="FP32">
					<dim>1</dim>
					<dim>256</dim>
					<dim>16</dim>
					<dim>1</dim>
				</port>
			</output>
		</layer>
		<layer id="279" name="Reshape_4816" type="Const" version="opset1">
			<data element_type="f32" shape="1, 256, 1, 1" offset="1913784" size="1024"/>
			<output>
				<port id="0" precision="FP32">
					<dim>1</dim>
					<dim>256</dim>
					<dim>1</dim>
					<dim>1</dim>
				</port>
			</output>
		</layer>
		<layer id="280" name="1049" type="Add" version="opset1">
			<data auto_broadcast="numpy"/>
			<rt_info>
				<attribute name="fused_names" version="0" value="1049, Concat_4815, Reshape_4816"/>
			</rt_info>
			<input>
				<port id="0" precision="FP32">
					<dim>1</dim>
					<dim>256</dim>
					<dim>16</dim>
					<dim>1</dim>
				</port>
				<port id="1" precision="FP32">
					<dim>1</dim>
					<dim>256</dim>
					<dim>1</dim>
					<dim>1</dim>
				</port>
			</input>
			<output>
				<port id="2" precision="FP32" names="1049">
					<dim>1</dim>
					<dim>256</dim>
					<dim>16</dim>
					<dim>1</dim>
				</port>
			</output>
		</layer>
		<layer id="281" name="1050" type="Concat" version="opset1">
			<data axis="3"/>
			<rt_info>
				<attribute name="fused_names" version="0" value="1050, 1065"/>
			</rt_info>
			<input>
				<port id="0" precision="FP32">
					<dim>1</dim>
					<dim>256</dim>
					<dim>16</dim>
					<dim>1</dim>
				</port>
				<port id="1" precision="FP32">
					<dim>1</dim>
					<dim>256</dim>
					<dim>16</dim>
					<dim>1</dim>
				</port>
			</input>
			<output>
				<port id="2" precision="FP32" names="1050,1065">
					<dim>1</dim>
					<dim>256</dim>
					<dim>16</dim>
					<dim>2</dim>
				</port>
			</output>
		</layer>
		<layer id="282" name="1066" type="AvgPool" version="opset1">
			<data kernel="2, 2" strides="2, 1" pads_begin="0, 0" pads_end="0, 0" exclude-pad="true" auto_pad="explicit" rounding_type="floor"/>
			<rt_info>
				<attribute name="fused_names" version="0" value="1066"/>
			</rt_info>
			<input>
				<port id="0" precision="FP32">
					<dim>1</dim>
					<dim>256</dim>
					<dim>16</dim>
					<dim>2</dim>
				</port>
			</input>
			<output>
				<port id="1" precision="FP32" names="1066">
					<dim>1</dim>
					<dim>256</dim>
					<dim>8</dim>
					<dim>1</dim>
				</port>
			</output>
		</layer>
		<layer id="283" name="Constant_115804" type="Const" version="opset1">
			<data element_type="f32" shape="1, 256, 1, 1" offset="1914808" size="1024"/>
			<rt_info>
				<attribute name="fused_names" version="0" value="1067, block_bottom.bd.0.bn.bias, block_bottom.bd.0.bn.running_mean, block_bottom.bd.0.bn.running_var, block_bottom.bd.0.bn.weight"/>
			</rt_info>
			<output>
				<port id="0" precision="FP32">
					<dim>1</dim>
					<dim>256</dim>
					<dim>1</dim>
					<dim>1</dim>
				</port>
			</output>
		</layer>
		<layer id="284" name="Multiply_118321" type="Multiply" version="opset1">
			<data auto_broadcast="numpy"/>
			<rt_info>
				<attribute name="fused_names" version="0" value="1067, block_bottom.bd.0.bn.bias, block_bottom.bd.0.bn.running_mean, block_bottom.bd.0.bn.running_var, block_bottom.bd.0.bn.weight"/>
			</rt_info>
			<input>
				<port id="0" precision="FP32">
					<dim>1</dim>
					<dim>256</dim>
					<dim>8</dim>
					<dim>1</dim>
				</port>
				<port id="1" precision="FP32">
					<dim>1</dim>
					<dim>256</dim>
					<dim>1</dim>
					<dim>1</dim>
				</port>
			</input>
			<output>
				<port id="2" precision="FP32">
					<dim>1</dim>
					<dim>256</dim>
					<dim>8</dim>
					<dim>1</dim>
				</port>
			</output>
		</layer>
		<layer id="285" name="Constant_118326" type="Const" version="opset1">
			<data element_type="f32" shape="1, 256, 1, 1" offset="1915832" size="1024"/>
			<output>
				<port id="0" precision="FP32">
					<dim>1</dim>
					<dim>256</dim>
					<dim>1</dim>
					<dim>1</dim>
				</port>
			</output>
		</layer>
		<layer id="286" name="1067" type="Add" version="opset1">
			<data auto_broadcast="numpy"/>
			<rt_info>
				<attribute name="fused_names" version="0" value="1067, block_bottom.bd.0.bn.bias, block_bottom.bd.0.bn.running_mean, block_bottom.bd.0.bn.running_var, block_bottom.bd.0.bn.weight"/>
			</rt_info>
			<input>
				<port id="0" precision="FP32">
					<dim>1</dim>
					<dim>256</dim>
					<dim>8</dim>
					<dim>1</dim>
				</port>
				<port id="1" precision="FP32">
					<dim>1</dim>
					<dim>256</dim>
					<dim>1</dim>
					<dim>1</dim>
				</port>
			</input>
			<output>
				<port id="2" precision="FP32" names="1067">
					<dim>1</dim>
					<dim>256</dim>
					<dim>8</dim>
					<dim>1</dim>
				</port>
			</output>
		</layer>
		<layer id="287" name="Constant_4951" type="Const" version="opset1">
			<data element_type="f32" shape="1" offset="264308" size="4"/>
			<rt_info>
				<attribute name="fused_names" version="0" value="Constant_4951"/>
			</rt_info>
			<output>
				<port id="0" precision="FP32">
					<dim>1</dim>
				</port>
			</output>
		</layer>
		<layer id="288" name="1068" type="PReLU" version="opset1">
			<rt_info>
				<attribute name="fused_names" version="0" value="1068"/>
			</rt_info>
			<input>
				<port id="0" precision="FP32">
					<dim>1</dim>
					<dim>256</dim>
					<dim>8</dim>
					<dim>1</dim>
				</port>
				<port id="1" precision="FP32">
					<dim>1</dim>
				</port>
			</input>
			<output>
				<port id="2" precision="FP32" names="1068">
					<dim>1</dim>
					<dim>256</dim>
					<dim>8</dim>
					<dim>1</dim>
				</port>
			</output>
		</layer>
		<layer id="289" name="1069" type="Concat" version="opset1">
			<data axis="3"/>
			<rt_info>
				<attribute name="fused_names" version="0" value="1069"/>
			</rt_info>
			<input>
				<port id="0" precision="FP32">
					<dim>1</dim>
					<dim>256</dim>
					<dim>8</dim>
					<dim>32</dim>
				</port>
				<port id="1" precision="FP32">
					<dim>1</dim>
					<dim>256</dim>
					<dim>8</dim>
					<dim>1</dim>
				</port>
			</input>
			<output>
…
		<edge from-layer="803" from-port="2" to-layer="805" to-port="2"/>
		<edge from-layer="803" from-port="2" to-layer="808" to-port="0"/>
		<edge from-layer="804" from-port="0" to-layer="809" to-port="3"/>
		<edge from-layer="804" from-port="0" to-layer="805" to-port="3"/>
		<edge from-layer="805" from-port="4" to-layer="811" to-port="1"/>
		<edge from-layer="806" from-port="0" to-layer="809" to-port="0"/>
		<edge from-layer="807" from-port="0" to-layer="808" to-port="1"/>
		<edge from-layer="808" from-port="2" to-layer="809" to-port="2"/>
		<edge from-layer="809" from-port="4" to-layer="811" to-port="2"/>
		<edge from-layer="810" from-port="0" to-layer="811" to-port="3"/>
		<edge from-layer="811" from-port="4" to-layer="812" to-port="0"/>
		<edge from-layer="813" from-port="0" to-layer="824" to-port="0"/>
		<edge from-layer="814" from-port="0" to-layer="828" to-port="1"/>
		<edge from-layer="814" from-port="0" to-layer="824" to-port="1"/>
		<edge from-layer="815" from-port="1" to-layer="818" to-port="0"/>
		<edge from-layer="816" from-port="0" to-layer="818" to-port="1"/>
		<edge from-layer="817" from-port="0" to-layer="818" to-port="2"/>
		<edge from-layer="818" from-port="3" to-layer="820" to-port="0"/>
		<edge from-layer="819" from-port="0" to-layer="820" to-port="1"/>
		<edge from-layer="820" from-port="2" to-layer="822" to-port="0"/>
		<edge from-layer="821" from-port="0" to-layer="822" to-port="1"/>
		<edge from-layer="822" from-port="2" to-layer="827" to-port="0"/>
		<edge from-layer="822" from-port="2" to-layer="824" to-port="2"/>
		<edge from-layer="823" from-port="0" to-layer="824" to-port="3"/>
		<edge from-layer="823" from-port="0" to-layer="828" to-port="3"/>
		<edge from-layer="824" from-port="4" to-layer="830" to-port="1"/>
		<edge from-layer="825" from-port="0" to-layer="828" to-port="0"/>
		<edge from-layer="826" from-port="0" to-layer="827" to-port="1"/>
		<edge from-layer="827" from-port="2" to-layer="828" to-port="2"/>
		<edge from-layer="828" from-port="4" to-layer="830" to-port="2"/>
		<edge from-layer="829" from-port="0" to-layer="830" to-port="3"/>
		<edge from-layer="830" from-port="4" to-layer="831" to-port="0"/>
		<edge from-layer="832" from-port="0" to-layer="843" to-port="0"/>
		<edge from-layer="833" from-port="0" to-layer="843" to-port="1"/>
		<edge from-layer="833" from-port="0" to-layer="847" to-port="1"/>
		<edge from-layer="834" from-port="1" to-layer="837" to-port="0"/>
		<edge from-layer="835" from-port="0" to-layer="837" to-port="1"/>
		<edge from-layer="836" from-port="0" to-layer="837" to-port="2"/>
		<edge from-layer="837" from-port="3" to-layer="839" to-port="0"/>
		<edge from-layer="838" from-port="0" to-layer="839" to-port="1"/>
		<edge from-layer="839" from-port="2" to-layer="841" to-port="0"/>
		<edge from-layer="840" from-port="0" to-layer="841" to-port="1"/>
		<edge from-layer="841" from-port="2" to-layer="846" to-port="0"/>
		<edge from-layer="841" from-port="2" to-layer="843" to-port="2"/>
		<edge from-layer="842" from-port="0" to-layer="843" to-port="3"/>
		<edge from-layer="842" from-port="0" to-layer="847" to-port="3"/>
		<edge from-layer="843" from-port="4" to-layer="849" to-port="1"/>
		<edge from-layer="844" from-port="0" to-layer="847" to-port="0"/>
		<edge from-layer="845" from-port="0" to-layer="846" to-port="1"/>
		<edge from-layer="846" from-port="2" to-layer="847" to-port="2"/>
		<edge from-layer="847" from-port="4" to-layer="849" to-port="2"/>
		<edge from-layer="848" from-port="0" to-layer="849" to-port="3"/>
		<edge from-layer="849" from-port="4" to-layer="850" to-port="0"/>
		<edge from-layer="851" from-port="0" to-layer="862" to-port="0"/>
		<edge from-layer="852" from-port="0" to-layer="862" to-port="1"/>
		<edge from-layer="852" from-port="0" to-layer="866" to-port="1"/>
		<edge from-layer="853" from-port="1" to-layer="856" to-port="0"/>
		<edge from-layer="854" from-port="0" to-layer="856" to-port="1"/>
		<edge from-layer="855" from-port="0" to-layer="856" to-port="2"/>
		<edge from-layer="856" from-port="3" to-layer="858" to-port="0"/>
		<edge from-layer="857" from-port="0" to-layer="858" to-port="1"/>
		<edge from-layer="858" from-port="2" to-layer="860" to-port="0"/>
		<edge from-layer="859" from-port="0" to-layer="860" to-port="1"/>
		<edge from-layer="860" from-port="2" to-layer="865" to-port="0"/>
		<edge from-layer="860" from-port="2" to-layer="862" to-port="2"/>
		<edge from-layer="861" from-port="0" to-layer="862" to-port="3"/>
		<edge from-layer="861" from-port="0" to-layer="866" to-port="3"/>
		<edge from-layer="862" from-port="4" to-layer="868" to-port="1"/>
		<edge from-layer="863" from-port="0" to-layer="866" to-port="0"/>
		<edge from-layer="864" from-port="0" to-layer="865" to-port="1"/>
		<edge from-layer="865" from-port="2" to-layer="866" to-port="2"/>
		<edge from-layer="866" from-port="4" to-layer="868" to-port="2"/>
		<edge from-layer="867" from-port="0" to-layer="868" to-port="3"/>
		<edge from-layer="868" from-port="4" to-layer="869" to-port="0"/>
		<edge from-layer="870" from-port="0" to-layer="881" to-port="0"/>
		<edge from-layer="871" from-port="0" to-layer="881" to-port="1"/>
		<edge from-layer="871" from-port="0" to-layer="885" to-port="1"/>
		<edge from-layer="872" from-port="1" to-layer="875" to-port="0"/>
		<edge from-layer="873" from-port="0" to-layer="875" to-port="1"/>
		<edge from-layer="874" from-port="0" to-layer="875" to-port="2"/>
		<edge from-layer="875" from-port="3" to-layer="877" to-port="0"/>
		<edge from-layer="876" from-port="0" to-layer="877" to-port="1"/>
		<edge from-layer="877" from-port="2" to-layer="879" to-port="0"/>
		<edge from-layer="878" from-port="0" to-layer="879" to-port="1"/>
		<edge from-layer="879" from-port="2" to-layer="881" to-port="2"/>
		<edge from-layer="879" from-port="2" to-layer="884" to-port="0"/>
		<edge from-layer="880" from-port="0" to-layer="881" to-port="3"/>
		<edge from-layer="880" from-port="0" to-layer="885" to-port="3"/>
		<edge from-layer="881" from-port="4" to-layer="887" to-port="1"/>
		<edge from-layer="882" from-port="0" to-layer="885" to-port="0"/>
		<edge from-layer="883" from-port="0" to-layer="884" to-port="1"/>
		<edge from-layer="884" from-port="2" to-layer="885" to-port="2"/>
		<edge from-layer="885" from-port="4" to-layer="887" to-port="2"/>
		<edge from-layer="886" from-port="0" to-layer="887" to-port="3"/>
		<edge from-layer="887" from-port="4" to-layer="888" to-port="0"/>
		<edge from-layer="889" from-port="0" to-layer="900" to-port="0"/>
		<edge from-layer="890" from-port="0" to-layer="904" to-port="1"/>
		<edge from-layer="890" from-port="0" to-layer="900" to-port="1"/>
		<edge from-layer="891" from-port="1" to-layer="894" to-port="0"/>
		<edge from-layer="892" from-port="0" to-layer="894" to-port="1"/>
		<edge from-layer="893" from-port="0" to-layer="894" to-port="2"/>
		<edge from-layer="894" from-port="3" to-layer="896" to-port="0"/>
		<edge from-layer="895" from-port="0" to-layer="896" to-port="1"/>
		<edge from-layer="896" from-port="2" to-layer="898" to-port="0"/>
		<edge from-layer="897" from-port="0" to-layer="898" to-port="1"/>
		<edge from-layer="898" from-port="2" to-layer="900" to-port="2"/>
		<edge from-layer="898" from-port="2" to-layer="903" to-port="0"/>
		<edge from-layer="899" from-port="0" to-layer="900" to-port="3"/>
		<edge from-layer="899" from-port="0" to-layer="904" to-port="3"/>
		<edge from-layer="900" from-port="4" to-layer="906" to-port="1"/>
		<edge from-layer="901" from-port="0" to-layer="904" to-port="0"/>
		<edge from-layer="902" from-port="0" to-layer="903" to-port="1"/>
		<edge from-layer="903" from-port="2" to-layer="904" to-port="2"/>
		<edge from-layer="904" from-port="4" to-layer="906" to-port="2"/>
		<edge from-layer="905" from-port="0" to-layer="906" to-port="3"/>
		<edge from-layer="906" from-port="4" to-layer="907" to-port="0"/>
		<edge from-layer="908" from-port="0" to-layer="919" to-port="0"/>
		<edge from-layer="909" from-port="0" to-layer="923" to-port="1"/>
		<edge from-layer="909" from-port="0" to-layer="919" to-port="1"/>
		<edge from-layer="910" from-port="1" to-layer="913" to-port="0"/>
		<edge from-layer="911" from-port="0" to-layer="913" to-port="1"/>
		<edge from-layer="912" from-port="0" to-layer="913" to-port="2"/>
		<edge from-layer="913" from-port="3" to-layer="915" to-port="0"/>
		<edge from-layer="914" from-port="0" to-layer="915" to-port="1"/>
		<edge from-layer="915" from-port="2" to-layer="917" to-port="0"/>
		<edge from-layer="916" from-port="0" to-layer="917" to-port="1"/>
		<edge from-layer="917" from-port="2" to-layer="922" to-port="0"/>
		<edge from-layer="917" from-port="2" to-layer="919" to-port="2"/>
		<edge from-layer="918" from-port="0" to-layer="923" to-port="3"/>
		<edge from-layer="918" from-port="0" to-layer="919" to-port="3"/>
		<edge from-layer="919" from-port="4" to-layer="925" to-port="1"/>
		<edge from-layer="920" from-port="0" to-layer="923" to-port="0"/>
		<edge from-layer="921" from-port="0" to-layer="922" to-port="1"/>
		<edge from-layer="922" from-port="2" to-layer="923" to-port="2"/>
		<edge from-layer="923" from-port="4" to-layer="925" to-port="2"/>
		<edge from-layer="924" from-port="0" to-layer="925" to-port="3"/>
		<edge from-layer="925" from-port="4" to-layer="926" to-port="0"/>
		<edge from-layer="927" from-port="0" to-layer="938" to-port="0"/>
		<edge from-layer="928" from-port="0" to-layer="938" to-port="1"/>
		<edge from-layer="928" from-port="0" to-layer="942" to-port="1"/>
		<edge from-layer="929" from-port="1" to-layer="932" to-port="0"/>
		<edge from-layer="930" from-port="0" to-layer="932" to-port="1"/>
		<edge from-layer="931" from-port="0" to-layer="932" to-port="2"/>
		<edge from-layer="932" from-port="3" to-layer="934" to-port="0"/>
		<edge from-layer="933" from-port="0" to-layer="934" to-port="1"/>
		<edge from-layer="934" from-port="2" to-layer="936" to-port="0"/>
		<edge from-layer="935" from-port="0" to-layer="936" to-port="1"/>
		<edge from-layer="936" from-port="2" to-layer="941" to-port="0"/>
		<edge from-layer="936" from-port="2" to-layer="938" to-port="2"/>
		<edge from-layer="937" from-port="0" to-layer="942" to-port="3"/>
		<edge from-layer="937" from-port="0" to-layer="938" to-port="3"/>
		<edge from-layer="938" from-port="4" to-layer="944" to-port="1"/>
		<edge from-layer="939" from-port="0" to-layer="942" to-port="0"/>
		<edge from-layer="940" from-port="0" to-layer="941" to-port="1"/>
		<edge from-layer="941" from-port="2" to-layer="942" to-port="2"/>
		<edge from-layer="942" from-port="4" to-layer="944" to-port="2"/>
		<edge from-layer="943" from-port="0" to-layer="944" to-port="3"/>
		<edge from-layer="944" from-port="4" to-layer="945" to-port="0"/>
		<edge from-layer="946" from-port="0" to-layer="957" to-port="0"/>
		<edge from-layer="947" from-port="0" to-layer="957" to-port="1"/>
		<edge from-layer="947" from-port="0" to-layer="961" to-port="1"/>
		<edge from-layer="948" from-port="1" to-layer="951" to-port="0"/>
		<edge from-layer="949" from-port="0" to-layer="951" to-port="1"/>
		<edge from-layer="950" from-port="0" to-layer="951" to-port="2"/>
		<edge from-layer="951" from-port="3" to-layer="953" to-port="0"/>
		<edge from-layer="952" from-port="0" to-layer="953" to-port="1"/>
		<edge from-layer="953" from-port="2" to-layer="955" to-port="0"/>
		<edge from-layer="954" from-port="0" to-layer="955" to-port="1"/>
		<edge from-layer="955" from-port="2" to-layer="957" to-port="2"/>
		<edge from-layer="955" from-port="2" to-layer="960" to-port="0"/>
		<edge from-layer="956" from-port="0" to-layer="957" to-port="3"/>
		<edge from-layer="956" from-port="0" to-layer="961" to-port="3"/>
		<edge from-layer="957" from-port="4" to-layer="963" to-port="1"/>
		<edge from-layer="958" from-port="0" to-layer="961" to-port="0"/>
		<edge from-layer="959" from-port="0" to-layer="960" to-port="1"/>
		<edge from-layer="960" from-port="2" to-layer="961" to-port="2"/>
		<edge from-layer="961" from-port="4" to-layer="963" to-port="2"/>
		<edge from-layer="962" from-port="0" to-layer="963" to-port="3"/>
		<edge from-layer="963" from-port="4" to-layer="964" to-port="0"/>
		<edge from-layer="965" from-port="0" to-layer="976" to-port="0"/>
		<edge from-layer="966" from-port="0" to-layer="976" to-port="1"/>
		<edge from-layer="966" from-port="0" to-layer="980" to-port="1"/>
		<edge from-layer="967" from-port="1" to-layer="970" to-port="0"/>
		<edge from-layer="968" from-port="0" to-layer="970" to-port="1"/>
		<edge from-layer="969" from-port="0" to-layer="970" to-port="2"/>
		<edge from-layer="970" from-port="3" to-layer="972" to-port="0"/>
		<edge from-layer="971" from-port="0" to-layer="972" to-port="1"/>
		<edge from-layer="972" from-port="2" to-layer="974" to-port="0"/>
		<edge from-layer="973" from-port="0" to-layer="974" to-port="1"/>
		<edge from-layer="974" from-port="2" to-layer="976" to-port="2"/>
		<edge from-layer="974" from-port="2" to-layer="979" to-port="0"/>
		<edge from-layer="975" from-port="0" to-layer="976" to-port="3"/>
		<edge from-layer="975" from-port="0" to-layer="980" to-port="3"/>
		<edge from-layer="976" from-port="4" to-layer="982" to-port="1"/>
		<edge from-layer="977" from-port="0" to-layer="980" to-port="0"/>
		<edge from-layer="978" from-port="0" to-layer="979" to-port="1"/>
		<edge from-layer="979" from-port="2" to-layer="980" to-port="2"/>
		<edge from-layer="980" from-port="4" to-layer="982" to-port="2"/>
		<edge from-layer="981" from-port="0" to-layer="982" to-port="3"/>
		<edge from-layer="982" from-port="4" to-layer="983" to-port="0"/>
		<edge from-layer="984" from-port="0" to-layer="995" to-port="0"/>
		<edge from-layer="985" from-port="0" to-layer="995" to-port="1"/>
		<edge from-layer="985" from-port="0" to-layer="999" to-port="1"/>
		<edge from-layer="986" from-port="1" to-layer="989" to-port="0"/>
		<edge from-layer="987" from-port="0" to-layer="989" to-port="1"/>
		<edge from-layer="988" from-port="0" to-layer="989" to-port="2"/>
		<edge from-layer="989" from-port="3" to-layer="991" to-port="0"/>
		<edge from-layer="990" from-port="0" to-layer="991" to-port="1"/>
		<edge from-layer="991" from-port="2" to-layer="993" to-port="0"/>
		<edge from-layer="992" from-port="0" to-layer="993" to-port="1"/>
		<edge from-layer="993" from-port="2" to-layer="998" to-port="0"/>
		<edge from-layer="993" from-port="2" to-layer="995" to-port="2"/>
		<edge from-layer="994" from-port="0" to-layer="999" to-port="3"/>
		<edge from-layer="994" from-port="0" to-layer="995" to-port="3"/>
		<edge from-layer="995" from-port="4" to-layer="1001" to-port="1"/>
		<edge from-layer="996" from-port="0" to-layer="999" to-port="0"/>
		<edge from-layer="997" from-port="0" to-layer="998" to-port="1"/>
		<edge from-layer="998" from-port="2" to-layer="999" to-port="2"/>
		<edge from-layer="999" from-port="4" to-layer="1001" to-port="2"/>
		<edge from-layer="1000" from-port="0" to-layer="1001" to-port="3"/>
		<edge from-layer="1001" from-port="4" to-layer="1002" to-port="0"/>
		<edge from-layer="1003" from-port="0" to-layer="1014" to-port="0"/>
		<edge from-layer="1004" from-port="0" to-layer="1018" to-port="1"/>
		<edge from-layer="1004" from-port="0" to-layer="1014" to-port="1"/>
		<edge from-layer="1005" from-port="1" to-layer="1008" to-port="0"/>
		<edge from-layer="1006" from-port="0" to-layer="1008" to-port="1"/>
		<edge from-layer="1007" from-port="0" to-layer="1008" to-port="2"/>
		<edge from-layer="1008" from-port="3" to-layer="1010" to-port="0"/>
		<edge from-layer="1009" from-port="0" to-layer="1010" to-port="1"/>
		<edge from-layer="1010" from-port="2" to-layer="1012" to-port="0"/>
		<edge from-layer="1011" from-port="0" to-layer="1012" to-port="1"/>
		<edge from-layer="1012" from-port="2" to-layer="1014" to-port="2"/>
		<edge from-layer="1012" from-port="2" to-layer="1017" to-port="0"/>
		<edge from-layer="1013" from-port="0" to-layer="1014" to-port="3"/>
		<edge from-layer="1013" from-port="0" to-layer="1018" to-port="3"/>
		<edge from-layer="1014" from-port="4" to-layer="1020" to-port="1"/>
		<edge from-layer="1015" from-port="0" to-layer="1018" to-port="0"/>
		<edge from-layer="1016" from-port="0" to-layer="1017" to-port="1"/>
		<edge from-layer="1017" from-port="2" to-layer="1018" to-port="2"/>
		<edge from-layer="1018" from-port="4" to-layer="1020" to-port="2"/>
		<edge from-layer="1019" from-port="0" to-layer="1020" to-port="3"/>
		<edge from-layer="1020" from-port="4" to-layer="1021" to-port="0"/>
		<edge from-layer="1022" from-port="0" to-layer="1033" to-port="0"/>
		<edge from-layer="1023" from-port="0" to-layer="1037" to-port="1"/>
		<edge from-layer="1023" from-port="0" to-layer="1033" to-port="1"/>
		<edge from-layer="1024" from-port="1" to-layer="1027" to-port="0"/>
		<edge from-layer="1025" from-port="0" to-layer="1027" to-port="1"/>
		<edge from-layer="1026" from-port="0" to-layer="1027" to-port="2"/>
		<edge from-layer="1027" from-port="3" to-layer="1029" to-port="0"/>
		<edge from-layer="1028" from-port="0" to-layer="1029" to-port="1"/>
		<edge from-layer="1029" from-port="2" to-layer="1031" to-port="0"/>
		<edge from-layer="1030" from-port="0" to-layer="1031" to-port="1"/>
		<edge from-layer="1031" from-port="2" to-layer="1033" to-port="2"/>
		<edge from-layer="1031" from-port="2" to-layer="1036" to-port="0"/>
		<edge from-layer="1032" from-port="0" to-layer="1033" to-port="3"/>
		<edge from-layer="1032" from-port="0" to-layer="1037" to-port="3"/>
		<edge from-layer="1033" from-port="4" to-layer="1039" to-port="1"/>
		<edge from-layer="1034" from-port="0" to-layer="1037" to-port="0"/>
		<edge from-layer="1035" from-port="0" to-layer="1036" to-port="1"/>
		<edge from-layer="1036" from-port="2" to-layer="1037" to-port="2"/>
		<edge from-layer="1037" from-port="4" to-layer="1039" to-port="2"/>
		<edge from-layer="1038" from-port="0" to-layer="1039" to-port="3"/>
		<edge from-layer="1039" from-port="4" to-layer="1040" to-port="0"/>
		<edge from-layer="1041" from-port="0" to-layer="1052" to-port="0"/>
		<edge from-layer="1042" from-port="0" to-layer="1052" to-port="1"/>
		<edge from-layer="1042" from-port="0" to-layer="1056" to-port="1"/>
		<edge from-layer="1043" from-port="1" to-layer="1046" to-port="0"/>
		<edge from-layer="1044" from-port="0" to-layer="1046" to-port="1"/>
		<edge from-layer="1045" from-port="0" to-layer="1046" to-port="2"/>
		<edge from-layer="1046" from-port="3" to-layer="1048" to-port="0"/>
		<edge from-layer="1047" from-port="0" to-layer="1048" to-port="1"/>
		<edge from-layer="1048" from-port="2" to-layer="1050" to-port="0"/>
		<edge from-layer="1049" from-port="0" to-layer="1050" to-port="1"/>
		<edge from-layer="1050" from-port="2" to-layer="1052" to-port="2"/>
		<edge from-layer="1050" from-port="2" to-layer="1055" to-port="0"/>
		<edge from-layer="1051" from-port="0" to-layer="1056" to-port="3"/>
		<edge from-layer="1051" from-port="0" to-layer="1052" to-port="3"/>
		<edge from-layer="1052" from-port="4" to-layer="1058" to-port="1"/>
		<edge from-layer="1053" from-port="0" to-layer="1056" to-port="0"/>
		<edge from-layer="1054" from-port="0" to-layer="1055" to-port="1"/>
		<edge from-layer="1055" from-port="2" to-layer="1056" to-port="2"/>
		<edge from-layer="1056" from-port="4" to-layer="1058" to-port="2"/>
		<edge from-layer="1057" from-port="0" to-layer="1058" to-port="3"/>
		<edge from-layer="1058" from-port="4" to-layer="1059" to-port="0"/>
		<edge from-layer="1060" from-port="0" to-layer="1071" to-port="0"/>
		<edge from-layer="1061" from-port="0" to-layer="1071" to-port="1"/>
		<edge from-layer="1061" from-port="0" to-layer="1075" to-port="1"/>
		<edge from-layer="1062" from-port="1" to-layer="1065" to-port="0"/>
		<edge from-layer="1063" from-port="0" to-layer="1065" to-port="1"/>
		<edge from-layer="1064" from-port="0" to-layer="1065" to-port="2"/>
		<edge from-layer="1065" from-port="3" to-layer="1067" to-port="0"/>
		<edge from-layer="1066" from-port="0" to-layer="1067" to-port="1"/>
		<edge from-layer="1067" from-port="2" to-layer="1069" to-port="0"/>
		<edge from-layer="1068" from-port="0" to-layer="1069" to-port="1"/>
		<edge from-layer="1069" from-port="2" to-layer="1071" to-port="2"/>
		<edge from-layer="1069" from-port="2" to-layer="1074" to-port="0"/>
		<edge from-layer="1070" from-port="0" to-layer="1075" to-port="3"/>
		<edge from-layer="1070" from-port="0" to-layer="1071" to-port="3"/>
		<edge from-layer="1071" from-port="4" to-layer="1077" to-port="1"/>
		<edge from-layer="1072" from-port="0" to-layer="1075" to-port="0"/>
		<edge from-layer="1073" from-port="0" to-layer="1074" to-port="1"/>
		<edge from-layer="1074" from-port="2" to-layer="1075" to-port="2"/>
		<edge from-layer="1075" from-port="4" to-layer="1077" to-port="2"/>
		<edge from-layer="1076" from-port="0" to-layer="1077" to-port="3"/>
		<edge from-layer="1077" from-port="4" to-layer="1078" to-port="0"/>
		<edge from-layer="1079" from-port="0" to-layer="1090" to-port="0"/>
		<edge from-layer="1080" from-port="0" to-layer="1094" to-port="1"/>
		<edge from-layer="1080" from-port="0" to-layer="1090" to-port="1"/>
		<edge from-layer="1081" from-port="1" to-layer="1084" to-port="0"/>
		<edge from-layer="1082" from-port="0" to-layer="1084" to-port="1"/>
		<edge from-layer="1083" from-port="0" to-layer="1084" to-port="2"/>
		<edge from-layer="1084" from-port="3" to-layer="1086" to-port="0"/>
		<edge from-layer="1085" from-port="0" to-layer="1086" to-port="1"/>
		<edge from-layer="1086" from-port="2" to-layer="1088" to-port="0"/>
		<edge from-layer="1087" from-port="0" to-layer="1088" to-port="1"/>
		<edge from-layer="1088" from-port="2" to-layer="1093" to-port="0"/>
		<edge from-layer="1088" from-port="2" to-layer="1090" to-port="2"/>
		<edge from-layer="1089" from-port="0" to-layer="1094" to-port="3"/>
		<edge from-layer="1089" from-port="0" to-layer="1090" to-port="3"/>
		<edge from-layer="1090" from-port="4" to-layer="1096" to-port="1"/>
		<edge from-layer="1091" from-port="0" to-layer="1094" to-port="0"/>
		<edge from-layer="1092" from-port="0" to-layer="1093" to-port="1"/>
		<edge from-layer="1093" from-port="2" to-layer="1094" to-port="2"/>
		<edge from-layer="1094" from-port="4" to-layer="1096" to-port="2"/>
		<edge from-layer="1095" from-port="0" to-layer="1096" to-port="3"/>
		<edge from-layer="1096" from-port="4" to-layer="1097" to-port="0"/>
		<edge from-layer="1098" from-port="0" to-layer="1109" to-port="0"/>
		<edge from-layer="1099" from-port="0" to-layer="1113" to-port="1"/>
		<edge from-layer="1099" from-port="0" to-layer="1109" to-port="1"/>
		<edge from-layer="1100" from-port="1" to-layer="1103" to-port="0"/>
		<edge from-layer="1101" from-port="0" to-layer="1103" to-port="1"/>
		<edge from-layer="1102" from-port="0" to-layer="1103" to-port="2"/>
		<edge from-layer="1103" from-port="3" to-layer="1105" to-port="0"/>
		<edge from-layer="1104" from-port="0" to-layer="1105" to-port="1"/>
		<edge from-layer="1105" from-port="2" to-layer="1107" to-port="0"/>
		<edge from-layer="1106" from-port="0" to-layer="1107" to-port="1"/>
		<edge from-layer="1107" from-port="2" to-layer="1112" to-port="0"/>
		<edge from-layer="1107" from-port="2" to-layer="1109" to-port="2"/>
		<edge from-layer="1108" from-port="0" to-layer="1109" to-port="3"/>
		<edge from-layer="1108" from-port="0" to-layer="1113" to-port="3"/>
		<edge from-layer="1109" from-port="4" to-layer="1115" to-port="1"/>
		<edge from-layer="1110" from-port="0" to-layer="1113" to-port="0"/>
		<edge from-layer="1111" from-port="0" to-layer="1112" to-port="1"/>
		<edge from-layer="1112" from-port="2" to-layer="1113" to-port="2"/>
		<edge from-layer="1113" from-port="4" to-layer="1115" to-port="2"/>
		<edge from-layer="1114" from-port="0" to-layer="1115" to-port="3"/>
		<edge from-layer="1115" from-port="4" to-layer="1116" to-port="0"/>
		<edge from-layer="1117" from-port="0" to-layer="1128" to-port="0"/>
		<edge from-layer="1118" from-port="0" to-layer="1128" to-port="1"/>
		<edge from-layer="1118" from-port="0" to-layer="1132" to-port="1"/>
		<edge from-layer="1119" from-port="1" to-layer="1122" to-port="0"/>
		<edge from-layer="1120" from-port="0" to-layer="1122" to-port="1"/>
		<edge from-layer="1121" from-port="0" to-layer="1122" to-port="2"/>
		<edge from-layer="1122" from-port="3" to-layer="1124" to-port="0"/>
		<edge from-layer="1123" from-port="0" to-layer="1124" to-port="1"/>
		<edge from-layer="1124" from-port="2" to-layer="1126" to-port="0"/>
		<edge from-layer="1125" from-port="0" to-layer="1126" to-port="1"/>
		<edge from-layer="1126" from-port="2" to-layer="1128" to-port="2"/>
		<edge from-layer="1126" from-port="2" to-layer="1131" to-port="0"/>
		<edge from-layer="1127" from-port="0" to-layer="1128" to-port="3"/>
		<edge from-layer="1127" from-port="0" to-layer="1132" to-port="3"/>
		<edge from-layer="1128" from-port="4" to-layer="1134" to-port="1"/>
		<edge from-layer="1129" from-port="0" to-layer="1132" to-port="0"/>
		<edge from-layer="1130" from-port="0" to-layer="1131" to-port="1"/>
		<edge from-layer="1131" from-port="2" to-layer="1132" to-port="2"/>
		<edge from-layer="1132" from-port="4" to-layer="1134" to-port="2"/>
		<edge from-layer="1133" from-port="0" to-layer="1134" to-port="3"/>
		<edge from-layer="1134" from-port="4" to-layer="1135" to-port="0"/>
		<edge from-layer="1136" from-port="0" to-layer="1147" to-port="0"/>
		<edge from-layer="1137" from-port="0" to-layer="1151" to-port="1"/>
		<edge from-layer="1137" from-port="0" to-layer="1147" to-port="1"/>
		<edge from-layer="1138" from-port="1" to-layer="1141" to-port="0"/>
		<edge from-layer="1139" from-port="0" to-layer="1141" to-port="1"/>
		<edge from-layer="1140" from-port="0" to-layer="1141" to-port="2"/>
		<edge from-layer="1141" from-port="3" to-layer="1143" to-port="0"/>
		<edge from-layer="1142" from-port="0" to-layer="1143" to-port="1"/>
		<edge from-layer="1143" from-port="2" to-layer="1145" to-port="0"/>
		<edge from-layer="1144" from-port="0" to-layer="1145" to-port="1"/>
		<edge from-layer="1145" from-port="2" to-layer="1150" to-port="0"/>
		<edge from-layer="1145" from-port="2" to-layer="1147" to-port="2"/>
		<edge from-layer="1146" from-port="0" to-layer="1151" to-port="3"/>
		<edge from-layer="1146" from-port="0" to-layer="1147" to-port="3"/>
		<edge from-layer="1147" from-port="4" to-layer="1153" to-port="1"/>
		<edge from-layer="1148" from-port="0" to-layer="1151" to-port="0"/>
		<edge from-layer="1149" from-port="0" to-layer="1150" to-port="1"/>
		<edge from-layer="1150" from-port="2" to-layer="1151" to-port="2"/>
		<edge from-layer="1151" from-port="4" to-layer="1153" to-port="2"/>
		<edge from-layer="1152" from-port="0" to-layer="1153" to-port="3"/>
		<edge from-layer="1153" from-port="4" to-layer="1154" to-port="0"/>
		<edge from-layer="1155" from-port="0" to-layer="1166" to-port="0"/>
		<edge from-layer="1156" from-port="0" to-layer="1170" to-port="1"/>
		<edge from-layer="1156" from-port="0" to-layer="1166" to-port="1"/>
		<edge from-layer="1157" from-port="1" to-layer="1160" to-port="0"/>
		<edge from-layer="1158" from-port="0" to-layer="1160" to-port="1"/>
		<edge from-layer="1159" from-port="0" to-layer="1160" to-port="2"/>
		<edge from-layer="1160" from-port="3" to-layer="1162" to-port="0"/>
		<edge from-layer="1161" from-port="0" to-layer="1162" to-port="1"/>
		<edge from-layer="1162" from-port="2" to-layer="1164" to-port="0"/>
		<edge from-layer="1163" from-port="0" to-layer="1164" to-port="1"/>
		<edge from-layer="1164" from-port="2" to-layer="1169" to-port="0"/>
		<edge from-layer="1164" from-port="2" to-layer="1166" to-port="2"/>
		<edge from-layer="1165" from-port="0" to-layer="1170" to-port="3"/>
		<edge from-layer="1165" from-port="0" to-layer="1166" to-port="3"/>
		<edge from-layer="1166" from-port="4" to-layer="1172" to-port="1"/>
		<edge from-layer="1167" from-port="0" to-layer="1170" to-port="0"/>
		<edge from-layer="1168" from-port="0" to-layer="1169" to-port="1"/>
		<edge from-layer="1169" from-port="2" to-layer="1170" to-port="2"/>
		<edge from-layer="1170" from-port="4" to-layer="1172" to-port="2"/>
		<edge from-layer="1171" from-port="0" to-layer="1172" to-port="3"/>
		<edge from-layer="1172" from-port="4" to-layer="1173" to-port="0"/>
		<edge from-layer="1174" from-port="0" to-layer="1185" to-port="0"/>
		<edge from-layer="1175" from-port="0" to-layer="1185" to-port="1"/>
		<edge from-layer="1175" from-port="0" to-layer="1189" to-port="1"/>
		<edge from-layer="1176" from-port="1" to-layer="1179" to-port="0"/>
		<edge from-layer="1177" from-port="0" to-layer="1179" to-port="1"/>
		<edge from-layer="1178" from-port="0" to-layer="1179" to-port="2"/>
		<edge from-layer="1179" from-port="3" to-layer="1181" to-port="0"/>
		<edge from-layer="1180" from-port="0" to-layer="1181" to-port="1"/>
		<edge from-layer="1181" from-port="2" to-layer="1183" to-port="0"/>
		<edge from-layer="1182" from-port="0" to-layer="1183" to-port="1"/>
		<edge from-layer="1183" from-port="2" to-layer="1188" to-port="0"/>
		<edge from-layer="1183" from-port="2" to-layer="1185" to-port="2"/>
		<edge from-layer="1184" from-port="0" to-layer="1189" to-port="3"/>
		<edge from-layer="1184" from-port="0" to-layer="1185" to-port="3"/>
		<edge from-layer="1185" from-port="4" to-layer="1191" to-port="1"/>
		<edge from-layer="1186" from-port="0" to-layer="1189" to-port="0"/>
		<edge from-layer="1187" from-port="0" to-layer="1188" to-port="1"/>
		<edge from-layer="1188" from-port="2" to-layer="1189" to-port="2"/>
		<edge from-layer="1189" from-port="4" to-layer="1191" to-port="2"/>
		<edge from-layer="1190" from-port="0" to-layer="1191" to-port="3"/>
		<edge from-layer="1191" from-port="4" to-layer="1192" to-port="0"/>
		<edge from-layer="1193" from-port="0" to-layer="1204" to-port="0"/>
		<edge from-layer="1194" from-port="0" to-layer="1208" to-port="1"/>
		<edge from-layer="1194" from-port="0" to-layer="1204" to-port="1"/>
		<edge from-layer="1195" from-port="1" to-layer="1198" to-port="0"/>
		<edge from-layer="1196" from-port="0" to-layer="1198" to-port="1"/>
		<edge from-layer="1197" from-port="0" to-layer="1198" to-port="2"/>
		<edge from-layer="1198" from-port="3" to-layer="1200" to-port="0"/>
		<edge from-layer="1199" from-port="0" to-layer="1200" to-port="1"/>
		<edge from-layer="1200" from-port="2" to-layer="1202" to-port="0"/>
		<edge from-layer="1201" from-port="0" to-layer="1202" to-port="1"/>
		<edge from-layer="1202" from-port="2" to-layer="1204" to-port="2"/>
		<edge from-layer="1202" from-port="2" to-layer="1207" to-port="0"/>
		<edge from-layer="1203" from-port="0" to-layer="1208" to-port="3"/>
		<edge from-layer="1203" from-port="0" to-layer="1204" to-port="3"/>
		<edge from-layer="1204" from-port="4" to-layer="1210" to-port="1"/>
		<edge from-layer="1205" from-port="0" to-layer="1208" to-port="0"/>
		<edge from-layer="1206" from-port="0" to-layer="1207" to-port="1"/>
		<edge from-layer="1207" from-port="2" to-layer="1208" to-port="2"/>
		<edge from-layer="1208" from-port="4" to-layer="1210" to-port="2"/>
		<edge from-layer="1209" from-port="0" to-layer="1210" to-port="3"/>
		<edge from-layer="1210" from-port="4" to-layer="1211" to-port="0"/>
		<edge from-layer="1212" from-port="0" to-layer="1223" to-port="0"/>
		<edge from-layer="1213" from-port="0" to-layer="1223" to-port="1"/>
		<edge from-layer="1213" from-port="0" to-layer="1227" to-port="1"/>
		<edge from-layer="1214" from-port="1" to-layer="1217" to-port="0"/>
		<edge from-layer="1215" from-port="0" to-layer="1217" to-port="1"/>
		<edge from-layer="1216" from-port="0" to-layer="1217" to-port="2"/>
		<edge from-layer="1217" from-port="3" to-layer="1219" to-port="0"/>
		<edge from-layer="1218" from-port="0" to-layer="1219" to-port="1"/>
		<edge from-layer="1219" from-port="2" to-layer="1221" to-port="0"/>
		<edge from-layer="1220" from-port="0" to-layer="1221" to-port="1"/>
		<edge from-layer="1221" from-port="2" to-layer="1226" to-port="0"/>
		<edge from-layer="1221" from-port="2" to-layer="1223" to-port="2"/>
		<edge from-layer="1222" from-port="0" to-layer="1227" to-port="3"/>
		<edge from-layer="1222" from-port="0" to-layer="1223" to-port="3"/>
		<edge from-layer="1223" from-port="4" to-layer="1229" to-port="1"/>
		<edge from-layer="1224" from-port="0" to-layer="1227" to-port="0"/>
		<edge from-layer="1225" from-port="0" to-layer="1226" to-port="1"/>
		<edge from-layer="1226" from-port="2" to-layer="1227" to-port="2"/>
		<edge from-layer="1227" from-port="4" to-layer="1229" to-port="2"/>
		<edge from-layer="1228" from-port="0" to-layer="1229" to-port="3"/>
		<edge from-layer="1229" from-port="4" to-layer="1230" to-port="0"/>
		<edge from-layer="1231" from-port="0" to-layer="1242" to-port="0"/>
		<edge from-layer="1232" from-port="0" to-layer="1246" to-port="1"/>
		<edge from-layer="1232" from-port="0" to-layer="1242" to-port="1"/>
		<edge from-layer="1233" from-port="1" to-layer="1236" to-port="0"/>
		<edge from-layer="1234" from-port="0" to-layer="1236" to-port="1"/>
		<edge from-layer="1235" from-port="0" to-layer="1236" to-port="2"/>
		<edge from-layer="1236" from-port="3" to-layer="1238" to-port="0"/>
		<edge from-layer="1237" from-port="0" to-layer="1238" to-port="1"/>
		<edge from-layer="1238" from-port="2" to-layer="1240" to-port="0"/>
		<edge from-layer="1239" from-port="0" to-layer="1240" to-port="1"/>
		<edge from-layer="1240" from-port="2" to-layer="1242" to-port="2"/>
		<edge from-layer="1240" from-port="2" to-layer="1245" to-port="0"/>
		<edge from-layer="1241" from-port="0" to-layer="1246" to-port="3"/>
		<edge from-layer="1241" from-port="0" to-layer="1242" to-port="3"/>
		<edge from-layer="1242" from-port="4" to-layer="1248" to-port="1"/>
		<edge from-layer="1243" from-port="0" to-layer="1246" to-port="0"/>
		<edge from-layer="1244" from-port="0" to-layer="1245" to-port="1"/>
		<edge from-layer="1245" from-port="2" to-layer="1246" to-port="2"/>
		<edge from-layer="1246" from-port="4" to-layer="1248" to-port="2"/>
		<edge from-layer="1247" from-port="0" to-layer="1248" to-port="3"/>
		<edge from-layer="1248" from-port="4" to-layer="1249" to-port="0"/>
		<edge from-layer="1250" from-port="0" to-layer="1261" to-port="0"/>
		<edge from-layer="1251" from-port="0" to-layer="1265" to-port="1"/>
		<edge from-layer="1251" from-port="0" to-layer="1261" to-port="1"/>
		<edge from-layer="1252" from-port="1" to-layer="1255" to-port="0"/>
		<edge from-layer="1253" from-port="0" to-layer="1255" to-port="1"/>
		<edge from-layer="1254" from-port="0" to-layer="1255" to-port="2"/>
		<edge from-layer="1255" from-port="3" to-layer="1257" to-port="0"/>
		<edge from-layer="1256" from-port="0" to-layer="1257" to-port="1"/>
		<edge from-layer="1257" from-port="2" to-layer="1259" to-port="0"/>
		<edge from-layer="1258" from-port="0" to-layer="1259" to-port="1"/>
		<edge from-layer="1259" from-port="2" to-layer="1261" to-port="2"/>
		<edge from-layer="1259" from-port="2" to-layer="1264" to-port="0"/>
		<edge from-layer="1260" from-port="0" to-layer="1265" to-port="3"/>
		<edge from-layer="1260" from-port="0" to-layer="1261" to-port="3"/>
		<edge from-layer="1261" from-port="4" to-layer="1267" to-port="1"/>
		<edge from-layer="1262" from-port="0" to-layer="1265" to-port="0"/>
		<edge from-layer="1263" from-port="0" to-layer="1264" to-port="1"/>
		<edge from-layer="1264" from-port="2" to-layer="1265" to-port="2"/>
		<edge from-layer="1265" from-port="4" to-layer="1267" to-port="2"/>
		<edge from-layer="1266" from-port="0" to-layer="1267" to-port="3"/>
		<edge from-layer="1267" from-port="4" to-layer="1268" to-port="0"/>
		<edge from-layer="1269" from-port="0" to-layer="1280" to-port="0"/>
		<edge from-layer="1270" from-port="0" to-layer="1280" to-port="1"/>
		<edge from-layer="1270" from-port="0" to-layer="1284" to-port="1"/>
		<edge from-layer="1271" from-port="1" to-layer="1274" to-port="0"/>
		<edge from-layer="1272" from-port="0" to-layer="1274" to-port="1"/>
		<edge from-layer="1273" from-port="0" to-layer="1274" to-port="2"/>
		<edge from-layer="1274" from-port="3" to-layer="1276" to-port="0"/>
		<edge from-layer="1275" from-port="0" to-layer="1276" to-port="1"/>
		<edge from-layer="1276" from-port="2" to-layer="1278" to-port="0"/>
		<edge from-layer="1277" from-port="0" to-layer="1278" to-port="1"/>
		<edge from-layer="1278" from-port="2" to-layer="1280" to-port="2"/>
		<edge from-layer="1278" from-port="2" to-layer="1283" to-port="0"/>
		<edge from-layer="1279" from-port="0" to-layer="1280" to-port="3"/>
		<edge from-layer="1279" from-port="0" to-layer="1284" to-port="3"/>
		<edge from-layer="1280" from-port="4" to-layer="1286" to-port="1"/>
		<edge from-layer="1281" from-port="0" to-layer="1284" to-port="0"/>
		<edge from-layer="1282" from-port="0" to-layer="1283" to-port="1"/>
		<edge from-layer="1283" from-port="2" to-layer="1284" to-port="2"/>
		<edge from-layer="1284" from-port="4" to-layer="1286" to-port="2"/>
		<edge from-layer="1285" from-port="0" to-layer="1286" to-port="3"/>
		<edge from-layer="1286" from-port="4" to-layer="1287" to-port="0"/>
		<edge from-layer="1288" from-port="0" to-layer="1299" to-port="0"/>
		<edge from-layer="1289" from-port="0" to-layer="1303" to-port="1"/>
		<edge from-layer="1289" from-port="0" to-layer="1299" to-port="1"/>
		<edge from-layer="1290" from-port="1" to-layer="1293" to-port="0"/>
		<edge from-layer="1291" from-port="0" to-layer="1293" to-port="1"/>
		<edge from-layer="1292" from-port="0" to-layer="1293" to-port="2"/>
		<edge from-layer="1293" from-port="3" to-layer="1295" to-port="0"/>
		<edge from-layer="1294" from-port="0" to-layer="1295" to-port="1"/>
		<edge from-layer="1295" from-port="2" to-layer="1297" to-port="0"/>
		<edge from-layer="1296" from-port="0" to-layer="1297" to-port="1"/>
		<edge from-layer="1297" from-port="2" to-layer="1299" to-port="2"/>
		<edge from-layer="1297" from-port="2" to-layer="1302" to-port="0"/>
		<edge from-layer="1298" from-port="0" to-layer="1299" to-port="3"/>
		<edge from-layer="1298" from-port="0" to-layer="1303" to-port="3"/>
		<edge from-layer="1299" from-port="4" to-layer="1305" to-port="1"/>
		<edge from-layer="1300" from-port="0" to-layer="1303" to-port="0"/>
		<edge from-layer="1301" from-port="0" to-layer="1302" to-port="1"/>
		<edge from-layer="1302" from-port="2" to-layer="1303" to-port="2"/>
		<edge from-layer="1303" from-port="4" to-layer="1305" to-port="2"/>
		<edge from-layer="1304" from-port="0" to-layer="1305" to-port="3"/>
		<edge from-layer="1305" from-port="4" to-layer="1306" to-port="0"/>
		<edge from-layer="1307" from-port="0" to-layer="1318" to-port="0"/>
		<edge from-layer="1308" from-port="0" to-layer="1318" to-port="1"/>
		<edge from-layer="1308" from-port="0" to-layer="1322" to-port="1"/>
		<edge from-layer="1309" from-port="1" to-layer="1312" to-port="0"/>
		<edge from-layer="1310" from-port="0" to-layer="1312" to-port="1"/>
		<edge from-layer="1311" from-port="0" to-layer="1312" to-port="2"/>
		<edge from-layer="1312" from-port="3" to-layer="1314" to-port="0"/>
		<edge from-layer="1313" from-port="0" to-layer="1314" to-port="1"/>
		<edge from-layer="1314" from-port="2" to-layer="1316" to-port="0"/>
		<edge from-layer="1315" from-port="0" to-layer="1316" to-port="1"/>
		<edge from-layer="1316" from-port="2" to-layer="1318" to-port="2"/>
		<edge from-layer="1316" from-port="2" to-layer="1321" to-port="0"/>
		<edge from-layer="1317" from-port="0" to-layer="1318" to-port="3"/>
		<edge from-layer="1317" from-port="0" to-layer="1322" to-port="3"/>
		<edge from-layer="1318" from-port="4" to-layer="1324" to-port="1"/>
		<edge from-layer="1319" from-port="0" to-layer="1322" to-port="0"/>
		<edge from-layer="1320" from-port="0" to-layer="1321" to-port="1"/>
		<edge from-layer="1321" from-port="2" to-layer="1322" to-port="2"/>
		<edge from-layer="1322" from-port="4" to-layer="1324" to-port="2"/>
		<edge from-layer="1323" from-port="0" to-layer="1324" to-port="3"/>
		<edge from-layer="1324" from-port="4" to-layer="1325" to-port="0"/>
		<edge from-layer="1326" from-port="0" to-layer="1327" to-port="0"/>
		<edge from-layer="1329" from-port="0" to-layer="1331" to-port="1"/>
		<edge from-layer="1330" from-port="0" to-layer="1331" to-port="2"/>
		<edge from-layer="1331" from-port="3" to-layer="1332" to-port="1"/>
		<edge from-layer="1332" from-port="2" to-layer="1333" to-port="0"/>
	</edges>
	<meta_data>
		<MO_version value="2022.1.0-6910-173f328c53d"/>
		<Runtime_version value="2022.1.0-6910-173f328c53d"/>
		<legacy_path value="False"/>
		<cli_parameters>
			<caffe_parser_path value="DIR"/>
			<compress_fp16 value="False"/>
			<data_type value="FP32"/>
			<disable_nhwc_to_nchw value="False"/>
			<disable_omitting_optional value="False"/>
			<disable_resnet_optimization value="False"/>
			<disable_weights_compression value="False"/>
			<enable_concat_optimization value="False"/>
			<enable_flattening_nested_params value="False"/>
			<enable_ssd_gluoncv value="False"/>
			<extensions value="DIR"/>
			<framework value="onnx"/>
			<freeze_placeholder_with_value value="{}"/>
			<generate_deprecated_IR_V7 value="False"/>
			<input value="input,inp_state_000,inp_state_001,inp_state_002,inp_state_003,inp_state_004,inp_state_005,inp_state_006,inp_state_007,inp_state_008,inp_state_009,inp_state_010,inp_state_011,inp_state_012,inp_state_013,inp_state_014,inp_state_015,inp_state_016,inp_state_017,inp_state_018,inp_state_019,inp_state_020,inp_state_021,inp_state_022,inp_state_023,inp_state_024,inp_state_025,inp_state_026,inp_state_027,inp_state_028,inp_state_029,inp_state_030,inp_state_031,inp_state_032,inp_state_033,inp_state_034,inp_state_035,inp_state_036,inp_state_037,inp_state_038"/>
			<input_model value="DIR/model.onnx"/>
			<input_model_is_text value="False"/>
			<input_shape value="[1,128],[1,128],[1,2,129,2],[1,18,129,2],[1,34,129,2],[1,50,129,2],[1,32,129,1],[1,32,64,4],[1,48,64,4],[1,64,64,4],[1,80,64,4],[1,64,64,1],[1,64,32,8],[1,96,32,8],[1,128,32,8],[1,128,32,1],[1,128,16,16],[1,192,16,16],[1,256,16,1],[1,256,8,32],[1,384,8,32],[1,512,16,16],[1,256,16,16],[1,384,16,16],[1,256,32,8],[1,128,32,8],[1,192,32,8],[1,256,32,8],[1,128,64,4],[1,64,64,4],[1,96,64,4],[1,128,64,4],[1,160,64,4],[1,64,129,2],[1,32,129,2],[1,48,129,2],[1,64,129,2],[1,80,129,2],[1,2,129,2],[1,1,128]"/>
			<k value="DIR/CustomLayersMapping.xml"/>
			<keep_shape_ops value="True"/>
			<layout value="input(nc),inp_state_000(nc),inp_state_001(nchw),inp_state_002(nchw),inp_state_003(nchw),inp_state_004(nchw),inp_state_005(nchw),inp_state_006(nchw),inp_state_007(nchw),inp_state_008(nchw),inp_state_009(nchw),inp_state_010(nchw),inp_state_011(nchw),inp_state_012(nchw),inp_state_013(nchw),inp_state_014(nchw),inp_state_015(nchw),inp_state_016(nchw),inp_state_017(nchw),inp_state_018(nchw),inp_state_019(nchw),inp_state_020(nchw),inp_state_021(nchw),inp_state_022(nchw),inp_state_023(nchw),inp_state_024(nchw),inp_state_025(nchw),inp_state_026(nchw),inp_state_027(nchw),inp_state_028(nchw),inp_state_029(nchw),inp_state_030(nchw),inp_state_031(nchw),inp_state_032(nchw),inp_state_033(nchw),inp_state_034(nchw),inp_state_035(nchw),inp_state_036(nchw),inp_state_037(nchw),inp_state_038(nhw)"/>
			<layout_values value="{'input': {'source_layout': 'nc', 'target_layout': None, 'is_input': True}, 'inp_state_000': {'source_layout': 'nc', 'target_layout': None, 'is_input': True}, 'inp_state_001': {'source_layout': 'nchw', 'target_layout': None, 'is_input': True}, 'inp_state_002': {'source_layout': 'nchw', 'target_layout': None, 'is_input': True}, 'inp_state_003': {'source_layout': 'nchw', 'target_layout': None, 'is_input': True}, 'inp_state_004': {'source_layout': 'nchw', 'target_layout': None, 'is_input': True}, 'inp_state_005': {'source_layout': 'nchw', 'target_layout': None, 'is_input': True}, 'inp_state_006': {'source_layout': 'nchw', 'target_layout': None, 'is_input': True}, 'inp_state_007': {'source_layout': 'nchw', 'target_layout': None, 'is_input': True}, 'inp_state_008': {'source_layout': 'nchw', 'target_layout': None, 'is_input': True}, 'inp_state_009': {'source_layout': 'nchw', 'target_layout': None, 'is_input': True}, 'inp_state_010': {'source_layout': 'nchw', 'target_layout': None, 'is_input': True}, 'inp_state_011': {'source_layout': 'nchw', 'target_layout': None, 'is_input': True}, 'inp_state_012': {'source_layout': 'nchw', 'target_layout': None, 'is_input': True}, 'inp_state_013': {'source_layout': 'nchw', 'target_layout': None, 'is_input': True}, 'inp_state_014': {'source_layout': 'nchw', 'target_layout': None, 'is_input': True}, 'inp_state_015': {'source_layout': 'nchw', 'target_layout': None, 'is_input': True}, 'inp_state_016': {'source_layout': 'nchw', 'target_layout': None, 'is_input': True}, 'inp_state_017': {'source_layout': 'nchw', 'target_layout': None, 'is_input': True}, 'inp_state_018': {'source_layout': 'nchw', 'target_layout': None, 'is_input': True}, 'inp_state_019': {'source_layout': 'nchw', 'target_layout': None, 'is_input': True}, 'inp_state_020': {'source_layout': 'nchw', 'target_layout': None, 'is_input': True}, 'inp_state_021': {'source_layout': 'nchw', 'target_layout': None, 'is_input': True}, 'inp_state_022': {'source_layout': 'nchw', 'target_layout': None, 'is_input': True}, 'inp_state_023': {'source_layout': 'nchw', 'target_layout': None, 'is_input': True}, 'inp_state_024': {'source_layout': 'nchw', 'target_layout': None, 'is_input': True}, 'inp_state_025': {'source_layout': 'nchw', 'target_layout': None, 'is_input': True}, 'inp_state_026': {'source_layout': 'nchw', 'target_layout': None, 'is_input': True}, 'inp_state_027': {'source_layout': 'nchw', 'target_layout': None, 'is_input': True}, 'inp_state_028': {'source_layout': 'nchw', 'target_layout': None, 'is_input': True}, 'inp_state_029': {'source_layout': 'nchw', 'target_layout': None, 'is_input': True}, 'inp_state_030': {'source_layout': 'nchw', 'target_layout': None, 'is_input': True}, 'inp_state_031': {'source_layout': 'nchw', 'target_layout': None, 'is_input': True}, 'inp_state_032': {'source_layout': 'nchw', 'target_layout': None, 'is_input': True}, 'inp_state_033': {'source_layout': 'nchw', 'target_layout': None, 'is_input': True}, 'inp_state_034': {'source_layout': 'nchw', 'target_layout': None, 'is_input': True}, 'inp_state_035': {'source_layout': 'nchw', 'target_layout': None, 'is_input': True}, 'inp_state_036': {'source_layout': 'nchw', 'target_layout': None, 'is_input': True}, 'inp_state_037': {'source_layout': 'nchw', 'target_layout': None, 'is_input': True}, 'inp_state_038': {'source_layout': 'nhw', 'target_layout': None, 'is_input': True}}"/>
			<legacy_ir_generation value="False"/>
			<legacy_mxnet_model value="False"/>
			<log_level value="ERROR"/>
			<mean_scale_values value="{}"/>
			<mean_values value="()"/>
			<model_name value="noise-suppression-denseunet-ll-0001"/>
			<output value="['output', 'Y', 'delay', 'out_state_000', 'out_state_001', 'out_state_002', 'out_state_003', 'out_state_004', 'out_state_005', 'out_state_006', 'out_state_007', 'out_state_008', 'out_state_009', 'out_state_010', 'out_state_011', 'out_state_012', 'out_state_013', 'out_state_014', 'out_state_015', 'out_state_016', 'out_state_017', 'out_state_018', 'out_state_019', 'out_state_020', 'out_state_021', 'out_state_022', 'out_state_023', 'out_state_024', 'out_state_025', 'out_state_026', 'out_state_027', 'out_state_028', 'out_state_029', 'out_state_030', 'out_state_031', 'out_state_032', 'out_state_033', 'out_state_034', 'out_state_035', 'out_state_036', 'out_state_037', 'out_state_038']"/>
			<output_dir value="DIR"/>
			<placeholder_data_types value="{}"/>
			<placeholder_shapes value="{'input': (1, 128), 'inp_state_000': (1, 128), 'inp_state_001': (1, 2, 129, 2), 'inp_state_002': (1, 18, 129, 2), 'inp_state_003': (1, 34, 129, 2), 'inp_state_004': (1, 50, 129, 2), 'inp_state_005': (1, 32, 129, 1), 'inp_state_006': (1, 32, 64, 4), 'inp_state_007': (1, 48, 64, 4), 'inp_state_008': (1, 64, 64, 4), 'inp_state_009': (1, 80, 64, 4), 'inp_state_010': (1, 64, 64, 1), 'inp_state_011': (1, 64, 32, 8), 'inp_state_012': (1, 96, 32, 8), 'inp_state_013': (1, 128, 32, 8), 'inp_state_014': (1, 128, 32, 1), 'inp_state_015': (1, 128, 16, 16), 'inp_state_016': (1, 192, 16, 16), 'inp_state_017': (1, 256, 16, 1), 'inp_state_018': (1, 256, 8, 32), 'inp_state_019': (1, 384, 8, 32), 'inp_state_020': (1, 512, 16, 16), 'inp_state_021': (1, 256, 16, 16), 'inp_state_022': (1, 384, 16, 16), 'inp_state_023': (1, 256, 32, 8), 'inp_state_024': (1, 128, 32, 8), 'inp_state_025': (1, 192, 32, 8), 'inp_state_026': (1, 256, 32, 8), 'inp_state_027': (1, 128, 64, 4), 'inp_state_028': (1, 64, 64, 4), 'inp_state_029': (1, 96, 64, 4), 'inp_state_030': (1, 128, 64, 4), 'inp_state_031': (1, 160, 64, 4), 'inp_state_032': (1, 64, 129, 2), 'inp_state_033': (1, 32, 129, 2), 'inp_state_034': (1, 48, 129, 2), 'inp_state_035': (1, 64, 129, 2), 'inp_state_036': (1, 80, 129, 2), 'inp_state_037': (1, 2, 129, 2), 'inp_state_038': (1, 1, 128)}"/>
			<progress value="False"/>
			<remove_memory value="False"/>
			<remove_output_softmax value="False"/>
			<reverse_input_channels value="False"/>
			<save_params_from_nd value="False"/>
			<scale_values value="()"/>
			<silent value="False"/>
			<source_layout value="()"/>
			<static_shape value="False"/>
			<stream_output value="False"/>
			<target_layout value="()"/>
			<transform value=""/>
			<use_legacy_frontend value="False"/>
			<use_new_frontend value="False"/>
			<unset unset_cli_parameters="batch, counts, disable_fusing, disable_gfusing, finegrain_fusing, input_checkpoint, input_meta_graph, input_proto, input_symbol, mean_file, mean_file_offsets, move_to_preprocess, nd_prefix_name, pretrained_model_name, saved_model_dir, saved_model_tags, scale, tensorboard_logdir, tensorflow_custom_layer_libraries, tensorflow_custom_operations_config_update, tensorflow_object_detection_api_pipeline_config, tensorflow_use_custom_operations_config, transformations_config"/>
		</cli_parameters>
	</meta_data>
</net>
