<?xml version="1.0" ?>
<net name="torch-jit-export" version="11">
	<layers>
		<layer id="50" name="input" type="Parameter" version="opset1">
			<data shape="1,2048" element_type="f32"/>
			<rt_info>
				<attribute name="fused_names" version="0" value="input"/>
				<attribute name="old_api_map_element_type" version="0" value="f16"/>
			</rt_info>
			<output>
				<port id="0" precision="FP32" names="input">
					<dim>1</dim>
					<dim>2048</dim>
					<rt_info>
						<attribute name="layout" version="0" layout="[N,C]"/>
					</rt_info>
				</port>
			</output>
		</layer>
		<layer id="49" name="inp_state_000" type="Parameter" version="opset1">
			<data shape="1,128" element_type="f32"/>
			<rt_info>
				<attribute name="fused_names" version="0" value="inp_state_000"/>
				<attribute name="old_api_map_element_type" version="0" value="f16"/>
			</rt_info>
			<output>
				<port id="0" precision="FP32" names="inp_state_000">
					<dim>1</dim>
					<dim>128</dim>
					<rt_info>
						<attribute name="layout" version="0" layout="[N,C]"/>
					</rt_info>
				</port>
			</output>
		</layer>
		<layer id="48" name="inp_state_001" type="Parameter" version="opset1">
			<data shape="1,2,129,2" element_type="f32"/>
			<rt_info>
				<attribute name="fused_names" version="0" value="inp_state_001"/>
				<attribute name="old_api_map_element_type" version="0" value="f16"/>
			</rt_info>
			<output>
				<port id="0" precision="FP32" names="inp_state_001">
					<dim>1</dim>
					<dim>2</dim>
					<dim>129</dim>
					<dim>2</dim>
					<rt_info>
						<attribute name="layout" version="0" layout="[N,C,H,W]"/>
					</rt_info>
				</port>
			</output>
		</layer>
		<layer id="47" name="inp_state_002" type="Parameter" version="opset1">
			<data shape="1,18,129,2" element_type="f32"/>
			<rt_info>
				<attribute name="fused_names" version="0" value="inp_state_002"/>
				<attribute name="old_api_map_element_type" version="0" value="f16"/>
			</rt_info>
			<output>
				<port id="0" precision="FP32" names="inp_state_002">
					<dim>1</dim>
					<dim>18</dim>
					<dim>129</dim>
					<dim>2</dim>
					<rt_info>
						<attribute name="layout" version="0" layout="[N,C,H,W]"/>
					</rt_info>
				</port>
			</output>
		</layer>
		<layer id="46" name="inp_state_003" type="Parameter" version="opset1">
			<data shape="1,34,129,2" element_type="f32"/>
			<rt_info>
				<attribute name="fused_names" version="0" value="inp_state_003"/>
				<attribute name="old_api_map_element_type" version="0" value="f16"/>
			</rt_info>
			<output>
				<port id="0" precision="FP32" names="inp_state_003">
					<dim>1</dim>
					<dim>34</dim>
					<dim>129</dim>
					<dim>2</dim>
					<rt_info>
						<attribute name="layout" version="0" layout="[N,C,H,W]"/>
					</rt_info>
				</port>
			</output>
		</layer>
		<layer id="45" name="inp_state_004" type="Parameter" version="opset1">
			<data shape="1,129,32,32" element_type="f32"/>
			<rt_info>
				<attribute name="fused_names" version="0" value="inp_state_004"/>
				<attribute name="old_api_map_element_type" version="0" value="f16"/>
			</rt_info>
			<output>
				<port id="0" precision="FP32" names="inp_state_004">
					<dim>1</dim>
					<dim>129</dim>
					<dim>32</dim>
					<dim>32</dim>
					<rt_info>
						<attribute name="layout" version="0" layout="[N,C,H,W]"/>
					</rt_info>
				</port>
			</output>
		</layer>
		<layer id="44" name="inp_state_005" type="Parameter" version="opset1">
			<data shape="1,129,32,32" element_type="f32"/>
			<rt_info>
				<attribute name="fused_names" version="0" value="inp_state_005"/>
				<attribute name="old_api_map_element_type" version="0" value="f16"/>
			</rt_info>
			<output>
				<port id="0" precision="FP32" names="inp_state_005">
					<dim>1</dim>
					<dim>129</dim>
					<dim>32</dim>
					<dim>32</dim>
					<rt_info>
						<attribute name="layout" version="0" layout="[N,C,H,W]"/>
					</rt_info>
				</port>
			</output>
		</layer>
		<layer id="43" name="inp_state_006" type="Parameter" version="opset1">
			<data shape="1,32,64,2" element_type="f32"/>
			<rt_info>
				<attribute name="fused_names" version="0" value="inp_state_006"/>
				<attribute name="old_api_map_element_type" version="0" value="f16"/>
			</rt_info>
			<output>
				<port id="0" precision="FP32" names="inp_state_006">
					<dim>1</dim>
					<dim>32</dim>
					<dim>64</dim>
					<dim>2</dim>
					<rt_info>
						<attribute name="layout" version="0" layout="[N,C,H,W]"/>
					</rt_info>
				</port>
			</output>
		</layer>
		<layer id="42" name="inp_state_007" type="Parameter" version="opset1">
			<data shape="1,48,64,2" element_type="f32"/>
			<rt_info>
				<attribute name="fused_names" version="0" value="inp_state_007"/>
				<attribute name="old_api_map_element_type" version="0" value="f16"/>
			</rt_info>
			<output>
				<port id="0" precision="FP32" names="inp_state_007">
					<dim>1</dim>
					<dim>48</dim>
					<dim>64</dim>
					<dim>2</dim>
					<rt_info>
						<attribute name="layout" version="0" layout="[N,C,H,W]"/>
					</rt_info>
				</port>
			</output>
		</layer>
		<layer id="41" name="inp_state_008" type="Parameter" version="opset1">
			<data shape="1,64,64,2" element_type="f32"/>
			<rt_info>
				<attribute name="fused_names" version="0" value="inp_state_008"/>
				<attribute name="old_api_map_element_type" version="0" value="f16"/>
			</rt_info>
			<output>
				<port id="0" precision="FP32" names="inp_state_008">
					<dim>1</dim>
					<dim>64</dim>
					<dim>64</dim>
					<dim>2</dim>
					<rt_info>
						<attribute name="layout" version="0" layout="[N,C,H,W]"/>
					</rt_info>
				</port>
			</output>
		</layer>
		<layer id="40" name="inp_state_009" type="Parameter" version="opset1">
			<data shape="1,64,64,22" element_type="f32"/>
			<rt_info>
				<attribute name="fused_names" version="0" value="inp_state_009"/>
				<attribute name="old_api_map_element_type" version="0" value="f16"/>
			</rt_info>
			<output>
				<port id="0" precision="FP32" names="inp_state_009">
					<dim>1</dim>
					<dim>64</dim>
					<dim>64</dim>
					<dim>22</dim>
					<rt_info>
						<attribute name="layout" version="0" layout="[N,C,H,W]"/>
					</rt_info>
				</port>
			</output>
		</layer>
		<layer id="39" name="inp_state_010" type="Parameter" version="opset1">
			<data shape="1,64,64,22" element_type="f32"/>
			<rt_info>
				<attribute name="fused_names" version="0" value="inp_state_010"/>
				<attribute name="old_api_map_element_type" version="0" value="f16"/>
			</rt_info>
			<output>
				<port id="0" precision="FP32" names="inp_state_010">
					<dim>1</dim>
					<dim>64</dim>
					<dim>64</dim>
					<dim>22</dim>
					<rt_info>
						<attribute name="layout" version="0" layout="[N,C,H,W]"/>
					</rt_info>
				</port>
			</output>
		</layer>
		<layer id="38" name="inp_state_011" type="Parameter" version="opset1">
			<data shape="1,64,32,2" element_type="f32"/>
			<rt_info>
				<attribute name="fused_names" version="0" value="inp_state_011"/>
				<attribute name="old_api_map_element_type" version="0" value="f16"/>
			</rt_info>
			<output>
				<port id="0" precision="FP32" names="inp_state_011">
					<dim>1</dim>
					<dim>64</dim>
					<dim>32</dim>
					<dim>2</dim>
					<rt_info>
						<attribute name="layout" version="0" layout="[N,C,H,W]"/>
					</rt_info>
				</port>
			</output>
		</layer>
		<layer id="37" name="inp_state_012" type="Parameter" version="opset1">
			<data shape="1,96,32,2" element_type="f32"/>
			<rt_info>
				<attribute name="fused_names" version="0" value="inp_state_012"/>
				<attribute name="old_api_map_element_type" version="0" value="f16"/>
			</rt_info>
			<output>
				<port id="0" precision="FP32" names="inp_state_012">
					<dim>1</dim>
					<dim>96</dim>
					<dim>32</dim>
					<dim>2</dim>
					<rt_info>
						<attribute name="layout" version="0" layout="[N,C,H,W]"/>
					</rt_info>
				</port>
			</output>
		</layer>
		<layer id="36" name="inp_state_013" type="Parameter" version="opset1">
			<data shape="1,128,32,2" element_type="f32"/>
			<rt_info>
				<attribute name="fused_names" version="0" value="inp_state_013"/>
				<attribute name="old_api_map_element_type" version="0" value="f16"/>
			</rt_info>
			<output>
				<port id="0" precision="FP32" names="inp_state_013">
					<dim>1</dim>
					<dim>128</dim>
					<dim>32</dim>
					<dim>2</dim>
					<rt_info>
						<attribute name="layout" version="0" layout="[N,C,H,W]"/>
					</rt_info>
				</port>
			</output>
		</layer>
		<layer id="35" name="inp_state_014" type="Parameter" version="opset1">
			<data shape="1,32,128,16" element_type="f32"/>
			<rt_info>
				<attribute name="fused_names" version="0" value="inp_state_014"/>
				<attribute name="old_api_map_element_type" version="0" value="f16"/>
			</rt_info>
			<output>
				<port id="0" precision="FP32" names="inp_state_014">
					<dim>1</dim>
					<dim>32</dim>
					<dim>128</dim>
					<dim>16</dim>
					<rt_info>
						<attribute name="layout" version="0" layout="[N,C,H,W]"/>
					</rt_info>
				</port>
			</output>
		</layer>
		<layer id="34" name="inp_state_015" type="Parameter" version="opset1">
			<data shape="1,32,128,16" element_type="f32"/>
			<rt_info>
				<attribute name="fused_names" version="0" value="inp_state_015"/>
				<attribute name="old_api_map_element_type" version="0" value="f16"/>
			</rt_info>
			<output>
				<port id="0" precision="FP32" names="inp_state_015">
					<dim>1</dim>
					<dim>32</dim>
					<dim>128</dim>
					<dim>16</dim>
					<rt_info>
						<attribute name="layout" version="0" layout="[N,C,H,W]"/>
					</rt_info>
				</port>
			</output>
		</layer>
		<layer id="33" name="inp_state_016" type="Parameter" version="opset1">
			<data shape="1,128,16,2" element_type="f32"/>
			<rt_info>
				<attribute name="fused_names" version="0" value="inp_state_016"/>
				<attribute name="old_api_map_element_type" version="0" value="f16"/>
			</rt_info>
			<output>
				<port id="0" precision="FP32" names="inp_state_016">
					<dim>1</dim>
					<dim>128</dim>
					<dim>16</dim>
					<dim>2</dim>
					<rt_info>
						<attribute name="layout" version="0" layout="[N,C,H,W]"/>
					</rt_info>
				</port>
			</output>
		</layer>
		<layer id="32" name="inp_state_017" type="Parameter" version="opset1">
			<data shape="1,192,16,2" element_type="f32"/>
			<rt_info>
				<attribute name="fused_names" version="0" value="inp_state_017"/>
				<attribute name="old_api_map_element_type" version="0" value="f16"/>
			</rt_info>
			<output>
				<port id="0" precision="FP32" names="inp_state_017">
					<dim>1</dim>
					<dim>192</dim>
					<dim>16</dim>
					<dim>2</dim>
					<rt_info>
						<attribute name="layout" version="0" layout="[N,C,H,W]"/>
					</rt_info>
				</port>
			</output>
		</layer>
		<layer id="31" name="inp_state_018" type="Parameter" version="opset1">
			<data shape="1,256,16,2" element_type="f32"/>
			<rt_info>
				<attribute name="fused_names" version="0" value="inp_state_018"/>
				<attribute name="old_api_map_element_type" version="0" value="f16"/>
			</rt_info>
			<output>
				<port id="0" precision="FP32" names="inp_state_018">
					<dim>1</dim>
					<dim>256</dim>
					<dim>16</dim>
					<dim>2</dim>
					<rt_info>
						<attribute name="layout" version="0" layout="[N,C,H,W]"/>
					</rt_info>
				</port>
			</output>
		</layer>
		<layer id="30" name="inp_state_019" type="Parameter" version="opset1">
			<data shape="1,16,256,11" element_type="f32"/>
			<rt_info>
				<attribute name="fused_names" version="0" value="inp_state_019"/>
				<attribute name="old_api_map_element_type" version="0" value="f16"/>
			</rt_info>
			<output>
				<port id="0" precision="FP32" names="inp_state_019">
					<dim>1</dim>
					<dim>16</dim>
					<dim>256</dim>
					<dim>11</dim>
					<rt_info>
						<attribute name="layout" version="0" layout="[N,C,H,W]"/>
					</rt_info>
				</port>
			</output>
		</layer>
		<layer id="29" name="inp_state_020" type="Parameter" version="opset1">
			<data shape="1,16,256,11" element_type="f32"/>
			<rt_info>
				<attribute name="fused_names" version="0" value="inp_state_020"/>
				<attribute name="old_api_map_element_type" version="0" value="f16"/>
			</rt_info>
			<output>
				<port id="0" precision="FP32" names="inp_state_020">
					<dim>1</dim>
					<dim>16</dim>
					<dim>256</dim>
					<dim>11</dim>
					<rt_info>
						<attribute name="layout" version="0" layout="[N,C,H,W]"/>
					</rt_info>
				</port>
			</output>
		</layer>
		<layer id="28" name="inp_state_021" type="Parameter" version="opset1">
			<data shape="1,256,8,2" element_type="f32"/>
			<rt_info>
				<attribute name="fused_names" version="0" value="inp_state_021"/>
				<attribute name="old_api_map_element_type" version="0" value="f16"/>
			</rt_info>
			<output>
				<port id="0" precision="FP32" names="inp_state_021">
					<dim>1</dim>
					<dim>256</dim>
					<dim>8</dim>
					<dim>2</dim>
					<rt_info>
						<attribute name="layout" version="0" layout="[N,C,H,W]"/>
					</rt_info>
				</port>
			</output>
		</layer>
		<layer id="27" name="inp_state_022" type="Parameter" version="opset1">
			<data shape="1,384,8,2" element_type="f32"/>
			<rt_info>
				<attribute name="fused_names" version="0" value="inp_state_022"/>
				<attribute name="old_api_map_element_type" version="0" value="f16"/>
			</rt_info>
			<output>
				<port id="0" precision="FP32" names="inp_state_022">
					<dim>1</dim>
					<dim>384</dim>
					<dim>8</dim>
					<dim>2</dim>
					<rt_info>
						<attribute name="layout" version="0" layout="[N,C,H,W]"/>
					</rt_info>
				</port>
			</output>
		</layer>
		<layer id="26" name="inp_state_023" type="Parameter" version="opset1">
			<data shape="1,512,8,2" element_type="f32"/>
			<rt_info>
				<attribute name="fused_names" version="0" value="inp_state_023"/>
				<attribute name="old_api_map_element_type" version="0" value="f16"/>
			</rt_info>
			<output>
				<port id="0" precision="FP32" names="inp_state_023">
					<dim>1</dim>
					<dim>512</dim>
					<dim>8</dim>
					<dim>2</dim>
					<rt_info>
						<attribute name="layout" version="0" layout="[N,C,H,W]"/>
					</rt_info>
				</port>
			</output>
		</layer>
		<layer id="25" name="inp_state_024" type="Parameter" version="opset1">
			<data shape="1,8,256,8" element_type="f32"/>
			<rt_info>
				<attribute name="fused_names" version="0" value="inp_state_024"/>
				<attribute name="old_api_map_element_type" version="0" value="f16"/>
			</rt_info>
			<output>
				<port id="0" precision="FP32" names="inp_state_024">
					<dim>1</dim>
					<dim>8</dim>
					<dim>256</dim>
					<dim>8</dim>
					<rt_info>
						<attribute name="layout" version="0" layout="[N,C,H,W]"/>
					</rt_info>
				</port>
			</output>
		</layer>
		<layer id="24" name="inp_state_025" type="Parameter" version="opset1">
			<data shape="1,8,256,8" element_type="f32"/>
			<rt_info>
				<attribute name="fused_names" version="0" value="inp_state_025"/>
				<attribute name="old_api_map_element_type" version="0" value="f16"/>
			</rt_info>
			<output>
				<port id="0" precision="FP32" names="inp_state_025">
					<dim>1</dim>
					<dim>8</dim>
					<dim>256</dim>
					<dim>8</dim>
					<rt_info>
						<attribute name="layout" version="0" layout="[N,C,H,W]"/>
					</rt_info>
				</port>
			</output>
		</layer>
		<layer id="23" name="inp_state_026" type="Parameter" version="opset1">
			<data shape="1,512,16,2" element_type="f32"/>
			<rt_info>
				<attribute name="fused_names" version="0" value="inp_state_026"/>
				<attribute name="old_api_map_element_type" version="0" value="f16"/>
			</rt_info>
			<output>
				<port id="0" precision="FP32" names="inp_state_026">
					<dim>1</dim>
					<dim>512</dim>
					<dim>16</dim>
					<dim>2</dim>
					<rt_info>
						<attribute name="layout" version="0" layout="[N,C,H,W]"/>
					</rt_info>
				</port>
			</output>
		</layer>
		<layer id="22" name="inp_state_027" type="Parameter" version="opset1">
			<data shape="1,256,16,2" element_type="f32"/>
			<rt_info>
				<attribute name="fused_names" version="0" value="inp_state_027"/>
				<attribute name="old_api_map_element_type" version="0" value="f16"/>
			</rt_info>
			<output>
				<port id="0" precision="FP32" names="inp_state_027">
					<dim>1</dim>
					<dim>256</dim>
					<dim>16</dim>
					<dim>2</dim>
					<rt_info>
						<attribute name="layout" version="0" layout="[N,C,H,W]"/>
					</rt_info>
				</port>
			</output>
		</layer>
		<layer id="21" name="inp_state_028" type="Parameter" version="opset1">
			<data shape="1,384,16,2" element_type="f32"/>
			<rt_info>
				<attribute name="fused_names" version="0" value="inp_state_028"/>
				<attribute name="old_api_map_element_type" version="0" value="f16"/>
			</rt_info>
			<output>
				<port id="0" precision="FP32" names="inp_state_028">
					<dim>1</dim>
					<dim>384</dim>
					<dim>16</dim>
					<dim>2</dim>
					<rt_info>
						<attribute name="layout" version="0" layout="[N,C,H,W]"/>
					</rt_info>
				</port>
			</output>
		</layer>
		<layer id="20" name="inp_state_029" type="Parameter" version="opset1">
			<data shape="1,512,16,2" element_type="f32"/>
			<rt_info>
				<attribute name="fused_names" version="0" value="inp_state_029"/>
				<attribute name="old_api_map_element_type" version="0" value="f16"/>
			</rt_info>
			<output>
				<port id="0" precision="FP32" names="inp_state_029">
					<dim>1</dim>
					<dim>512</dim>
					<dim>16</dim>
					<dim>2</dim>
					<rt_info>
						<attribute name="layout" version="0" layout="[N,C,H,W]"/>
					</rt_info>
				</port>
			</output>
		</layer>
		<layer id="19" name="inp_state_030" type="Parameter" version="opset1">
			<data shape="1,16,128,11" element_type="f32"/>
			<rt_info>
				<attribute name="fused_names" version="0" value="inp_state_030"/>
				<attribute name="old_api_map_element_type" version="0" value="f16"/>
			</rt_info>
			<output>
				<port id="0" precision="FP32" names="inp_state_030">
					<dim>1</dim>
					<dim>16</dim>
					<dim>128</dim>
					<dim>11</dim>
					<rt_info>
						<attribute name="layout" version="0" layout="[N,C,H,W]"/>
					</rt_info>
				</port>
			</output>
		</layer>
		<layer id="18" name="inp_state_031" type="Parameter" version="opset1">
			<data shape="1,16,128,11" element_type="f32"/>
			<rt_info>
				<attribute name="fused_names" version="0" value="inp_state_031"/>
				<attribute name="old_api_map_element_type" version="0" value="f16"/>
			</rt_info>
			<output>
				<port id="0" precision="FP32" names="inp_state_031">
					<dim>1</dim>
					<dim>16</dim>
					<dim>128</dim>
					<dim>11</dim>
					<rt_info>
						<attribute name="layout" version="0" layout="[N,C,H,W]"/>
					</rt_info>
				</port>
			</output>
		</layer>
		<layer id="17" name="inp_state_032" type="Parameter" version="opset1">
			<data shape="1,256,32,2" element_type="f32"/>
			<rt_info>
				<attribute name="fused_names" version="0" value="inp_state_032"/>
				<attribute name="old_api_map_element_type" version="0" value="f16"/>
			</rt_info>
			<output>
				<port id="0" precision="FP32" names="inp_state_032">
					<dim>1</dim>
					<dim>256</dim>
					<dim>32</dim>
					<dim>2</dim>
					<rt_info>
						<attribute name="layout" version="0" layout="[N,C,H,W]"/>
					</rt_info>
				</port>
			</output>
		</layer>
		<layer id="16" name="inp_state_033" type="Parameter" version="opset1">
			<data shape="1,128,32,2" element_type="f32"/>
			<rt_info>
				<attribute name="fused_names" version="0" value="inp_state_033"/>
				<attribute name="old_api_map_element_type" version="0" value="f16"/>
			</rt_info>
			<output>
				<port id="0" precision="FP32" names="inp_state_033">
					<dim>1</dim>
					<dim>128</dim>
					<dim>32</dim>
					<dim>2</dim>
					<rt_info>
						<attribute name="layout" version="0" layout="[N,C,H,W]"/>
					</rt_info>
				</port>
			</output>
		</layer>
		<layer id="15" name="inp_state_034" type="Parameter" version="opset1">
			<data shape="1,192,32,2" element_type="f32"/>
			<rt_info>
				<attribute name="fused_names" version="0" value="inp_state_034"/>
				<attribute name="old_api_map_element_type" version="0" value="f16"/>
			</rt_info>
			<output>
				<port id="0" precision="FP32" names="inp_state_034">
					<dim>1</dim>
					<dim>192</dim>
					<dim>32</dim>
					<dim>2</dim>
					<rt_info>
						<attribute name="layout" version="0" layout="[N,C,H,W]"/>
					</rt_info>
				</port>
			</output>
		</layer>
		<layer id="14" name="inp_state_035" type="Parameter" version="opset1">
			<data shape="1,256,32,2" element_type="f32"/>
			<rt_info>
				<attribute name="fused_names" version="0" value="inp_state_035"/>
				<attribute name="old_api_map_element_type" version="0" value="f16"/>
			</rt_info>
			<output>
				<port id="0" precision="FP32" names="inp_state_035">
					<dim>1</dim>
					<dim>256</dim>
					<dim>32</dim>
					<dim>2</dim>
					<rt_info>
						<attribute name="layout" version="0" layout="[N,C,H,W]"/>
					</rt_info>
				</port>
			</output>
		</layer>
		<layer id="13" name="inp_state_036" type="Parameter" version="opset1">
			<data shape="1,32,64,16" element_type="f32"/>
			<rt_info>
				<attribute name="fused_names" version="0" value="inp_state_036"/>
				<attribute name="old_api_map_element_type" version="0" value="f16"/>
			</rt_info>
			<output>
				<port id="0" precision="FP32" names="inp_state_036">
					<dim>1</dim>
					<dim>32</dim>
					<dim>64</dim>
					<dim>16</dim>
					<rt_info>
						<attribute name="layout" version="0" layout="[N,C,H,W]"/>
					</rt_info>
				</port>
			</output>
		</layer>
		<layer id="12" name="inp_state_037" type="Parameter" version="opset1">
			<data shape="1,32,64,16" element_type="f32"/>
			<rt_info>
				<attribute name="fused_names" version="0" value="inp_state_037"/>
				<attribute name="old_api_map_element_type" version="0" value="f16"/>
			</rt_info>
			<output>
				<port id="0" precision="FP32" names="inp_state_037">
					<dim>1</dim>
					<dim>32</dim>
					<dim>64</dim>
					<dim>16</dim>
					<rt_info>
						<attribute name="layout" version="0" layout="[N,C,H,W]"/>
					</rt_info>
				</port>
			</output>
		</layer>
		<layer id="11" name="inp_state_038" type="Parameter" version="opset1">
			<data shape="1,128,64,2" element_type="f32"/>
			<rt_info>
				<attribute name="fused_names" version="0" value="inp_state_038"/>
				<attribute name="old_api_map_element_type" version="0" value="f16"/>
			</rt_info>
			<output>
				<port id="0" precision="FP32" names="inp_state_038">
					<dim>1</dim>
					<dim>128</dim>
					<dim>64</dim>
					<dim>2</dim>
					<rt_info>
						<attribute name="layout" version="0" layout="[N,C,H,W]"/>
					</rt_info>
				</port>
			</output>
		</layer>
		<layer id="10" name="inp_state_039" type="Parameter" version="opset1">
			<data shape="1,64,64,2" element_type="f32"/>
			<rt_info>
				<attribute name="fused_names" version="0" value="inp_state_039"/>
				<attribute name="old_api_map_element_type" version="0" value="f16"/>
			</rt_info>
			<output>
				<port id="0" precision="FP32" names="inp_state_039">
					<dim>1</dim>
					<dim>64</dim>
					<dim>64</dim>
					<dim>2</dim>
					<rt_info>
						<attribute name="layout" version="0" layout="[N,C,H,W]"/>
					</rt_info>
				</port>
			</output>
		</layer>
		<layer id="9" name="inp_state_040" type="Parameter" version="opset1">
			<data shape="1,96,64,2" element_type="f32"/>
			<rt_info>
				<attribute name="fused_names" version="0" value="inp_state_040"/>
				<attribute name="old_api_map_element_type" version="0" value="f16"/>
			</rt_info>
			<output>
				<port id="0" precision="FP32" names="inp_state_040">
					<dim>1</dim>
					<dim>96</dim>
					<dim>64</dim>
					<dim>2</dim>
					<rt_info>
						<attribute name="layout" version="0" layout="[N,C,H,W]"/>
					</rt_info>
				</port>
			</output>
		</layer>
		<layer id="8" name="inp_state_041" type="Parameter" version="opset1">
			<data shape="1,128,64,2" element_type="f32"/>
			<rt_info>
				<attribute name="fused_names" version="0" value="inp_state_041"/>
				<attribute name="old_api_map_element_type" version="0" value="f16"/>
			</rt_info>
			<output>
				<port id="0" precision="FP32" names="inp_state_041">
					<dim>1</dim>
					<dim>128</dim>
					<dim>64</dim>
					<dim>2</dim>
					<rt_info>
						<attribute name="layout" version="0" layout="[N,C,H,W]"/>
					</rt_info>
				</port>
			</output>
		</layer>
		<layer id="7" name="inp_state_042" type="Parameter" version="opset1">
			<data shape="1,64,32,22" element_type="f32"/>
			<rt_info>
				<attribute name="fused_names" version="0" value="inp_state_042"/>
				<attribute name="old_api_map_element_type" version="0" value="f16"/>
			</rt_info>
			<output>
				<port id="0" precision="FP32" names="inp_state_042">
					<dim>1</dim>
					<dim>64</dim>
					<dim>32</dim>
					<dim>22</dim>
					<rt_info>
						<attribute name="layout" version="0" layout="[N,C,H,W]"/>
					</rt_info>
				</port>
			</output>
		</layer>
		<layer id="6" name="inp_state_043" type="Parameter" version="opset1">
			<data shape="1,64,32,22" element_type="f32"/>
			<rt_info>
				<attribute name="fused_names" version="0" value="inp_state_043"/>
				<attribute name="old_api_map_element_type" version="0" value="f16"/>
			</rt_info>
			<output>
				<port id="0" precision="FP32" names="inp_state_043">
					<dim>1</dim>
					<dim>64</dim>
					<dim>32</dim>
					<dim>22</dim>
					<rt_info>
						<attribute name="layout" version="0" layout="[N,C,H,W]"/>
					</rt_info>
				</port>
			</output>
		</layer>
		<layer id="5" name="inp_state_044" type="Parameter" version="opset1">
			<data shape="1,64,129,2" element_type="f32"/>
			<rt_info>
				<attribute name="fused_names" version="0" value="inp_state_044"/>
				<attribute name="old_api_map_element_type" version="0" value="f16"/>
			</rt_info>
			<output>
				<port id="0" precision="FP32" names="inp_state_044">
					<dim>1</dim>
					<dim>64</dim>
					<dim>129</dim>
					<dim>2</dim>
					<rt_info>
						<attribute name="layout" version="0" layout="[N,C,H,W]"/>
					</rt_info>
				</port>
			</output>
		</layer>
		<layer id="4" name="inp_state_045" type="Parameter" version="opset1">
			<data shape="1,32,129,2" element_type="f32"/>
			<rt_info>
				<attribute name="fused_names" version="0" value="inp_state_045"/>
				<attribute name="old_api_map_element_type" version="0" value="f16"/>
			</rt_info>
			<output>
				<port id="0" precision="FP32" names="inp_state_045">
					<dim>1</dim>
					<dim>32</dim>
					<dim>129</dim>
					<dim>2</dim>
					<rt_info>
						<attribute name="layout" version="0" layout="[N,C,H,W]"/>
					</rt_info>
				</port>
			</output>
		</layer>
		<layer id="3" name="inp_state_046" type="Parameter" version="opset1">
			<data shape="1,48,129,2" element_type="f32"/>
			<rt_info>
				<attribute name="fused_names" version="0" value="inp_state_046"/>
				<attribute name="old_api_map_element_type" version="0" value="f16"/>
			</rt_info>
			<output>
				<port id="0" precision="FP32" names="inp_state_046">
					<dim>1</dim>
					<dim>48</dim>
					<dim>129</dim>
					<dim>2</dim>
					<rt_info>
						<attribute name="layout" version="0" layout="[N,C,H,W]"/>
					</rt_info>
				</port>
			</output>
		</layer>
		<layer id="2" name="inp_state_047" type="Parameter" version="opset1">
			<data shape="1,64,129,2" element_type="f32"/>
			<rt_info>
				<attribute name="fused_names" version="0" value="inp_state_047"/>
				<attribute name="old_api_map_element_type" version="0" value="f16"/>
			</rt_info>
			<output>
				<port id="0" precision="FP32" names="inp_state_047">
					<dim>1</dim>
					<dim>64</dim>
					<dim>129</dim>
					<dim>2</dim>
					<rt_info>
						<attribute name="layout" version="0" layout="[N,C,H,W]"/>
					</rt_info>
				</port>
			</output>
		</layer>
		<layer id="1" name="inp_state_048" type="Parameter" version="opset1">
			<data shape="1,2,129,4" element_type="f32"/>
			<rt_info>
				<attribute name="fused_names" version="0" value="inp_state_048"/>
				<attribute name="old_api_map_element_type" version="0" value="f16"/>
			</rt_info>
			<output>
				<port id="0" precision="FP32" names="inp_state_048">
					<dim>1</dim>
					<dim>2</dim>
					<dim>129</dim>
					<dim>4</dim>
					<rt_info>
						<attribute name="layout" version="0" layout="[N,C,H,W]"/>
					</rt_info>
				</port>
			</output>
		</layer>
		<layer id="0" name="inp_state_049" type="Parameter" version="opset1">
			<data shape="1,2,129,1" element_type="f32"/>
			<rt_info>
				<attribute name="fused_names" version="0" value="inp_state_049"/>
				<attribute name="old_api_map_element_type" version="0" value="f16"/>
			</rt_info>
			<output>
				<port id="0" precision="FP32" names="inp_state_049">
					<dim>1</dim>
					<dim>2</dim>
					<dim>129</dim>
					<dim>1</dim>
					<rt_info>
						<attribute name="layout" version="0" layout="[N,C,H,W]"/>
					</rt_info>
				</port>
			</output>
		</layer>
		<layer id="51" name="337" type="Concat" version="opset1">
			<data axis="1"/>
			<rt_info>
				<attribute name="fused_names" version="0" value="337"/>
			</rt_info>
			<input>
				<port id="0" precision="FP32">
					<dim>1</dim>
					<dim>128</dim>
				</port>
				<port id="1" precision="FP32">
					<dim>1</dim>
					<dim>2048</dim>
				</port>
			</input>
			<output>
				<port id="2" precision="FP32" names="337">
					<dim>1</dim>
					<dim>2176</dim>
				</port>
			</output>
		</layer>
		<layer id="52" name="Constant_634" type="Const" version="opset1">
			<data element_type="i64" shape="1" offset="0" size="8"/>
			<rt_info>
				<attribute name="fused_names" version="0" value="Constant_634"/>
			</rt_info>
			<output>
				<port id="0" precision="I64">
					<dim>1</dim>
				</port>
			</output>
		</layer>
		<layer id="53" name="351" type="Unsqueeze" version="opset1">
			<rt_info>
				<attribute name="fused_names" version="0" value="351"/>
			</rt_info>
			<input>
				<port id="0" precision="FP32">
					<dim>1</dim>
					<dim>2176</dim>
				</port>
				<port id="1" precision="I64">
					<dim>1</dim>
				</port>
			</input>
			<output>
				<port id="2" precision="FP32" names="351">
					<dim>1</dim>
					<dim>1</dim>
					<dim>2176</dim>
				</port>
			</output>
		</layer>
		<layer id="54" name="Constant_636" type="Const" version="opset1">
			<data element_type="i64" shape="1" offset="8" size="8"/>
			<rt_info>
				<attribute name="fused_names" version="0" value="Constant_636"/>
			</rt_info>
			<output>
				<port id="0" precision="I64">
					<dim>1</dim>
				</port>
			</output>
		</layer>
		<layer id="55" name="352" type="Unsqueeze" version="opset1">
			<rt_info>
				<attribute name="fused_names" version="0" value="352"/>
			</rt_info>
			<input>
				<port id="0" precision="FP32">
					<dim>1</dim>
					<dim>1</dim>
					<dim>2176</dim>
				</port>
				<port id="1" precision="I64">
					<dim>1</dim>
				</port>
			</input>
			<output>
				<port id="2" precision="FP32" names="352">
					<dim>1</dim>
					<dim>1</dim>
					<dim>1</dim>
					<dim>2176</dim>
				</port>
			</output>
		</layer>
		<layer id="56" name="_encdec_matrix_compressed" type="Const" version="opset1">
			<data element_type="f16" shape="258, 1, 1, 256" offset="16" size="132096"/>
			<output>
				<port id="0" precision="FP16">
					<dim>258</dim>
					<dim>1</dim>
					<dim>1</dim>
					<dim>256</dim>
				</port>
			</output>
		</layer>
		<layer id="57" name="_encdec_matrix" type="Convert" version="opset1">
			<data destination_type="f32"/>
			<rt_info>
				<attribute name="decompression" version="0"/>
				<attribute name="fused_names" version="0" value="_encdec_matrix"/>
			</rt_info>
			<input>
				<port id="0" precision="FP16">
					<dim>258</dim>
					<dim>1</dim>
					<dim>1</dim>
					<dim>256</dim>
				</port>
			</input>
			<output>
				<port id="1" precision="FP32" names="_encdec_matrix">
					<dim>258</dim>
					<dim>1</dim>
					<dim>1</dim>
					<dim>256</dim>
				</port>
			</output>
		</layer>
		<layer id="58" name="353" type="Convolution" version="opset1">
			<data strides="128, 128" dilations="1, 1" pads_begin="0, 0" pads_end="0, 0" auto_pad="explicit"/>
			<rt_info>
				<attribute name="fused_names" version="0" value="353"/>
			</rt_info>
			<input>
				<port id="0" precision="FP32">
					<dim>1</dim>
					<dim>1</dim>
					<dim>1</dim>
					<dim>2176</dim>
				</port>
				<port id="1" precision="FP32">
					<dim>258</dim>
					<dim>1</dim>
					<dim>1</dim>
					<dim>256</dim>
				</port>
			</input>
			<output>
				<port id="2" precision="FP32" names="353">
					<dim>1</dim>
					<dim>258</dim>
					<dim>1</dim>
					<dim>16</dim>
				</port>
			</output>
		</layer>
		<layer id="59" name="Constant_148304" type="Const" version="opset1">
			<data element_type="i64" shape="1" offset="132112" size="8"/>
			<output>
				<port id="0" precision="I64">
					<dim>1</dim>
				</port>
			</output>
		</layer>
		<layer id="60" name="3174" type="Const" version="opset1">
			<data element_type="i64" shape="1" offset="8" size="8"/>
			<rt_info>
				<attribute name="fused_names" version="0" value="3174"/>
			</rt_info>
			<output>
				<port id="0" precision="I64" names="3174">
					<dim>1</dim>
				</port>
			</output>
		</layer>
		<layer id="61" name="354" type="ShapeOf" version="opset3">
			<data output_type="i64"/>
			<rt_info>
				<attribute name="fused_names" version="0" value="354, 357, 360"/>
			</rt_info>
			<input>
				<port id="0" precision="FP32">
					<dim>1</dim>
					<dim>258</dim>
					<dim>1</dim>
					<dim>16</dim>
				</port>
			</input>
			<output>
				<port id="1" precision="I64" names="354,357,360">
					<dim>4</dim>
				</port>
			</output>
		</layer>
		<layer id="62" name="358" type="Const" version="opset1">
			<data element_type="i64" shape="" offset="0" size="8"/>
			<rt_info>
				<attribute name="fused_names" version="0" value="358"/>
			</rt_info>
			<output>
				<port id="0" precision="I64" names="358"/>
			</output>
		</layer>
		<layer id="63" name="Constant_646" type="Const" version="opset1">
			<data element_type="i64" shape="" offset="132112" size="8"/>
			<rt_info>
				<attribute name="fused_names" version="0" value="Constant_646"/>
			</rt_info>
			<output>
				<port id="0" precision="I64"/>
			</output>
		</layer>
		<layer id="64" name="359" type="Gather" version="opset8">
			<data batch_dims="0"/>
			<rt_info>
				<attribute name="fused_names" version="0" value="358, 359, Constant_646"/>
			</rt_info>
			<input>
				<port id="0" precision="I64">
					<dim>4</dim>
				</port>
				<port id="1" precision="I64"/>
				<port id="2" precision="I64"/>
			</input>
			<output>
				<port id="3" precision="I64" names="359"/>
			</output>
		</layer>
		<layer id="65" name="363" type="Const" version="opset1">
			<data element_type="i64" shape="" offset="8" size="8"/>
			<rt_info>
				<attribute name="fused_names" version="0" value="363"/>
			</rt_info>
			<output>
				<port id="0" precision="I64" names="363"/>
			</output>
		</layer>
		<layer id="66" name="364" type="Divide" version="opset1">
			<data auto_broadcast="numpy" m_pythondiv="true"/>
			<rt_info>
				<attribute name="fused_names" version="0" value="363, 364, 365, 366"/>
			</rt_info>
			<input>
				<port id="0" precision="I64"/>
				<port id="1" precision="I64"/>
			</input>
			<output>
				<port id="2" precision="I64" names="364,365,366"/>
			</output>
		</layer>
		<layer id="67" name="Constant_658" type="Const" version="opset1">
			<data element_type="i64" shape="1" offset="132112" size="8"/>
			<rt_info>
				<attribute name="fused_names" version="0" value="Constant_658"/>
			</rt_info>
			<output>
				<port id="0" precision="I64">
					<dim>1</dim>
				</port>
			</output>
		</layer>
		<layer id="68" name="370" type="Unsqueeze" version="opset1">
			<rt_info>
				<attribute name="fused_names" version="0" value="370, Constant_658"/>
			</rt_info>
			<input>
				<port id="0" precision="I64"/>
				<port id="1" precision="I64">
					<dim>1</dim>
				</port>
			</input>
			<output>
				<port id="2" precision="I64" names="370">
					<dim>1</dim>
				</port>
			</output>
		</layer>
		<layer id="69" name="Constant_148305" type="Const" version="opset1">
			<data element_type="i64" shape="1" offset="132112" size="8"/>
			<output>
				<port id="0" precision="I64">
					<dim>1</dim>
				</port>
			</output>
		</layer>
		<layer id="70" name="372" type="Concat" version="opset1">
			<data axis="0"/>
			<rt_info>
				<attribute name="fused_names" version="0" value="3174, 372"/>
			</rt_info>
			<input>
				<port id="0" precision="I64">
					<dim>1</dim>
				</port>
				<port id="1" precision="I64">
					<dim>1</dim>
				</port>
				<port id="2" precision="I64">
					<dim>1</dim>
				</port>
				<port id="3" precision="I64">
					<dim>1</dim>
				</port>
			</input>
			<output>
				<port id="4" precision="I64">
					<dim>4</dim>
				</port>
			</output>
		</layer>
		<layer id="71" name="373" type="Reshape" version="opset1">
			<data special_zero="true"/>
			<rt_info>
				<attribute name="fused_names" version="0" value="373"/>
			</rt_info>
			<input>
				<port id="0" precision="FP32">
					<dim>1</dim>
					<dim>258</dim>
					<dim>1</dim>
					<dim>16</dim>
				</port>
				<port id="1" precision="I64">
					<dim>4</dim>
				</port>
			</input>
			<output>
				<port id="2" precision="FP32" names="373">
					<dim>1</dim>
					<dim>2</dim>
					<dim>129</dim>
					<dim>16</dim>
				</port>
			</output>
		</layer>
		<layer id="72" name="3098" type="Concat" version="opset1">
			<data axis="3"/>
			<rt_info>
				<attribute name="fused_names" version="0" value="3098"/>
			</rt_info>
			<input>
				<port id="0" precision="FP32">
					<dim>1</dim>
					<dim>2</dim>
					<dim>129</dim>
					<dim>4</dim>
				</port>
				<port id="1" precision="FP32">
					<dim>1</dim>
					<dim>2</dim>
					<dim>129</dim>
					<dim>16</dim>
				</port>
			</input>
			<output>
				<port id="2" precision="FP32" names="3098">
					<dim>1</dim>
					<dim>2</dim>
					<dim>129</dim>
					<dim>20</dim>
				</port>
			</output>
		</layer>
		<layer id="73" name="Constant_189643" type="Const" version="opset1">
			<data element_type="i64" shape="4" offset="132120" size="32"/>
			<rt_info>
				<attribute name="fused_names" version="0" value="3111, Broadcast_17513"/>
			</rt_info>
			<output>
				<port id="0" precision="I64">
					<dim>4</dim>
				</port>
			</output>
		</layer>
		<layer id="74" name="Constant_189644" type="Const" version="opset1">
			<data element_type="i64" shape="4" offset="132120" size="32"/>
			<rt_info>
				<attribute name="fused_names" version="0" value="3111, Broadcast_17513"/>
			</rt_info>
			<output>
				<port id="0" precision="I64">
					<dim>4</dim>
				</port>
			</output>
		</layer>
		<layer id="75" name="Constant_189640" type="Const" version="opset1">
			<data element_type="i64" shape="1" offset="132152" size="8"/>
			<rt_info>
				<attribute name="fused_names" version="0" value="3111, Broadcast_17513"/>
			</rt_info>
			<output>
				<port id="0" precision="I64">
					<dim>1</dim>
				</port>
			</output>
		</layer>
		<layer id="76" name="3099" type="ShapeOf" version="opset3">
			<data output_type="i64"/>
			<rt_info>
				<attribute name="fused_names" version="0" value="3099"/>
			</rt_info>
			<input>
				<port id="0" precision="FP32">
					<dim>1</dim>
					<dim>2</dim>
					<dim>129</dim>
					<dim>20</dim>
				</port>
			</input>
			<output>
				<port id="1" precision="I64" names="3099">
					<dim>4</dim>
				</port>
			</output>
		</layer>
		<layer id="77" name="3100" type="Const" version="opset1">
			<data element_type="i64" shape="" offset="132152" size="8"/>
			<rt_info>
				<attribute name="fused_names" version="0" value="3100"/>
			</rt_info>
			<output>
				<port id="0" precision="I64" names="3100"/>
			</output>
		</layer>
		<layer id="78" name="Constant_17501" type="Const" version="opset1">
			<data element_type="i64" shape="" offset="132112" size="8"/>
			<rt_info>
				<attribute name="fused_names" version="0" value="Constant_17501"/>
			</rt_info>
			<output>
				<port id="0" precision="I64"/>
			</output>
		</layer>
		<layer id="79" name="3101" type="Gather" version="opset8">
			<data batch_dims="0"/>
			<rt_info>
				<attribute name="fused_names" version="0" value="3100, 3101, Constant_17501"/>
			</rt_info>
			<input>
				<port id="0" precision="I64">
					<dim>4</dim>
				</port>
				<port id="1" precision="I64"/>
				<port id="2" precision="I64"/>
			</input>
			<output>
				<port id="3" precision="I64" names="3101"/>
			</output>
		</layer>
		<layer id="80" name="3102" type="Const" version="opset1">
			<data element_type="i64" shape="" offset="132160" size="8"/>
			<rt_info>
				<attribute name="fused_names" version="0" value="3102"/>
			</rt_info>
			<output>
				<port id="0" precision="I64" names="3102"/>
			</output>
		</layer>
		<layer id="81" name="3103" type="Subtract" version="opset1">
			<data auto_broadcast="numpy"/>
			<rt_info>
				<attribute name="fused_names" version="0" value="3102, 3103"/>
			</rt_info>
			<input>
				<port id="0" precision="I64"/>
				<port id="1" precision="I64"/>
			</input>
			<output>
				<port id="2" precision="I64" names="3103"/>
			</output>
		</layer>
		<layer id="82" name="Constant_17505" type="Const" version="opset1">
			<data element_type="i64" shape="1" offset="132112" size="8"/>
			<rt_info>
				<attribute name="fused_names" version="0" value="Constant_17505"/>
			</rt_info>
			<output>
				<port id="0" precision="I64">
					<dim>1</dim>
				</port>
			</output>
		</layer>
		<layer id="83" name="3105" type="Unsqueeze" version="opset1">
			<rt_info>
				<attribute name="fused_names" version="0" value="3105, 3109, 3110, Constant_17505"/>
			</rt_info>
			<input>
				<port id="0" precision="I64"/>
				<port id="1" precision="I64">
					<dim>1</dim>
				</port>
			</input>
			<output>
				<port id="2" precision="I64" names="3105,3110">
					<dim>1</dim>
				</port>
			</output>
		</layer>
		<layer id="84" name="Constant_189639" type="Const" version="opset1">
			<data element_type="i32" shape="1" offset="132168" size="4"/>
			<rt_info>
				<attribute name="fused_names" version="0" value="3111, Broadcast_17513"/>
			</rt_info>
			<output>
				<port id="0" precision="I32">
					<dim>1</dim>
				</port>
			</output>
		</layer>
		<layer id="85" name="ScatterUpdate_189645" type="ScatterUpdate" version="opset3">
			<rt_info>
				<attribute name="fused_names" version="0" value="3111, Broadcast_17513"/>
			</rt_info>
			<input>
				<port id="0" precision="I64">
					<dim>4</dim>
				</port>
				<port id="1" precision="I64">
					<dim>1</dim>
				</port>
				<port id="2" precision="I64">
					<dim>1</dim>
				</port>
				<port id="3" precision="I32">
					<dim>1</dim>
				</port>
			</input>
			<output>
				<port id="4" precision="I64">
					<dim>4</dim>
				</port>
			</output>
		</layer>
		<layer id="86" name="Constant_189648" type="Const" version="opset1">
			<data element_type="i64" shape="4" offset="132172" size="32"/>
			<rt_info>
				<attribute name="fused_names" version="0" value="3111, Broadcast_17513"/>
			</rt_info>
			<output>
				<port id="0" precision="I64">
					<dim>4</dim>
				</port>
			</output>
		</layer>
		<layer id="87" name="3111" type="StridedSlice" version="opset1">
			<data begin_mask="1, 1, 1, 0" end_mask="1, 1, 1, 0" new_axis_mask="" shrink_axis_mask="" ellipsis_mask=""/>
			<rt_info>
				<attribute name="fused_names" version="0" value="3111, Broadcast_17513"/>
			</rt_info>
			<input>
				<port id="0" precision="FP32">
					<dim>1</dim>
					<dim>2</dim>
					<dim>129</dim>
					<dim>20</dim>
				</port>
				<port id="1" precision="I64">
					<dim>4</dim>
				</port>
				<port id="2" precision="I64">
					<dim>4</dim>
				</port>
				<port id="3" precision="I64">
					<dim>4</dim>
				</port>
			</input>
			<output>
				<port id="4" precision="FP32" names="3111">
					<dim>1</dim>
					<dim>2</dim>
					<dim>129</dim>
					<dim>16</dim>
				</port>
			</output>
		</layer>
		<layer id="88" name="3118" type="Const" version="opset1">
			<data element_type="i64" shape="" offset="132112" size="8"/>
			<rt_info>
				<attribute name="fused_names" version="0" value="3118"/>
			</rt_info>
			<output>
				<port id="0" precision="I64" names="3118"/>
			</output>
		</layer>
		<layer id="89" name="Constant_17626" type="Const" version="opset1">
			<data element_type="i64" shape="" offset="0" size="8"/>
			<rt_info>
				<attribute name="fused_names" version="0" value="Constant_17626"/>
			</rt_info>
			<output>
				<port id="0" precision="I64"/>
			</output>
		</layer>
		<layer id="90" name="3119" type="Gather" version="opset8">
			<data batch_dims="0"/>
			<rt_info>
				<attribute name="fused_names" version="0" value="3119"/>
			</rt_info>
			<input>
				<port id="0" precision="FP32">
					<dim>1</dim>
					<dim>2</dim>
					<dim>129</dim>
					<dim>16</dim>
				</port>
				<port id="1" precision="I64"/>
				<port id="2" precision="I64"/>
			</input>
			<output>
				<port id="3" precision="FP32" names="3119">
					<dim>1</dim>
					<dim>129</dim>
					<dim>16</dim>
				</port>
			</output>
		</layer>
		<layer id="91" name="Constant_284766_compressed" type="Const" version="opset1">
			<data element_type="f16" shape="1, 2, 1, 1" offset="132204" size="4"/>
			<output>
				<port id="0" precision="FP16">
					<dim>1</dim>
					<dim>2</dim>
					<dim>1</dim>
					<dim>1</dim>
				</port>
			</output>
		</layer>
		<layer id="92" name="Constant_284766" type="Convert" version="opset1">
			<data destination_type="f32"/>
			<rt_info>
				<attribute name="decompression" version="0"/>
				<attribute name="fused_names" version="0" value="374, blocks_down.0.bd.0.bn.bias, blocks_down.0.bd.0.bn.running_mean, blocks_down.0.bd.0.bn.running_var, blocks_down.0.bd.0.bn.weight"/>
			</rt_info>
			<input>
				<port id="0" precision="FP16">
					<dim>1</dim>
					<dim>2</dim>
					<dim>1</dim>
					<dim>1</dim>
				</port>
			</input>
			<output>
				<port id="1" precision="FP32">
					<dim>1</dim>
					<dim>2</dim>
					<dim>1</dim>
					<dim>1</dim>
				</port>
			</output>
		</layer>
		<layer id="93" name="Multiply_289158" type="Multiply" version="opset1">
			<data auto_broadcast="numpy"/>
			<rt_info>
				<attribute name="fused_names" version="0" value="374, blocks_down.0.bd.0.bn.bias, blocks_down.0.bd.0.bn.running_mean, blocks_down.0.bd.0.bn.running_var, blocks_down.0.bd.0.bn.weight"/>
			</rt_info>
			<input>
				<port id="0" precision="FP32">
					<dim>1</dim>
					<dim>2</dim>
					<dim>129</dim>
					<dim>16</dim>
				</port>
				<port id="1" precision="FP32">
					<dim>1</dim>
					<dim>2</dim>
					<dim>1</dim>
					<dim>1</dim>
				</port>
			</input>
			<output>
				<port id="2" precision="FP32">
					<dim>1</dim>
					<dim>2</dim>
					<dim>129</dim>
					<dim>16</dim>
				</port>
			</output>
		</layer>
		<layer id="94" name="Constant_289163_compressed" type="Const" version="opset1">
			<data element_type="f16" shape="1, 2, 1, 1" offset="132208" size="4"/>
			<output>
				<port id="0" precision="FP16">
					<dim>1</dim>
					<dim>2</dim>
					<dim>1</dim>
					<dim>1</dim>
				</port>
			</output>
		</layer>
		<layer id="95" name="Constant_289163" type="Convert" version="opset1">
			<data destination_type="f32"/>
			<rt_info>
				<attribute name="decompression" version="0"/>
			</rt_info>
			<input>
				<port id="0" precision="FP16">
					<dim>1</dim>
					<dim>2</dim>
					<dim>1</dim>
					<dim>1</dim>
				</port>
			</input>
			<output>
				<port id="1" precision="FP32">
					<dim>1</dim>
					<dim>2</dim>
					<dim>1</dim>
					<dim>1</dim>
				</port>
			</output>
		</layer>
		<layer id="96" name="374" type="Add" version="opset1">
			<data auto_broadcast="numpy"/>
			<rt_info>
				<attribute name="fused_names" version="0" value="374, blocks_down.0.bd.0.bn.bias, blocks_down.0.bd.0.bn.running_mean, blocks_down.0.bd.0.bn.running_var, blocks_down.0.bd.0.bn.weight"/>
			</rt_info>
			<input>
				<port id="0" precision="FP32">
					<dim>1</dim>
					<dim>2</dim>
					<dim>129</dim>
					<dim>16</dim>
				</port>
				<port id="1" precision="FP32">
					<dim>1</dim>
					<dim>2</dim>
					<dim>1</dim>
					<dim>1</dim>
				</port>
			</input>
			<output>
				<port id="2" precision="FP32" names="374">
					<dim>1</dim>
					<dim>2</dim>
					<dim>129</dim>
					<dim>16</dim>
				</port>
			</output>
		</layer>
		<layer id="97" name="Constant_764_compressed" type="Const" version="opset1">
			<data element_type="f16" shape="1" offset="132212" size="2"/>
			<output>
				<port id="0" precision="FP16">
					<dim>1</dim>
				</port>
			</output>
		</layer>
		<layer id="98" name="Constant_764" type="Convert" version="opset1">
			<data destination_type="f32"/>
			<rt_info>
				<attribute name="decompression" version="0"/>
				<attribute name="fused_names" version="0" value="Constant_764"/>
			</rt_info>
			<input>
				<port id="0" precision="FP16">
					<dim>1</dim>
				</port>
			</input>
			<output>
				<port id="1" precision="FP32">
					<dim>1</dim>
				</port>
			</output>
		</layer>
		<layer id="99" name="375" type="PReLU" version="opset1">
			<rt_info>
				<attribute name="fused_names" version="0" value="375"/>
			</rt_info>
			<input>
				<port id="0" precision="FP32">
					<dim>1</dim>
					<dim>2</dim>
					<dim>129</dim>
					<dim>16</dim>
				</port>
				<port id="1" precision="FP32">
					<dim>1</dim>
				</port>
			</input>
			<output>
				<port id="2" precision="FP32" names="375">
					<dim>1</dim>
					<dim>2</dim>
					<dim>129</dim>
					<dim>16</dim>
				</port>
			</output>
		</layer>
		<layer id="100" name="376" type="Concat" version="opset1">
			<data axis="3"/>
			<rt_info>
				<attribute name="fused_names" version="0" value="376"/>
			</rt_info>
			<input>
				<port id="0" precision="FP32">
					<dim>1</dim>
					<dim>2</dim>
					<dim>129</dim>
					<dim>2</dim>
				</port>
				<port id="1" precision="FP32">
					<dim>1</dim>
					<dim>2</dim>
					<dim>129</dim>
					<dim>16</dim>
				</port>
			</input>
			<output>
				<port id="2" precision="FP32" names="376">
					<dim>1</dim>
					<dim>2</dim>
					<dim>129</dim>
					<dim>18</dim>
				</port>
			</output>
		</layer>
		<layer id="101" name="blocks_down.0.bd.0.conv.weight_compressed" type="Const" version="opset1">
			<data element_type="f16" shape="16, 2, 3, 3" offset="132214" size="576"/>
			<output>
				<port id="0" precision="FP16">
					<dim>16</dim>
					<dim>2</dim>
					<dim>3</dim>
					<dim>3</dim>
				</port>
			</output>
		</layer>
		<layer id="102" name="blocks_down.0.bd.0.conv.weight" type="Convert" version="opset1">
			<data destination_type="f32"/>
			<rt_info>
				<attribute name="decompression" version="0"/>
				<attribute name="fused_names" version="0" value="blocks_down.0.bd.0.conv.weight"/>
			</rt_info>
			<input>
				<port id="0" precision="FP16">
					<dim>16</dim>
					<dim>2</dim>
					<dim>3</dim>
					<dim>3</dim>
				</port>
			</input>
			<output>
				<port id="1" precision="FP32" names="blocks_down.0.bd.0.conv.weight">
					<dim>16</dim>
					<dim>2</dim>
					<dim>3</dim>
					<dim>3</dim>
				</port>
			</output>
		</layer>
		<layer id="103" name="Convolution_967" type="Convolution" version="opset1">
			<data strides="1, 1" dilations="1, 1" pads_begin="1, 0" pads_end="1, 0" auto_pad="explicit"/>
			<rt_info>
				<attribute name="fused_names" version="0" value="413, Convolution_967, Split_899"/>
			</rt_info>
			<input>
				<port id="0" precision="FP32">
					<dim>1</dim>
					<dim>2</dim>
					<dim>129</dim>
					<dim>18</dim>
				</port>
				<port id="1" precision="FP32">
					<dim>16</dim>
					<dim>2</dim>
					<dim>3</dim>
					<dim>3</dim>
				</port>
			</input>
			<output>
				<port id="2" precision="FP32">
					<dim>1</dim>
					<dim>16</dim>
					<dim>129</dim>
					<dim>16</dim>
				</port>
			</output>
		</layer>
		<layer id="104" name="Reshape_987_compressed" type="Const" version="opset1">
			<data element_type="f16" shape="1, 16, 1, 1" offset="132790" size="32"/>
			<output>
				<port id="0" precision="FP16">
					<dim>1</dim>
					<dim>16</dim>
					<dim>1</dim>
					<dim>1</dim>
				</port>
			</output>
		</layer>
		<layer id="105" name="Reshape_987" type="Convert" version="opset1">
			<data destination_type="f32"/>
			<rt_info>
				<attribute name="decompression" version="0"/>
			</rt_info>
			<input>
				<port id="0" precision="FP16">
					<dim>1</dim>
					<dim>16</dim>
					<dim>1</dim>
					<dim>1</dim>
				</port>
			</input>
			<output>
				<port id="1" precision="FP32">
					<dim>1</dim>
					<dim>16</dim>
					<dim>1</dim>
					<dim>1</dim>
				</port>
			</output>
		</layer>
		<layer id="106" name="414" type="Add" version="opset1">
			<data auto_broadcast="numpy"/>
			<rt_info>
				<attribute name="fused_names" version="0" value="414, Concat_986, Reshape_987"/>
			</rt_info>
			<input>
				<port id="0" precision="FP32">
					<dim>1</dim>
					<dim>16</dim>
					<dim>129</dim>
					<dim>16</dim>
				</port>
				<port id="1" precision="FP32">
					<dim>1</dim>
					<dim>16</dim>
					<dim>1</dim>
					<dim>1</dim>
				</port>
			</input>
			<output>
				<port id="2" precision="FP32" names="414">
					<dim>1</dim>
					<dim>16</dim>
					<dim>129</dim>
					<dim>16</dim>
				</port>
			</output>
		</layer>
		<layer id="107" name="415" type="Concat" version="opset1">
			<data axis="1"/>
			<rt_info>
				<attribute name="fused_names" version="0" value="415"/>
			</rt_info>
			<input>
				<port id="0" precision="FP32">
					<dim>1</dim>
					<dim>2</dim>
					<dim>129</dim>
					<dim>16</dim>
				</port>
				<port id="1" precision="FP32">
					<dim>1</dim>
					<dim>16</dim>
					<dim>129</dim>
					<dim>16</dim>
				</port>
			</input>
			<output>
				<port id="2" precision="FP32" names="415">
					<dim>1</dim>
					<dim>18</dim>
					<dim>129</dim>
					<dim>16</dim>
				</port>
			</output>
		</layer>
		<layer id="108" name="Constant_284892_compressed" type="Const" version="opset1">
			<data element_type="f16" shape="1, 18, 1, 1" offset="132822" size="36"/>
			<output>
				<port id="0" precision="FP16">
					<dim>1</dim>
					<dim>18</dim>
					<dim>1</dim>
					<dim>1</dim>
				</port>
			</output>
		</layer>
		<layer id="109" name="Constant_284892" type="Convert" version="opset1">
			<data destination_type="f32"/>
			<rt_info>
				<attribute name="decompression" version="0"/>
				<attribute name="fused_names" version="0" value="416, blocks_down.0.bd.1.bn.bias, blocks_down.0.bd.1.bn.running_mean, blocks_down.0.bd.1.bn.running_var, blocks_down.0.bd.1.bn.weight"/>
			</rt_info>
			<input>
				<port id="0" precision="FP16">
					<dim>1</dim>
					<dim>18</dim>
					<dim>1</dim>
					<dim>1</dim>
				</port>
			</input>
			<output>
				<port id="1" precision="FP32">
					<dim>1</dim>
					<dim>18</dim>
					<dim>1</dim>
					<dim>1</dim>
				</port>
			</output>
		</layer>
		<layer id="110" name="Multiply_289165" type="Multiply" version="opset1">
			<data auto_broadcast="numpy"/>
			<rt_info>
				<attribute name="fused_names" version="0" value="416, blocks_down.0.bd.1.bn.bias, blocks_down.0.bd.1.bn.running_mean, blocks_down.0.bd.1.bn.running_var, blocks_down.0.bd.1.bn.weight"/>
			</rt_info>
			<input>
				<port id="0" precision="FP32">
					<dim>1</dim>
					<dim>18</dim>
					<dim>129</dim>
					<dim>16</dim>
				</port>
				<port id="1" precision="FP32">
					<dim>1</dim>
					<dim>18</dim>
					<dim>1</dim>
					<dim>1</dim>
				</port>
			</input>
			<output>
				<port id="2" precision="FP32">
					<dim>1</dim>
					<dim>18</dim>
					<dim>129</dim>
					<dim>16</dim>
				</port>
			</output>
		</layer>
		<layer id="111" name="Constant_289170_compressed" type="Const" version="opset1">
			<data element_type="f16" shape="1, 18, 1, 1" offset="132858" size="36"/>
			<output>
				<port id="0" precision="FP16">
					<dim>1</dim>
					<dim>18</dim>
					<dim>1</dim>
					<dim>1</dim>
				</port>
			</output>
		</layer>
		<layer id="112" name="Constant_289170" type="Convert" version="opset1">
			<data destination_type="f32"/>
			<rt_info>
				<attribute name="decompression" version="0"/>
			</rt_info>
			<input>
				<port id="0" precision="FP16">
					<dim>1</dim>
					<dim>18</dim>
					<dim>1</dim>
					<dim>1</dim>
				</port>
			</input>
			<output>
				<port id="1" precision="FP32">
					<dim>1</dim>
					<dim>18</dim>
					<dim>1</dim>
					<dim>1</dim>
				</port>
			</output>
		</layer>
		<layer id="113" name="416" type="Add" version="opset1">
			<data auto_broadcast="numpy"/>
			<rt_info>
				<attribute name="fused_names" version="0" value="416, blocks_down.0.bd.1.bn.bias, blocks_down.0.bd.1.bn.running_mean, blocks_down.0.bd.1.bn.running_var, blocks_down.0.bd.1.bn.weight"/>
			</rt_info>
			<input>
				<port id="0" precision="FP32">
					<dim>1</dim>
					<dim>18</dim>
					<dim>129</dim>
					<dim>16</dim>
				</port>
				<port id="1" precision="FP32">
					<dim>1</dim>
					<dim>18</dim>
					<dim>1</dim>
					<dim>1</dim>
				</port>
			</input>
			<output>
				<port id="2" precision="FP32" names="416">
					<dim>1</dim>
					<dim>18</dim>
					<dim>129</dim>
					<dim>16</dim>
				</port>
			</output>
		</layer>
		<layer id="114" name="Constant_1017_compressed" type="Const" version="opset1">
			<data element_type="f16" shape="1" offset="132212" size="2"/>
			<output>
				<port id="0" precision="FP16">
					<dim>1</dim>
				</port>
			</output>
		</layer>
		<layer id="115" name="Constant_1017" type="Convert" version="opset1">
			<data destination_type="f32"/>
			<rt_info>
				<attribute name="decompression" version="0"/>
				<attribute name="fused_names" version="0" value="Constant_1017"/>
			</rt_info>
			<input>
				<port id="0" precision="FP16">
					<dim>1</dim>
				</port>
			</input>
			<output>
				<port id="1" precision="FP32">
					<dim>1</dim>
				</port>
			</output>
		</layer>
		<layer id="116" name="417" type="PReLU" version="opset1">
			<rt_info>
				<attribute name="fused_names" version="0" value="417"/>
			</rt_info>
			<input>
				<port id="0" precision="FP32">
					<dim>1</dim>
					<dim>18</dim>
					<dim>129</dim>
					<dim>16</dim>
				</port>
				<port id="1" precision="FP32">
					<dim>1</dim>
				</port>
			</input>
			<output>
				<port id="2" precision="FP32" names="417">
					<dim>1</dim>
					<dim>18</dim>
					<dim>129</dim>
					<dim>16</dim>
				</port>
			</output>
		</layer>
		<layer id="117" name="418" type="Concat" version="opset1">
			<data axis="3"/>
			<rt_info>
				<attribute name="fused_names" version="0" value="418"/>
			</rt_info>
			<input>
				<port id="0" precision="FP32">
					<dim>1</dim>
					<dim>18</dim>
					<dim>129</dim>
					<dim>2</dim>
				</port>
				<port id="1" precision="FP32">
					<dim>1</dim>
					<dim>18</dim>
					<dim>129</dim>
					<dim>16</dim>
				</port>
			</input>
			<output>
				<port id="2" precision="FP32" names="418">
					<dim>1</dim>
					<dim>18</dim>
					<dim>129</dim>
					<dim>18</dim>
				</port>
			</output>
		</layer>
		<layer id="118" name="blocks_down.0.bd.1.conv.weight_compressed" type="Const" version="opset1">
			<data element_type="f16" shape="16, 18, 3, 3" offset="132894" size="5184"/>
			<output>
				<port id="0" precision="FP16">
					<dim>16</dim>
					<dim>18</dim>
					<dim>3</dim>
					<dim>3</dim>
				</port>
			</output>
		</layer>
		<layer id="119" name="blocks_down.0.bd.1.conv.weight" type="Convert" version="opset1">
			<data destination_type="f32"/>
			<rt_info>
				<attribute name="decompression" version="0"/>
				<attribute name="fused_names" version="0" value="blocks_down.0.bd.1.conv.weight"/>
			</rt_info>
			<input>
				<port id="0" precision="FP16">
					<dim>16</dim>
					<dim>18</dim>
					<dim>3</dim>
					<dim>3</dim>
				</port>
			</input>
			<output>
				<port id="1" precision="FP32" names="blocks_down.0.bd.1.conv.weight">
					<dim>16</dim>
					<dim>18</dim>
					<dim>3</dim>
					<dim>3</dim>
				</port>
			</output>
		</layer>
		<layer id="120" name="Convolution_1220" type="Convolution" version="opset1">
			<data strides="1, 1" dilations="1, 1" pads_begin="1, 0" pads_end="1, 0" auto_pad="explicit"/>
			<rt_info>
				<attribute name="fused_names" version="0" value="455, Convolution_1220, Split_1152"/>
			</rt_info>
			<input>
				<port id="0" precision="FP32">
					<dim>1</dim>
					<dim>18</dim>
					<dim>129</dim>
					<dim>18</dim>
				</port>
				<port id="1" precision="FP32">
					<dim>16</dim>
					<dim>18</dim>
					<dim>3</dim>
					<dim>3</dim>
				</port>
			</input>
			<output>
				<port id="2" precision="FP32">
					<dim>1</dim>
					<dim>16</dim>
					<dim>129</dim>
					<dim>16</dim>
				</port>
			</output>
		</layer>
		<layer id="121" name="Reshape_1240_compressed" type="Const" version="opset1">
			<data element_type="f16" shape="1, 16, 1, 1" offset="138078" size="32"/>
			<output>
				<port id="0" precision="FP16">
					<dim>1</dim>
					<dim>16</dim>
					<dim>1</dim>
					<dim>1</dim>
				</port>
			</output>
		</layer>
		<layer id="122" name="Reshape_1240" type="Convert" version="opset1">
			<data destination_type="f32"/>
			<rt_info>
				<attribute name="decompression" version="0"/>
			</rt_info>
			<input>
				<port id="0" precision="FP16">
					<dim>1</dim>
					<dim>16</dim>
					<dim>1</dim>
					<dim>1</dim>
				</port>
			</input>
			<output>
				<port id="1" precision="FP32">
					<dim>1</dim>
					<dim>16</dim>
					<dim>1</dim>
					<dim>1</dim>
				</port>
			</output>
		</layer>
		<layer id="123" name="456" type="Add" version="opset1">
			<data auto_broadcast="numpy"/>
			<rt_info>
				<attribute name="fused_names" version="0" value="456, Concat_1239, Reshape_1240"/>
			</rt_info>
			<input>
				<port id="0" precision="FP32">
					<dim>1</dim>
					<dim>16</dim>
					<dim>129</dim>
					<dim>16</dim>
				</port>
				<port id="1" precision="FP32">
					<dim>1</dim>
					<dim>16</dim>
					<dim>1</dim>
					<dim>1</dim>
				</port>
			</input>
			<output>
				<port id="2" precision="FP32" names="456">
					<dim>1</dim>
					<dim>16</dim>
					<dim>129</dim>
					<dim>16</dim>
				</port>
			</output>
		</layer>
		<layer id="124" name="457" type="Concat" version="opset1">
			<data axis="1"/>
			<rt_info>
				<attribute name="fused_names" version="0" value="457"/>
			</rt_info>
			<input>
				<port id="0" precision="FP32">
					<dim>1</dim>
					<dim>18</dim>
					<dim>129</dim>
					<dim>16</dim>
				</port>
				<port id="1" precision="FP32">
					<dim>1</dim>
					<dim>16</dim>
					<dim>129</dim>
					<dim>16</dim>
				</port>
			</input>
			<output>
				<port id="2" precision="FP32" names="457">
					<dim>1</dim>
					<dim>34</dim>
					<dim>129</dim>
					<dim>16</dim>
				</port>
			</output>
		</layer>
		<layer id="125" name="Constant_285018_compressed" type="Const" version="opset1">
			<data element_type="f16" shape="1, 34, 1, 1" offset="138110" size="68"/>
			<output>
				<port id="0" precision="FP16">
					<dim>1</dim>
					<dim>34</dim>
					<dim>1</dim>
					<dim>1</dim>
				</port>
			</output>
		</layer>
		<layer id="126" name="Constant_285018" type="Convert" version="opset1">
			<data destination_type="f32"/>
			<rt_info>
				<attribute name="decompression" version="0"/>
				<attribute name="fused_names" version="0" value="458, blocks_down.0.bd_out.bn.bias, blocks_down.0.bd_out.bn.running_mean, blocks_down.0.bd_out.bn.running_var, blocks_down.0.bd_out.bn.weight"/>
			</rt_info>
			<input>
				<port id="0" precision="FP16">
					<dim>1</dim>
					<dim>34</dim>
					<dim>1</dim>
					<dim>1</dim>
				</port>
			</input>
			<output>
				<port id="1" precision="FP32">
					<dim>1</dim>
					<dim>34</dim>
					<dim>1</dim>
					<dim>1</dim>
				</port>
			</output>
		</layer>
		<layer id="127" name="Multiply_289172" type="Multiply" version="opset1">
			<data auto_broadcast="numpy"/>
			<rt_info>
				<attribute name="fused_names" version="0" value="458, blocks_down.0.bd_out.bn.bias, blocks_down.0.bd_out.bn.running_mean, blocks_down.0.bd_out.bn.running_var, blocks_down.0.bd_out.bn.weight"/>
			</rt_info>
			<input>
				<port id="0" precision="FP32">
					<dim>1</dim>
					<dim>34</dim>
					<dim>129</dim>
					<dim>16</dim>
				</port>
				<port id="1" precision="FP32">
					<dim>1</dim>
					<dim>34</dim>
					<dim>1</dim>
					<dim>1</dim>
				</port>
			</input>
			<output>
				<port id="2" precision="FP32">
					<dim>1</dim>
					<dim>34</dim>
					<dim>129</dim>
					<dim>16</dim>
				</port>
			</output>
		</layer>
		<layer id="128" name="Constant_289177_compressed" type="Const" version="opset1">
			<data element_type="f16" shape="1, 34, 1, 1" offset="138178" size="68"/>
			<output>
				<port id="0" precision="FP16">
					<dim>1</dim>
					<dim>34</dim>
					<dim>1</dim>
					<dim>1</dim>
				</port>
			</output>
		</layer>
		<layer id="129" name="Constant_289177" type="Convert" version="opset1">
			<data destination_type="f32"/>
			<rt_info>
				<attribute name="decompression" version="0"/>
			</rt_info>
			<input>
				<port id="0" precision="FP16">
					<dim>1</dim>
					<dim>34</dim>
					<dim>1</dim>
					<dim>1</dim>
				</port>
			</input>
			<output>
				<port id="1" precision="FP32">
					<dim>1</dim>
					<dim>34</dim>
					<dim>1</dim>
					<dim>1</dim>
				</port>
			</output>
		</layer>
		<layer id="130" name="458" type="Add" version="opset1">
			<data auto_broadcast="numpy"/>
			<rt_info>
				<attribute name="fused_names" version="0" value="458, blocks_down.0.bd_out.bn.bias, blocks_down.0.bd_out.bn.running_mean, blocks_down.0.bd_out.bn.running_var, blocks_down.0.bd_out.bn.weight"/>
			</rt_info>
			<input>
				<port id="0" precision="FP32">
					<dim>1</dim>
					<dim>34</dim>
					<dim>129</dim>
					<dim>16</dim>
				</port>
				<port id="1" precision="FP32">
					<dim>1</dim>
					<dim>34</dim>
					<dim>1</dim>
					<dim>1</dim>
				</port>
			</input>
			<output>
				<port id="2" precision="FP32" names="458">
					<dim>1</dim>
					<dim>34</dim>
					<dim>129</dim>
					<dim>16</dim>
				</port>
			</output>
		</layer>
		<layer id="131" name="Constant_1270_compressed" type="Const" version="opset1">
			<data element_type="f16" shape="1" offset="132212" size="2"/>
			<output>
				<port id="0" precision="FP16">
					<dim>1</dim>
				</port>
			</output>
		</layer>
		<layer id="132" name="Constant_1270" type="Convert" version="opset1">
			<data destination_type="f32"/>
			<rt_info>
				<attribute name="decompression" version="0"/>
				<attribute name="fused_names" version="0" value="Constant_1270"/>
			</rt_info>
			<input>
				<port id="0" precision="FP16">
					<dim>1</dim>
				</port>
			</input>
			<output>
				<port id="1" precision="FP32">
					<dim>1</dim>
				</port>
			</output>
		</layer>
		<layer id="133" name="459" type="PReLU" version="opset1">
			<rt_info>
				<attribute name="fused_names" version="0" value="459"/>
			</rt_info>
			<input>
				<port id="0" precision="FP32">
					<dim>1</dim>
					<dim>34</dim>
					<dim>129</dim>
					<dim>16</dim>
				</port>
				<port id="1" precision="FP32">
					<dim>1</dim>
				</port>
			</input>
			<output>
				<port id="2" precision="FP32" names="459">
					<dim>1</dim>
					<dim>34</dim>
					<dim>129</dim>
					<dim>16</dim>
				</port>
			</output>
		</layer>
		<layer id="134" name="460" type="Concat" version="opset1">
			<data axis="3"/>
			<rt_info>
				<attribute name="fused_names" version="0" value="460"/>
			</rt_info>
			<input>
				<port id="0" precision="FP32">
					<dim>1</dim>
					<dim>34</dim>
					<dim>129</dim>
					<dim>2</dim>
				</port>
				<port id="1" precision="FP32">
					<dim>1</dim>
					<dim>34</dim>
					<dim>129</dim>
					<dim>16</dim>
				</port>
			</input>
			<output>
				<port id="2" precision="FP32" names="460">
					<dim>1</dim>
					<dim>34</dim>
					<dim>129</dim>
					<dim>18</dim>
				</port>
			</output>
		</layer>
		<layer id="135" name="blocks_down.0.bd_out.conv.weight_compressed" type="Const" version="opset1">
			<data element_type="f16" shape="32, 34, 3, 3" offset="138246" size="19584"/>
			<output>
				<port id="0" precision="FP16">
					<dim>32</dim>
					<dim>34</dim>
					<dim>3</dim>
					<dim>3</dim>
				</port>
			</output>
		</layer>
		<layer id="136" name="blocks_down.0.bd_out.conv.weight" type="Convert" version="opset1">
			<data destination_type="f32"/>
			<rt_info>
				<attribute name="decompression" version="0"/>
				<attribute name="fused_names" version="0" value="blocks_down.0.bd_out.conv.weight"/>
			</rt_info>
			<input>
				<port id="0" precision="FP16">
					<dim>32</dim>
					<dim>34</dim>
					<dim>3</dim>
					<dim>3</dim>
				</port>
			</input>
			<output>
				<port id="1" precision="FP32" names="blocks_down.0.bd_out.conv.weight">
					<dim>32</dim>
					<dim>34</dim>
					<dim>3</dim>
					<dim>3</dim>
				</port>
			</output>
		</layer>
		<layer id="137" name="Convolution_1473" type="Convolution" version="opset1">
			<data strides="1, 1" dilations="1, 1" pads_begin="1, 0" pads_end="1, 0" auto_pad="explicit"/>
			<rt_info>
				<attribute name="fused_names" version="0" value="497, Convolution_1473, Split_1405"/>
			</rt_info>
			<input>
				<port id="0" precision="FP32">
					<dim>1</dim>
					<dim>34</dim>
					<dim>129</dim>
					<dim>18</dim>
				</port>
				<port id="1" precision="FP32">
					<dim>32</dim>
					<dim>34</dim>
					<dim>3</dim>
					<dim>3</dim>
				</port>
			</input>
			<output>
				<port id="2" precision="FP32">
					<dim>1</dim>
					<dim>32</dim>
					<dim>129</dim>
					<dim>16</dim>
				</port>
			</output>
		</layer>
		<layer id="138" name="Reshape_1493_compressed" type="Const" version="opset1">
			<data element_type="f16" shape="1, 32, 1, 1" offset="157830" size="64"/>
			<output>
				<port id="0" precision="FP16">
					<dim>1</dim>
					<dim>32</dim>
					<dim>1</dim>
					<dim>1</dim>
				</port>
			</output>
		</layer>
		<layer id="139" name="Reshape_1493" type="Convert" version="opset1">
			<data destination_type="f32"/>
			<rt_info>
				<attribute name="decompression" version="0"/>
			</rt_info>
			<input>
				<port id="0" precision="FP16">
					<dim>1</dim>
					<dim>32</dim>
					<dim>1</dim>
					<dim>1</dim>
				</port>
			</input>
			<output>
				<port id="1" precision="FP32">
					<dim>1</dim>
					<dim>32</dim>
					<dim>1</dim>
					<dim>1</dim>
				</port>
			</output>
		</layer>
		<layer id="140" name="498" type="Add" version="opset1">
			<data auto_broadcast="numpy"/>
			<rt_info>
				<attribute name="fused_names" version="0" value="498, Concat_1492, Reshape_1493"/>
			</rt_info>
			<input>
				<port id="0" precision="FP32">
					<dim>1</dim>
					<dim>32</dim>
					<dim>129</dim>
					<dim>16</dim>
				</port>
				<port id="1" precision="FP32">
					<dim>1</dim>
					<dim>32</dim>
					<dim>1</dim>
					<dim>1</dim>
				</port>
			</input>
			<output>
				<port id="2" precision="FP32" names="498">
					<dim>1</dim>
					<dim>32</dim>
					<dim>129</dim>
					<dim>16</dim>
				</port>
			</output>
		</layer>
		<layer id="141" name="blocks_down.0.sa.linear_qkv.weight_compressed" type="Const" version="opset1">
			<data element_type="f16" shape="96, 32, 1, 1" offset="157894" size="6144"/>
			<output>
				<port id="0" precision="FP16">
					<dim>96</dim>
					<dim>32</dim>
					<dim>1</dim>
					<dim>1</dim>
				</port>
			</output>
		</layer>
		<layer id="142" name="blocks_down.0.sa.linear_qkv.weight" type="Convert" version="opset1">
			<data destination_type="f32"/>
			<rt_info>
				<attribute name="decompression" version="0"/>
				<attribute name="fused_names" version="0" value="blocks_down.0.sa.linear_qkv.weight"/>
			</rt_info>
			<input>
				<port id="0" precision="FP16">
					<dim>96</dim>
					<dim>32</dim>
					<dim>1</dim>
					<dim>1</dim>
				</port>
			</input>
			<output>
				<port id="1" precision="FP32" names="blocks_down.0.sa.linear_qkv.weight">
					<dim>96</dim>
					<dim>32</dim>
					<dim>1</dim>
					<dim>1</dim>
				</port>
			</output>
		</layer>
		<layer id="143" name="Convolution_1533" type="Convolution" version="opset1">
			<data strides="1, 1" dilations="1, 1" pads_begin="0, 0" pads_end="0, 0" auto_pad="explicit"/>
			<rt_info>
				<attribute name="fused_names" version="0" value="Convolution_1533"/>
			</rt_info>
			<input>
				<port id="0" precision="FP32">
					<dim>1</dim>
					<dim>32</dim>
					<dim>129</dim>
					<dim>16</dim>
				</port>
				<port id="1" precision="FP32">
					<dim>96</dim>
					<dim>32</dim>
					<dim>1</dim>
					<dim>1</dim>
				</port>
			</input>
			<output>
				<port id="2" precision="FP32">
					<dim>1</dim>
					<dim>96</dim>
					<dim>129</dim>
					<dim>16</dim>
				</port>
			</output>
		</layer>
		<layer id="144" name="Reshape_1553_compressed" type="Const" version="opset1">
			<data element_type="f16" shape="1, 96, 1, 1" offset="164038" size="192"/>
			<output>
				<port id="0" precision="FP16">
					<dim>1</dim>
					<dim>96</dim>
					<dim>1</dim>
					<dim>1</dim>
				</port>
			</output>
		</layer>
		<layer id="145" name="Reshape_1553" type="Convert" version="opset1">
			<data destination_type="f32"/>
			<rt_info>
				<attribute name="decompression" version="0"/>
			</rt_info>
			<input>
				<port id="0" precision="FP16">
					<dim>1</dim>
					<dim>96</dim>
					<dim>1</dim>
					<dim>1</dim>
				</port>
			</input>
			<output>
				<port id="1" precision="FP32">
					<dim>1</dim>
					<dim>96</dim>
					<dim>1</dim>
					<dim>1</dim>
				</port>
			</output>
		</layer>
		<layer id="146" name="508" type="Add" version="opset1">
			<data auto_broadcast="numpy"/>
			<rt_info>
				<attribute name="fused_names" version="0" value="508, Concat_1552, Reshape_1553"/>
			</rt_info>
			<input>
				<port id="0" precision="FP32">
					<dim>1</dim>
					<dim>96</dim>
					<dim>129</dim>
					<dim>16</dim>
				</port>
				<port id="1" precision="FP32">
					<dim>1</dim>
					<dim>96</dim>
					<dim>1</dim>
					<dim>1</dim>
				</port>
			</input>
			<output>
				<port id="2" precision="FP32" names="508">
					<dim>1</dim>
					<dim>96</dim>
					<dim>129</dim>
					<dim>16</dim>
				</port>
			</output>
		</layer>
		<layer id="147" name="Constant_1581" type="Const" version="opset1">
			<data element_type="i64" shape="4" offset="164230" size="32"/>
			<rt_info>
				<attribute name="fused_names" version="0" value="Constant_1581"/>
			</rt_info>
			<output>
				<port id="0" precision="I64">
					<dim>4</dim>
				</port>
			</output>
		</layer>
		<layer id="148" name="509" type="Transpose" version="opset1">
			<rt_info>
				<attribute name="fused_names" version="0" value="509"/>
			</rt_info>
			<input>
				<port id="0" precision="FP32">
					<dim>1</dim>
					<dim>96</dim>
					<dim>129</dim>
					<dim>16</dim>
				</port>
				<port id="1" precision="I64">
					<dim>4</dim>
				</port>
			</input>
			<output>
				<port id="2" precision="FP32" names="509">
					<dim>1</dim>
					<dim>129</dim>
					<dim>96</dim>
					<dim>16</dim>
				</port>
			</output>
		</layer>
		<layer id="149" name="Constant_1583" type="Const" version="opset1">
			<data element_type="i64" shape="" offset="8" size="8"/>
			<rt_info>
				<attribute name="fused_names" version="0" value="Constant_1583"/>
			</rt_info>
			<output>
				<port id="0" precision="I64"/>
			</output>
		</layer>
		<layer id="150" name="Constant_1584" type="Const" version="opset1">
			<data element_type="i64" shape="3" offset="164262" size="24"/>
			<rt_info>
				<attribute name="fused_names" version="0" value="Constant_1584"/>
			</rt_info>
			<output>
				<port id="0" precision="I64">
					<dim>3</dim>
				</port>
			</output>
		</layer>
		<layer id="151" name="512" type="VariadicSplit" version="opset1">
			<rt_info>
				<attribute name="fused_names" version="0" value="512"/>
			</rt_info>
			<input>
				<port id="0" precision="FP32">
					<dim>1</dim>
					<dim>129</dim>
					<dim>96</dim>
					<dim>16</dim>
				</port>
				<port id="1" precision="I64"/>
				<port id="2" precision="I64">
					<dim>3</dim>
				</port>
			</input>
			<output>
				<port id="3" precision="FP32" names="510">
					<dim>1</dim>
					<dim>129</dim>
					<dim>32</dim>
					<dim>16</dim>
				</port>
				<port id="4" precision="FP32" names="511">
					<dim>1</dim>
					<dim>129</dim>
					<dim>32</dim>
					<dim>16</dim>
				</port>
				<port id="5" precision="FP32" names="512">
					<dim>1</dim>
					<dim>129</dim>
					<dim>32</dim>
					<dim>16</dim>
				</port>
			</output>
		</layer>
		<layer id="152" name="499" type="ShapeOf" version="opset3">
			<data output_type="i64"/>
			<rt_info>
				<attribute name="fused_names" version="0" value="499, 502, 505"/>
			</rt_info>
			<input>
				<port id="0" precision="FP32">
					<dim>1</dim>
					<dim>32</dim>
					<dim>129</dim>
					<dim>16</dim>
				</port>
			</input>
			<output>
				<port id="1" precision="I64" names="499,502,505">
					<dim>4</dim>
				</port>
			</output>
		</layer>
		<layer id="153" name="500" type="Const" version="opset1">
			<data element_type="i64" shape="" offset="132112" size="8"/>
			<rt_info>
				<attribute name="fused_names" version="0" value="500"/>
			</rt_info>
			<output>
				<port id="0" precision="I64" names="500"/>
			</output>
		</layer>
		<layer id="154" name="Constant_1523" type="Const" version="opset1">
			<data element_type="i64" shape="" offset="132112" size="8"/>
			<rt_info>
				<attribute name="fused_names" version="0" value="Constant_1523"/>
			</rt_info>
			<output>
				<port id="0" precision="I64"/>
			</output>
		</layer>
		<layer id="155" name="501" type="Gather" version="opset8">
			<data batch_dims="0"/>
			<rt_info>
				<attribute name="fused_names" version="0" value="500, 501, Constant_1523"/>
			</rt_info>
			<input>
				<port id="0" precision="I64">
					<dim>4</dim>
				</port>
				<port id="1" precision="I64"/>
				<port id="2" precision="I64"/>
			</input>
			<output>
				<port id="3" precision="I64" names="501"/>
			</output>
		</layer>
		<layer id="156" name="506" type="Const" version="opset1">
			<data element_type="i64" shape="" offset="8" size="8"/>
			<rt_info>
				<attribute name="fused_names" version="0" value="506"/>
			</rt_info>
			<output>
				<port id="0" precision="I64" names="506"/>
			</output>
		</layer>
		<layer id="157" name="Constant_1531" type="Const" version="opset1">
			<data element_type="i64" shape="" offset="132112" size="8"/>
			<rt_info>
				<attribute name="fused_names" version="0" value="Constant_1531"/>
			</rt_info>
			<output>
				<port id="0" precision="I64"/>
			</output>
		</layer>
		<layer id="158" name="507" type="Gather" version="opset8">
			<data batch_dims="0"/>
			<rt_info>
				<attribute name="fused_names" version="0" value="506, 507, Constant_1531"/>
			</rt_info>
			<input>
				<port id="0" precision="I64">
					<dim>4</dim>
				</port>
				<port id="1" precision="I64"/>
				<port id="2" precision="I64"/>
			</input>
			<output>
				<port id="3" precision="I64" names="507"/>
			</output>
		</layer>
		<layer id="159" name="547" type="Multiply" version="opset1">
			<data auto_broadcast="numpy"/>
			<rt_info>
				<attribute name="fused_names" version="0" value="547"/>
			</rt_info>
			<input>
				<port id="0" precision="I64"/>
				<port id="1" precision="I64"/>
			</input>
			<output>
				<port id="2" precision="I64" names="547"/>
			</output>
		</layer>
		<layer id="160" name="Constant_1795" type="Const" version="opset1">
			<data element_type="i64" shape="1" offset="132112" size="8"/>
			<rt_info>
				<attribute name="fused_names" version="0" value="Constant_1795"/>
			</rt_info>
			<output>
				<port id="0" precision="I64">
					<dim>1</dim>
				</port>
			</output>
		</layer>
		<layer id="161" name="550" type="Unsqueeze" version="opset1">
			<rt_info>
				<attribute name="fused_names" version="0" value="550, Constant_1795"/>
			</rt_info>
			<input>
				<port id="0" precision="I64"/>
				<port id="1" precision="I64">
					<dim>1</dim>
				</port>
			</input>
			<output>
				<port id="2" precision="I64" names="550">
					<dim>1</dim>
				</port>
			</output>
		</layer>
		<layer id="162" name="3195" type="Const" version="opset1">
			<data element_type="i64" shape="1" offset="0" size="8"/>
			<rt_info>
				<attribute name="fused_names" version="0" value="3195"/>
			</rt_info>
			<output>
				<port id="0" precision="I64" names="3195">
					<dim>1</dim>
				</port>
			</output>
		</layer>
		<layer id="163" name="3196" type="Const" version="opset1">
			<data element_type="i64" shape="1" offset="164286" size="8"/>
			<rt_info>
				<attribute name="fused_names" version="0" value="3196"/>
			</rt_info>
			<output>
				<port id="0" precision="I64" names="3196">
					<dim>1</dim>
				</port>
			</output>
		</layer>
		<layer id="164" name="Constant_148407" type="Const" version="opset1">
			<data element_type="i64" shape="1" offset="132112" size="8"/>
			<output>
				<port id="0" precision="I64">
					<dim>1</dim>
				</port>
			</output>
		</layer>
		<layer id="165" name="554" type="Concat" version="opset1">
			<data axis="0"/>
			<rt_info>
				<attribute name="fused_names" version="0" value="3195, 3196, 554"/>
			</rt_info>
			<input>
				<port id="0" precision="I64">
					<dim>1</dim>
				</port>
				<port id="1" precision="I64">
					<dim>1</dim>
				</port>
				<port id="2" precision="I64">
					<dim>1</dim>
				</port>
				<port id="3" precision="I64">
					<dim>1</dim>
				</port>
			</input>
			<output>
				<port id="4" precision="I64">
					<dim>4</dim>
				</port>
			</output>
		</layer>
		<layer id="166" name="555" type="Reshape" version="opset1">
			<data special_zero="true"/>
			<rt_info>
				<attribute name="fused_names" version="0" value="555"/>
			</rt_info>
			<input>
				<port id="0" precision="FP32">
					<dim>1</dim>
					<dim>129</dim>
					<dim>32</dim>
					<dim>16</dim>
				</port>
				<port id="1" precision="I64">
					<dim>4</dim>
				</port>
			</input>
			<output>
				<port id="2" precision="FP32" names="555">
					<dim>129</dim>
					<dim>1</dim>
					<dim>32</dim>
					<dim>16</dim>
				</port>
			</output>
		</layer>
		<layer id="167" name="Constant_2001" type="Const" version="opset1">
			<data element_type="i64" shape="4" offset="164294" size="32"/>
			<rt_info>
				<attribute name="fused_names" version="0" value="Constant_2001"/>
			</rt_info>
			<output>
				<port id="0" precision="I64">
					<dim>4</dim>
				</port>
			</output>
		</layer>
		<layer id="168" name="574" type="Transpose" version="opset1">
			<rt_info>
				<attribute name="fused_names" version="0" value="574"/>
			</rt_info>
			<input>
				<port id="0" precision="FP32">
					<dim>129</dim>
					<dim>1</dim>
					<dim>32</dim>
					<dim>16</dim>
				</port>
				<port id="1" precision="I64">
					<dim>4</dim>
				</port>
			</input>
			<output>
				<port id="2" precision="FP32" names="574">
					<dim>129</dim>
					<dim>1</dim>
					<dim>16</dim>
					<dim>32</dim>
				</port>
			</output>
		</layer>
		<layer id="169" name="513" type="Concat" version="opset1">
			<data axis="3"/>
			<rt_info>
				<attribute name="fused_names" version="0" value="513"/>
			</rt_info>
			<input>
				<port id="0" precision="FP32">
					<dim>1</dim>
					<dim>129</dim>
					<dim>32</dim>
					<dim>32</dim>
				</port>
				<port id="1" precision="FP32">
					<dim>1</dim>
					<dim>129</dim>
					<dim>32</dim>
					<dim>16</dim>
				</port>
			</input>
			<output>
				<port id="2" precision="FP32" names="513">
					<dim>1</dim>
					<dim>129</dim>
					<dim>32</dim>
					<dim>48</dim>
				</port>
			</output>
		</layer>
		<layer id="170" name="556" type="Multiply" version="opset1">
			<data auto_broadcast="numpy"/>
			<rt_info>
				<attribute name="fused_names" version="0" value="556"/>
			</rt_info>
			<input>
				<port id="0" precision="I64"/>
				<port id="1" precision="I64"/>
			</input>
			<output>
				<port id="2" precision="I64" names="556"/>
			</output>
		</layer>
		<layer id="171" name="Constant_1864" type="Const" version="opset1">
			<data element_type="i64" shape="1" offset="132112" size="8"/>
			<rt_info>
				<attribute name="fused_names" version="0" value="Constant_1864"/>
			</rt_info>
			<output>
				<port id="0" precision="I64">
					<dim>1</dim>
				</port>
			</output>
		</layer>
		<layer id="172" name="559" type="Unsqueeze" version="opset1">
			<rt_info>
				<attribute name="fused_names" version="0" value="559, Constant_1864"/>
			</rt_info>
			<input>
				<port id="0" precision="I64"/>
				<port id="1" precision="I64">
					<dim>1</dim>
				</port>
			</input>
			<output>
				<port id="2" precision="I64" names="559">
					<dim>1</dim>
				</port>
			</output>
		</layer>
		<layer id="173" name="3197" type="Const" version="opset1">
			<data element_type="i64" shape="1" offset="0" size="8"/>
			<rt_info>
				<attribute name="fused_names" version="0" value="3197"/>
			</rt_info>
			<output>
				<port id="0" precision="I64" names="3197">
					<dim>1</dim>
				</port>
			</output>
		</layer>
		<layer id="174" name="3198" type="Const" version="opset1">
			<data element_type="i64" shape="1" offset="164286" size="8"/>
			<rt_info>
				<attribute name="fused_names" version="0" value="3198"/>
			</rt_info>
			<output>
				<port id="0" precision="I64" names="3198">
					<dim>1</dim>
				</port>
			</output>
		</layer>
		<layer id="175" name="Constant_148607" type="Const" version="opset1">
			<data element_type="i64" shape="1" offset="132112" size="8"/>
			<output>
				<port id="0" precision="I64">
					<dim>1</dim>
				</port>
			</output>
		</layer>
		<layer id="176" name="563" type="Concat" version="opset1">
			<data axis="0"/>
			<rt_info>
				<attribute name="fused_names" version="0" value="3197, 3198, 563"/>
			</rt_info>
			<input>
				<port id="0" precision="I64">
					<dim>1</dim>
				</port>
				<port id="1" precision="I64">
					<dim>1</dim>
				</port>
				<port id="2" precision="I64">
					<dim>1</dim>
				</port>
				<port id="3" precision="I64">
					<dim>1</dim>
				</port>
			</input>
			<output>
				<port id="4" precision="I64">
					<dim>4</dim>
				</port>
			</output>
		</layer>
		<layer id="177" name="564" type="Reshape" version="opset1">
			<data special_zero="true"/>
			<rt_info>
				<attribute name="fused_names" version="0" value="564"/>
			</rt_info>
			<input>
				<port id="0" precision="FP32">
					<dim>1</dim>
					<dim>129</dim>
					<dim>32</dim>
					<dim>48</dim>
				</port>
				<port id="1" precision="I64">
					<dim>4</dim>
				</port>
			</input>
			<output>
				<port id="2" precision="FP32" names="564">
					<dim>129</dim>
					<dim>1</dim>
					<dim>32</dim>
					<dim>48</dim>
				</port>
			</output>
		</layer>
		<layer id="178" name="Constant_289826_compressed" type="Const" version="opset1">
			<data element_type="f16" shape="1, 1, 1, 1" offset="164326" size="2"/>
			<output>
				<port id="0" precision="FP16">
					<dim>1</dim>
					<dim>1</dim>
					<dim>1</dim>
					<dim>1</dim>
				</port>
			</output>
		</layer>
		<layer id="179" name="Constant_289826" type="Convert" version="opset1">
			<data destination_type="f32"/>
			<rt_info>
				<attribute name="decompression" version="0"/>
			</rt_info>
			<input>
				<port id="0" precision="FP16">
					<dim>1</dim>
					<dim>1</dim>
					<dim>1</dim>
					<dim>1</dim>
				</port>
			</input>
			<output>
				<port id="1" precision="FP32">
					<dim>1</dim>
					<dim>1</dim>
					<dim>1</dim>
					<dim>1</dim>
				</port>
			</output>
		</layer>
		<layer id="180" name="Multiply_289403" type="Multiply" version="opset1">
			<data auto_broadcast="numpy"/>
			<rt_info>
				<attribute name="fused_names" version="0" value="564, 578, 579, 580"/>
			</rt_info>
			<input>
				<port id="0" precision="FP32">
					<dim>129</dim>
					<dim>1</dim>
					<dim>32</dim>
					<dim>48</dim>
				</port>
				<port id="1" precision="FP32">
					<dim>1</dim>
					<dim>1</dim>
					<dim>1</dim>
					<dim>1</dim>
				</port>
			</input>
			<output>
				<port id="2" precision="FP32">
					<dim>129</dim>
					<dim>1</dim>
					<dim>32</dim>
					<dim>48</dim>
				</port>
			</output>
		</layer>
		<layer id="181" name="580" type="MatMul" version="opset1">
			<data transpose_a="false" transpose_b="false"/>
			<rt_info>
				<attribute name="fused_names" version="0" value="564, 578, 579, 580"/>
			</rt_info>
			<input>
				<port id="0" precision="FP32">
					<dim>129</dim>
					<dim>1</dim>
					<dim>16</dim>
					<dim>32</dim>
				</port>
				<port id="1" precision="FP32">
					<dim>129</dim>
					<dim>1</dim>
					<dim>32</dim>
					<dim>48</dim>
				</port>
			</input>
			<output>
				<port id="2" precision="FP32" names="580">
					<dim>129</dim>
					<dim>1</dim>
					<dim>16</dim>
					<dim>48</dim>
				</port>
			</output>
		</layer>
		<layer id="182" name="Constant_2016_compressed" type="Const" version="opset1">
			<data element_type="f16" shape="" offset="164328" size="2"/>
			<output>
				<port id="0" precision="FP16"/>
			</output>
		</layer>
		<layer id="183" name="Constant_2016" type="Convert" version="opset1">
			<data destination_type="f32"/>
			<rt_info>
				<attribute name="decompression" version="0"/>
				<attribute name="fused_names" version="0" value="Constant_2016"/>
			</rt_info>
			<input>
				<port id="0" precision="FP16"/>
			</input>
			<output>
				<port id="1" precision="FP32"/>
			</output>
		</layer>
		<layer id="184" name="541" type="ShapeOf" version="opset3">
			<data output_type="i64"/>
			<rt_info>
				<attribute name="fused_names" version="0" value="541"/>
			</rt_info>
			<input>
				<port id="0" precision="FP32">
					<dim>1</dim>
					<dim>129</dim>
					<dim>32</dim>
					<dim>16</dim>
				</port>
			</input>
			<output>
				<port id="1" precision="I64" names="541">
					<dim>4</dim>
				</port>
			</output>
		</layer>
		<layer id="185" name="542" type="Const" version="opset1">
			<data element_type="i64" shape="" offset="132152" size="8"/>
			<rt_info>
				<attribute name="fused_names" version="0" value="542"/>
			</rt_info>
			<output>
				<port id="0" precision="I64" names="542"/>
			</output>
		</layer>
		<layer id="186" name="Constant_1788" type="Const" version="opset1">
			<data element_type="i64" shape="" offset="132112" size="8"/>
			<rt_info>
				<attribute name="fused_names" version="0" value="Constant_1788"/>
			</rt_info>
			<output>
				<port id="0" precision="I64"/>
			</output>
		</layer>
		<layer id="187" name="543" type="Gather" version="opset8">
			<data batch_dims="0"/>
			<rt_info>
				<attribute name="fused_names" version="0" value="542, 543, 581, 582, Constant_1788"/>
			</rt_info>
			<input>
				<port id="0" precision="I64">
					<dim>4</dim>
				</port>
				<port id="1" precision="I64"/>
				<port id="2" precision="I64"/>
			</input>
			<output>
				<port id="3" precision="I64" names="543,582"/>
			</output>
		</layer>
		<layer id="188" name="Constant_2012" type="Const" version="opset1">
			<data element_type="i64" shape="1" offset="132112" size="8"/>
			<rt_info>
				<attribute name="fused_names" version="0" value="Constant_2012"/>
			</rt_info>
			<output>
				<port id="0" precision="I64">
					<dim>1</dim>
				</port>
			</output>
		</layer>
		<layer id="189" name="584" type="Unsqueeze" version="opset1">
			<rt_info>
				<attribute name="fused_names" version="0" value="584, Constant_2012"/>
			</rt_info>
			<input>
				<port id="0" precision="I64"/>
				<port id="1" precision="I64">
					<dim>1</dim>
				</port>
			</input>
			<output>
				<port id="2" precision="I64" names="584">
					<dim>1</dim>
				</port>
			</output>
		</layer>
		<layer id="190" name="3201" type="Const" version="opset1">
			<data element_type="i64" shape="1" offset="164330" size="8"/>
			<rt_info>
				<attribute name="fused_names" version="0" value="3201"/>
			</rt_info>
			<output>
				<port id="0" precision="I64" names="3201">
					<dim>1</dim>
				</port>
			</output>
		</layer>
		<layer id="191" name="586" type="Concat" version="opset1">
			<data axis="0"/>
			<rt_info>
				<attribute name="fused_names" version="0" value="3201, 586"/>
			</rt_info>
			<input>
				<port id="0" precision="I64">
					<dim>1</dim>
				</port>
				<port id="1" precision="I64">
					<dim>1</dim>
				</port>
			</input>
			<output>
				<port id="2" precision="I64" names="586">
					<dim>2</dim>
				</port>
			</output>
		</layer>
		<layer id="192" name="587" type="Broadcast" version="opset3">
			<data mode="numpy"/>
			<rt_info>
				<attribute name="fused_names" version="0" value="587"/>
			</rt_info>
			<input>
				<port id="0" precision="FP32"/>
				<port id="1" precision="I64">
					<dim>2</dim>
				</port>
			</input>
			<output>
				<port id="2" precision="FP32" names="587">
					<dim>16</dim>
					<dim>33</dim>
				</port>
			</output>
		</layer>
		<layer id="193" name="3203" type="Const" version="opset1">
			<data element_type="i64" shape="1" offset="132112" size="8"/>
			<rt_info>
				<attribute name="fused_names" version="0" value="3203"/>
			</rt_info>
			<output>
				<port id="0" precision="I64" names="3203">
					<dim>1</dim>
				</port>
			</output>
		</layer>
		<layer id="194" name="Constant_2053" type="Const" version="opset1">
			<data element_type="i64" shape="1" offset="132112" size="8"/>
			<rt_info>
				<attribute name="fused_names" version="0" value="Constant_2053"/>
			</rt_info>
			<output>
				<port id="0" precision="I64">
					<dim>1</dim>
				</port>
			</output>
		</layer>
		<layer id="195" name="593" type="Unsqueeze" version="opset1">
			<rt_info>
				<attribute name="fused_names" version="0" value="593, Constant_2053"/>
			</rt_info>
			<input>
				<port id="0" precision="I64"/>
				<port id="1" precision="I64">
					<dim>1</dim>
				</port>
			</input>
			<output>
				<port id="2" precision="I64" names="593">
					<dim>1</dim>
				</port>
			</output>
		</layer>
		<layer id="196" name="594" type="Concat" version="opset1">
			<data axis="0"/>
			<rt_info>
				<attribute name="fused_names" version="0" value="3203, 594, 602"/>
			</rt_info>
			<input>
				<port id="0" precision="I64">
					<dim>1</dim>
				</port>
				<port id="1" precision="I64">
					<dim>1</dim>
				</port>
			</input>
			<output>
				<port id="2" precision="I64" names="594,602">
					<dim>2</dim>
				</port>
			</output>
		</layer>
		<layer id="197" name="603" type="Const" version="opset1">
			<data element_type="i64" shape="2" offset="164338" size="16"/>
			<output>
				<port id="0" precision="I64" names="603">
					<dim>2</dim>
				</port>
			</output>
		</layer>
		<layer id="198" name="604" type="Concat" version="opset1">
			<data axis="0"/>
			<rt_info>
				<attribute name="fused_names" version="0" value="596, 597, 601, 603, 604"/>
			</rt_info>
			<input>
				<port id="0" precision="I64">
					<dim>2</dim>
				</port>
				<port id="1" precision="I64">
					<dim>2</dim>
				</port>
			</input>
			<output>
				<port id="2" precision="I64" names="604">
					<dim>4</dim>
				</port>
			</output>
		</layer>
		<layer id="199" name="605" type="Const" version="opset1">
			<data element_type="i64" shape="2" offset="164354" size="16"/>
			<rt_info>
				<attribute name="fused_names" version="0" value="605"/>
			</rt_info>
			<output>
				<port id="0" precision="I64" names="605">
					<dim>2</dim>
				</port>
			</output>
		</layer>
		<layer id="200" name="606" type="Reshape" version="opset1">
			<data special_zero="true"/>
			<rt_info>
				<attribute name="fused_names" version="0" value="605, 606"/>
			</rt_info>
			<input>
				<port id="0" precision="I64">
					<dim>4</dim>
				</port>
				<port id="1" precision="I64">
					<dim>2</dim>
				</port>
			</input>
			<output>
				<port id="2" precision="I64" names="606">
					<dim>2</dim>
					<dim>2</dim>
				</port>
			</output>
		</layer>
		<layer id="201" name="608" type="Const" version="opset1">
			<data element_type="i64" shape="1" offset="164370" size="8"/>
			<rt_info>
				<attribute name="fused_names" version="0" value="607, 608, 609, 610, 611"/>
			</rt_info>
			<output>
				<port id="0" precision="I64" names="608">
					<dim>1</dim>
				</port>
			</output>
		</layer>
		<layer id="202" name="609" type="Const" version="opset1">
			<data element_type="i64" shape="1" offset="164378" size="8"/>
			<rt_info>
				<attribute name="fused_names" version="0" value="607, 608, 609, 610, 611"/>
			</rt_info>
			<output>
				<port id="0" precision="I64" names="609">
					<dim>1</dim>
				</port>
			</output>
		</layer>
		<layer id="203" name="610" type="Const" version="opset1">
			<data element_type="i64" shape="1" offset="164370" size="8"/>
			<rt_info>
				<attribute name="fused_names" version="0" value="607, 608, 609, 610, 611"/>
			</rt_info>
			<output>
				<port id="0" precision="I64" names="610">
					<dim>1</dim>
				</port>
			</output>
		</layer>
		<layer id="204" name="611" type="StridedSlice" version="opset1">
			<data begin_mask="0" end_mask="0" new_axis_mask="" shrink_axis_mask="" ellipsis_mask=""/>
			<rt_info>
				<attribute name="fused_names" version="0" value="607, 608, 609, 610, 611"/>
			</rt_info>
			<input>
				<port id="0" precision="I64">
					<dim>2</dim>
					<dim>2</dim>
				</port>
				<port id="1" precision="I64">
					<dim>1</dim>
				</port>
				<port id="2" precision="I64">
					<dim>1</dim>
				</port>
				<port id="3" precision="I64">
					<dim>1</dim>
				</port>
			</input>
			<output>
				<port id="4" precision="I64" names="611">
					<dim>2</dim>
					<dim>2</dim>
				</port>
			</output>
		</layer>
		<layer id="205" name="Constant_2098" type="Const" version="opset1">
			<data element_type="i64" shape="2" offset="164386" size="16"/>
			<rt_info>
				<attribute name="fused_names" version="0" value="Constant_2098"/>
			</rt_info>
			<output>
				<port id="0" precision="I64">
					<dim>2</dim>
				</port>
			</output>
		</layer>
		<layer id="206" name="612" type="Transpose" version="opset1">
			<rt_info>
				<attribute name="fused_names" version="0" value="612, Constant_2098"/>
			</rt_info>
			<input>
				<port id="0" precision="I64">
					<dim>2</dim>
					<dim>2</dim>
				</port>
				<port id="1" precision="I64">
					<dim>2</dim>
				</port>
			</input>
			<output>
				<port id="2" precision="I64" names="612">
					<dim>2</dim>
					<dim>2</dim>
				</port>
			</output>
		</layer>
		<layer id="207" name="613" type="Const" version="opset1">
			<data element_type="i64" shape="1" offset="164370" size="8"/>
			<rt_info>
				<attribute name="fused_names" version="0" value="613"/>
			</rt_info>
			<output>
				<port id="0" precision="I64" names="613">
					<dim>1</dim>
				</port>
			</output>
		</layer>
		<layer id="208" name="614" type="Reshape" version="opset1">
			<data special_zero="true"/>
			<rt_info>
				<attribute name="fused_names" version="0" value="613, 614, 615"/>
			</rt_info>
			<input>
				<port id="0" precision="I64">
					<dim>2</dim>
					<dim>2</dim>
				</port>
				<port id="1" precision="I64">
					<dim>1</dim>
				</port>
			</input>
			<output>
				<port id="2" precision="I64" names="614,615">
					<dim>4</dim>
				</port>
			</output>
		</layer>
		<layer id="209" name="Constant_2109" type="Const" version="opset1">
			<data element_type="i64" shape="" offset="132112" size="8"/>
			<rt_info>
				<attribute name="fused_names" version="0" value="Constant_2109"/>
			</rt_info>
			<output>
				<port id="0" precision="I64"/>
			</output>
		</layer>
		<layer id="210" name="Split_2110" type="Split" version="opset1">
			<data num_splits="2"/>
			<rt_info>
				<attribute name="fused_names" version="0" value="Constant_2109, Split_2110"/>
			</rt_info>
			<input>
				<port id="0" precision="I64">
					<dim>4</dim>
				</port>
				<port id="1" precision="I64"/>
			</input>
			<output>
				<port id="2" precision="I64">
					<dim>2</dim>
				</port>
				<port id="3" precision="I64">
					<dim>2</dim>
				</port>
			</output>
		</layer>
		<layer id="211" name="616_compressed" type="Const" version="opset1">
			<data element_type="f16" shape="" offset="164402" size="2"/>
			<output>
				<port id="0" precision="FP16"/>
			</output>
		</layer>
		<layer id="212" name="616" type="Convert" version="opset1">
			<data destination_type="f32"/>
			<rt_info>
				<attribute name="decompression" version="0"/>
				<attribute name="fused_names" version="0" value="616"/>
			</rt_info>
			<input>
				<port id="0" precision="FP16"/>
			</input>
			<output>
				<port id="1" precision="FP32" names="616"/>
			</output>
		</layer>
		<layer id="213" name="617" type="Pad" version="opset1">
			<data pad_mode="constant"/>
			<rt_info>
				<attribute name="fused_names" version="0" value="617"/>
			</rt_info>
			<input>
				<port id="0" precision="FP32">
					<dim>16</dim>
					<dim>33</dim>
				</port>
				<port id="1" precision="I64">
					<dim>2</dim>
				</port>
				<port id="2" precision="I64">
					<dim>2</dim>
				</port>
				<port id="3" precision="FP32"/>
			</input>
			<output>
				<port id="4" precision="FP32" names="617">
					<dim>16</dim>
					<dim>49</dim>
				</port>
			</output>
		</layer>
		<layer id="214" name="618" type="Const" version="opset1">
			<data element_type="i64" shape="1" offset="164370" size="8"/>
			<rt_info>
				<attribute name="fused_names" version="0" value="618"/>
			</rt_info>
			<output>
				<port id="0" precision="I64" names="618">
					<dim>1</dim>
				</port>
			</output>
		</layer>
		<layer id="215" name="619" type="Reshape" version="opset1">
			<data special_zero="true"/>
			<rt_info>
				<attribute name="fused_names" version="0" value="619"/>
			</rt_info>
			<input>
				<port id="0" precision="FP32">
					<dim>16</dim>
					<dim>49</dim>
				</port>
				<port id="1" precision="I64">
					<dim>1</dim>
				</port>
			</input>
			<output>
				<port id="2" precision="FP32" names="619">
					<dim>784</dim>
				</port>
			</output>
		</layer>
		<layer id="216" name="3205" type="Const" version="opset1">
			<data element_type="i64" shape="1" offset="132112" size="8"/>
			<rt_info>
				<attribute name="fused_names" version="0" value="631"/>
			</rt_info>
			<output>
				<port id="0" precision="I64" names="3205">
					<dim>1</dim>
				</port>
			</output>
		</layer>
		<layer id="217" name="620" type="Const" version="opset1">
			<data element_type="i64" shape="" offset="164330" size="8"/>
			<rt_info>
				<attribute name="fused_names" version="0" value="620"/>
			</rt_info>
			<output>
				<port id="0" precision="I64" names="620"/>
			</output>
		</layer>
		<layer id="218" name="621" type="Add" version="opset1">
			<data auto_broadcast="numpy"/>
			<rt_info>
				<attribute name="fused_names" version="0" value="620, 621"/>
			</rt_info>
			<input>
				<port id="0" precision="I64"/>
				<port id="1" precision="I64"/>
			</input>
			<output>
				<port id="2" precision="I64" names="621"/>
			</output>
		</layer>
		<layer id="219" name="622" type="Const" version="opset1">
			<data element_type="i64" shape="" offset="0" size="8"/>
			<rt_info>
				<attribute name="fused_names" version="0" value="622"/>
			</rt_info>
			<output>
				<port id="0" precision="I64" names="622"/>
			</output>
		</layer>
		<layer id="220" name="623" type="Subtract" version="opset1">
			<data auto_broadcast="numpy"/>
			<rt_info>
				<attribute name="fused_names" version="0" value="622, 623"/>
			</rt_info>
			<input>
				<port id="0" precision="I64"/>
				<port id="1" precision="I64"/>
			</input>
			<output>
				<port id="2" precision="I64" names="623"/>
			</output>
		</layer>
		<layer id="221" name="624" type="Multiply" version="opset1">
			<data auto_broadcast="numpy"/>
			<rt_info>
				<attribute name="fused_names" version="0" value="624"/>
			</rt_info>
			<input>
				<port id="0" precision="I64"/>
				<port id="1" precision="I64"/>
			</input>
			<output>
				<port id="2" precision="I64" names="624"/>
			</output>
		</layer>
		<layer id="222" name="Constant_2239" type="Const" version="opset1">
			<data element_type="i64" shape="1" offset="132112" size="8"/>
			<rt_info>
				<attribute name="fused_names" version="0" value="Constant_2239"/>
			</rt_info>
			<output>
				<port id="0" precision="I64">
					<dim>1</dim>
				</port>
			</output>
		</layer>
		<layer id="223" name="628" type="Unsqueeze" version="opset1">
			<rt_info>
				<attribute name="fused_names" version="0" value="631, Constant_2239"/>
			</rt_info>
			<input>
				<port id="0" precision="I64"/>
				<port id="1" precision="I64">
					<dim>1</dim>
				</port>
			</input>
			<output>
				<port id="2" precision="I64" names="628">
					<dim>1</dim>
				</port>
			</output>
		</layer>
		<layer id="224" name="630" type="Const" version="opset1">
			<data element_type="i64" shape="1" offset="0" size="8"/>
			<rt_info>
				<attribute name="fused_names" version="0" value="631"/>
			</rt_info>
			<output>
				<port id="0" precision="I64" names="630">
					<dim>1</dim>
				</port>
			</output>
		</layer>
		<layer id="225" name="631" type="StridedSlice" version="opset1">
			<data begin_mask="0" end_mask="0" new_axis_mask="" shrink_axis_mask="" ellipsis_mask=""/>
			<rt_info>
				<attribute name="fused_names" version="0" value="631"/>
			</rt_info>
			<input>
				<port id="0" precision="FP32">
					<dim>784</dim>
				</port>
				<port id="1" precision="I64">
					<dim>1</dim>
				</port>
				<port id="2" precision="I64">
					<dim>1</dim>
				</port>
				<port id="3" precision="I64">
					<dim>1</dim>
				</port>
			</input>
			<output>
				<port id="4" precision="FP32" names="631">
					<dim>768</dim>
				</port>
			</output>
		</layer>
		<layer id="226" name="Constant_2305" type="Const" version="opset1">
			<data element_type="i64" shape="1" offset="132112" size="8"/>
			<rt_info>
				<attribute name="fused_names" version="0" value="Constant_2305"/>
			</rt_info>
			<output>
				<port id="0" precision="I64">
					<dim>1</dim>
				</port>
			</output>
		</layer>
		<layer id="227" name="636" type="Unsqueeze" version="opset1">
			<rt_info>
				<attribute name="fused_names" version="0" value="636, Constant_2305"/>
			</rt_info>
			<input>
				<port id="0" precision="I64"/>
				<port id="1" precision="I64">
					<dim>1</dim>
				</port>
			</input>
			<output>
				<port id="2" precision="I64" names="636">
					<dim>1</dim>
				</port>
			</output>
		</layer>
		<layer id="228" name="632" type="Const" version="opset1">
			<data element_type="i64" shape="" offset="164330" size="8"/>
			<rt_info>
				<attribute name="fused_names" version="0" value="632"/>
			</rt_info>
			<output>
				<port id="0" precision="I64" names="632"/>
			</output>
		</layer>
		<layer id="229" name="633" type="Add" version="opset1">
			<data auto_broadcast="numpy"/>
			<rt_info>
				<attribute name="fused_names" version="0" value="632, 633"/>
			</rt_info>
			<input>
				<port id="0" precision="I64"/>
				<port id="1" precision="I64"/>
			</input>
			<output>
				<port id="2" precision="I64" names="633"/>
			</output>
		</layer>
		<layer id="230" name="634" type="Const" version="opset1">
			<data element_type="i64" shape="" offset="0" size="8"/>
			<rt_info>
				<attribute name="fused_names" version="0" value="634"/>
			</rt_info>
			<output>
				<port id="0" precision="I64" names="634"/>
			</output>
		</layer>
		<layer id="231" name="635" type="Subtract" version="opset1">
			<data auto_broadcast="numpy"/>
			<rt_info>
				<attribute name="fused_names" version="0" value="634, 635"/>
			</rt_info>
			<input>
				<port id="0" precision="I64"/>
				<port id="1" precision="I64"/>
			</input>
			<output>
				<port id="2" precision="I64" names="635"/>
			</output>
		</layer>
		<layer id="232" name="Constant_2307" type="Const" version="opset1">
			<data element_type="i64" shape="1" offset="132112" size="8"/>
			<rt_info>
				<attribute name="fused_names" version="0" value="Constant_2307"/>
			</rt_info>
			<output>
				<port id="0" precision="I64">
					<dim>1</dim>
				</port>
			</output>
		</layer>
		<layer id="233" name="637" type="Unsqueeze" version="opset1">
			<rt_info>
				<attribute name="fused_names" version="0" value="637, Constant_2307"/>
			</rt_info>
			<input>
				<port id="0" precision="I64"/>
				<port id="1" precision="I64">
					<dim>1</dim>
				</port>
			</input>
			<output>
				<port id="2" precision="I64" names="637">
					<dim>1</dim>
				</port>
			</output>
		</layer>
		<layer id="234" name="638" type="Concat" version="opset1">
			<data axis="0"/>
			<rt_info>
				<attribute name="fused_names" version="0" value="638"/>
			</rt_info>
			<input>
				<port id="0" precision="I64">
					<dim>1</dim>
				</port>
				<port id="1" precision="I64">
					<dim>1</dim>
				</port>
			</input>
			<output>
				<port id="2" precision="I64" names="638">
					<dim>2</dim>
				</port>
			</output>
		</layer>
		<layer id="235" name="639" type="Reshape" version="opset1">
			<data special_zero="true"/>
			<rt_info>
				<attribute name="fused_names" version="0" value="639"/>
			</rt_info>
			<input>
				<port id="0" precision="FP32">
					<dim>768</dim>
				</port>
				<port id="1" precision="I64">
					<dim>2</dim>
				</port>
			</input>
			<output>
				<port id="2" precision="FP32" names="639">
					<dim>16</dim>
					<dim>48</dim>
				</port>
			</output>
		</layer>
		<layer id="236" name="Constant_189888" type="Const" version="opset1">
			<data element_type="i64" shape="2" offset="164338" size="16"/>
			<rt_info>
				<attribute name="fused_names" version="0" value="648"/>
			</rt_info>
			<output>
				<port id="0" precision="I64">
					<dim>2</dim>
				</port>
			</output>
		</layer>
		<layer id="237" name="Constant_189889" type="Const" version="opset1">
			<data element_type="i64" shape="2" offset="164338" size="16"/>
			<rt_info>
				<attribute name="fused_names" version="0" value="648"/>
			</rt_info>
			<output>
				<port id="0" precision="I64">
					<dim>2</dim>
				</port>
			</output>
		</layer>
		<layer id="238" name="Constant_189885" type="Const" version="opset1">
			<data element_type="i64" shape="1" offset="0" size="8"/>
			<rt_info>
				<attribute name="fused_names" version="0" value="648"/>
			</rt_info>
			<output>
				<port id="0" precision="I64">
					<dim>1</dim>
				</port>
			</output>
		</layer>
		<layer id="239" name="576" type="Const" version="opset1">
			<data element_type="i64" shape="" offset="164286" size="8"/>
			<rt_info>
				<attribute name="fused_names" version="0" value="576"/>
			</rt_info>
			<output>
				<port id="0" precision="I64" names="576"/>
			</output>
		</layer>
		<layer id="240" name="577" type="Add" version="opset1">
			<data auto_broadcast="numpy"/>
			<rt_info>
				<attribute name="fused_names" version="0" value="576, 577, 640, 641"/>
			</rt_info>
			<input>
				<port id="0" precision="I64"/>
				<port id="1" precision="I64"/>
			</input>
			<output>
				<port id="2" precision="I64" names="577,641"/>
			</output>
		</layer>
		<layer id="241" name="Constant_2378" type="Const" version="opset1">
			<data element_type="i64" shape="1" offset="132112" size="8"/>
			<rt_info>
				<attribute name="fused_names" version="0" value="Constant_2378"/>
			</rt_info>
			<output>
				<port id="0" precision="I64">
					<dim>1</dim>
				</port>
			</output>
		</layer>
		<layer id="242" name="645" type="Unsqueeze" version="opset1">
			<rt_info>
				<attribute name="fused_names" version="0" value="645, Constant_2378"/>
			</rt_info>
			<input>
				<port id="0" precision="I64"/>
				<port id="1" precision="I64">
					<dim>1</dim>
				</port>
			</input>
			<output>
				<port id="2" precision="I64" names="645">
					<dim>1</dim>
				</port>
			</output>
		</layer>
		<layer id="243" name="Constant_189884" type="Const" version="opset1">
			<data element_type="i32" shape="1" offset="132168" size="4"/>
			<rt_info>
				<attribute name="fused_names" version="0" value="648"/>
			</rt_info>
			<output>
				<port id="0" precision="I32">
					<dim>1</dim>
				</port>
			</output>
		</layer>
		<layer id="244" name="ScatterUpdate_189890" type="ScatterUpdate" version="opset3">
			<rt_info>
				<attribute name="fused_names" version="0" value="648"/>
			</rt_info>
			<input>
				<port id="0" precision="I64">
					<dim>2</dim>
				</port>
				<port id="1" precision="I64">
					<dim>1</dim>
				</port>
				<port id="2" precision="I64">
					<dim>1</dim>
				</port>
				<port id="3" precision="I32">
					<dim>1</dim>
				</port>
			</input>
			<output>
				<port id="4" precision="I64">
					<dim>2</dim>
				</port>
			</output>
		</layer>
		<layer id="245" name="Constant_189893" type="Const" version="opset1">
			<data element_type="i64" shape="2" offset="164404" size="16"/>
			<rt_info>
				<attribute name="fused_names" version="0" value="648"/>
			</rt_info>
			<output>
				<port id="0" precision="I64">
					<dim>2</dim>
				</port>
			</output>
		</layer>
		<layer id="246" name="648" type="StridedSlice" version="opset1">
			<data begin_mask="1, 0" end_mask="1, 0" new_axis_mask="" shrink_axis_mask="" ellipsis_mask=""/>
			<rt_info>
				<attribute name="fused_names" version="0" value="648"/>
			</rt_info>
			<input>
				<port id="0" precision="FP32">
					<dim>16</dim>
					<dim>48</dim>
				</port>
				<port id="1" precision="I64">
					<dim>2</dim>
				</port>
				<port id="2" precision="I64">
					<dim>2</dim>
				</port>
				<port id="3" precision="I64">
					<dim>2</dim>
				</port>
			</input>
			<output>
				<port id="4" precision="FP32" names="648">
					<dim>16</dim>
					<dim>48</dim>
				</port>
			</output>
		</layer>
		<layer id="247" name="Constant_2413" type="Const" version="opset1">
			<data element_type="i64" shape="1" offset="132112" size="8"/>
			<rt_info>
				<attribute name="fused_names" version="0" value="Constant_2413"/>
			</rt_info>
			<output>
				<port id="0" precision="I64">
					<dim>1</dim>
				</port>
			</output>
		</layer>
		<layer id="248" name="649" type="Unsqueeze" version="opset1">
			<rt_info>
				<attribute name="fused_names" version="0" value="649"/>
			</rt_info>
			<input>
				<port id="0" precision="FP32">
					<dim>16</dim>
					<dim>48</dim>
				</port>
				<port id="1" precision="I64">
					<dim>1</dim>
				</port>
			</input>
			<output>
				<port id="2" precision="FP32" names="649">
					<dim>1</dim>
					<dim>16</dim>
					<dim>48</dim>
				</port>
			</output>
		</layer>
		<layer id="249" name="Constant_2415" type="Const" version="opset1">
			<data element_type="i64" shape="1" offset="132112" size="8"/>
			<rt_info>
				<attribute name="fused_names" version="0" value="Constant_2415"/>
			</rt_info>
			<output>
				<port id="0" precision="I64">
					<dim>1</dim>
				</port>
			</output>
		</layer>
		<layer id="250" name="650" type="Unsqueeze" version="opset1">
			<rt_info>
				<attribute name="fused_names" version="0" value="650"/>
			</rt_info>
			<input>
				<port id="0" precision="FP32">
					<dim>1</dim>
					<dim>16</dim>
					<dim>48</dim>
				</port>
				<port id="1" precision="I64">
					<dim>1</dim>
				</port>
			</input>
			<output>
				<port id="2" precision="FP32" names="650">
					<dim>1</dim>
					<dim>1</dim>
					<dim>16</dim>
					<dim>48</dim>
				</port>
			</output>
		</layer>
		<layer id="251" name="651" type="Multiply" version="opset1">
			<data auto_broadcast="numpy"/>
			<rt_info>
				<attribute name="fused_names" version="0" value="651"/>
			</rt_info>
			<input>
				<port id="0" precision="FP32">
					<dim>129</dim>
					<dim>1</dim>
					<dim>16</dim>
					<dim>48</dim>
				</port>
				<port id="1" precision="FP32">
					<dim>1</dim>
					<dim>1</dim>
					<dim>16</dim>
					<dim>48</dim>
				</port>
			</input>
			<output>
				<port id="2" precision="FP32" names="651">
					<dim>129</dim>
					<dim>1</dim>
					<dim>16</dim>
					<dim>48</dim>
				</port>
			</output>
		</layer>
		<layer id="252" name="Constant_289827_compressed" type="Const" version="opset1">
			<data element_type="f16" shape="1, 1, 1, 1" offset="164328" size="2"/>
			<output>
				<port id="0" precision="FP16">
					<dim>1</dim>
					<dim>1</dim>
					<dim>1</dim>
					<dim>1</dim>
				</port>
			</output>
		</layer>
		<layer id="253" name="Constant_289827" type="Convert" version="opset1">
			<data destination_type="f32"/>
			<rt_info>
				<attribute name="decompression" version="0"/>
			</rt_info>
			<input>
				<port id="0" precision="FP16">
					<dim>1</dim>
					<dim>1</dim>
					<dim>1</dim>
					<dim>1</dim>
				</port>
			</input>
			<output>
				<port id="1" precision="FP32">
					<dim>1</dim>
					<dim>1</dim>
					<dim>1</dim>
					<dim>1</dim>
				</port>
			</output>
		</layer>
		<layer id="254" name="653" type="Subtract" version="opset1">
			<data auto_broadcast="numpy"/>
			<rt_info>
				<attribute name="fused_names" version="0" value="653"/>
			</rt_info>
			<input>
				<port id="0" precision="FP32">
					<dim>1</dim>
					<dim>1</dim>
					<dim>1</dim>
					<dim>1</dim>
				</port>
				<port id="1" precision="FP32">
					<dim>1</dim>
					<dim>1</dim>
					<dim>16</dim>
					<dim>48</dim>
				</port>
			</input>
			<output>
				<port id="2" precision="FP32" names="653">
					<dim>1</dim>
					<dim>1</dim>
					<dim>16</dim>
					<dim>48</dim>
				</port>
			</output>
		</layer>
		<layer id="255" name="Constant_289828_compressed" type="Const" version="opset1">
			<data element_type="f16" shape="1, 1, 1, 1" offset="164420" size="2"/>
			<output>
				<port id="0" precision="FP16">
					<dim>1</dim>
					<dim>1</dim>
					<dim>1</dim>
					<dim>1</dim>
				</port>
			</output>
		</layer>
		<layer id="256" name="Constant_289828" type="Convert" version="opset1">
			<data destination_type="f32"/>
			<rt_info>
				<attribute name="decompression" version="0"/>
			</rt_info>
			<input>
				<port id="0" precision="FP16">
					<dim>1</dim>
					<dim>1</dim>
					<dim>1</dim>
					<dim>1</dim>
				</port>
			</input>
			<output>
				<port id="1" precision="FP32">
					<dim>1</dim>
					<dim>1</dim>
					<dim>1</dim>
					<dim>1</dim>
				</port>
			</output>
		</layer>
		<layer id="257" name="655" type="Multiply" version="opset1">
			<data auto_broadcast="numpy"/>
			<rt_info>
				<attribute name="fused_names" version="0" value="655"/>
			</rt_info>
			<input>
				<port id="0" precision="FP32">
					<dim>1</dim>
					<dim>1</dim>
					<dim>16</dim>
					<dim>48</dim>
				</port>
				<port id="1" precision="FP32">
					<dim>1</dim>
					<dim>1</dim>
					<dim>1</dim>
					<dim>1</dim>
				</port>
			</input>
			<output>
				<port id="2" precision="FP32" names="655">
					<dim>1</dim>
					<dim>1</dim>
					<dim>16</dim>
					<dim>48</dim>
				</port>
			</output>
		</layer>
		<layer id="258" name="656" type="Add" version="opset1">
			<data auto_broadcast="numpy"/>
			<rt_info>
				<attribute name="fused_names" version="0" value="656"/>
			</rt_info>
			<input>
				<port id="0" precision="FP32">
					<dim>129</dim>
					<dim>1</dim>
					<dim>16</dim>
					<dim>48</dim>
				</port>
				<port id="1" precision="FP32">
					<dim>1</dim>
					<dim>1</dim>
					<dim>16</dim>
					<dim>48</dim>
				</port>
			</input>
			<output>
				<port id="2" precision="FP32" names="656">
					<dim>129</dim>
					<dim>1</dim>
					<dim>16</dim>
					<dim>48</dim>
				</port>
			</output>
		</layer>
		<layer id="259" name="657" type="SoftMax" version="opset8">
			<data axis="3"/>
			<rt_info>
				<attribute name="fused_names" version="0" value="657"/>
			</rt_info>
			<input>
				<port id="0" precision="FP32">
					<dim>129</dim>
					<dim>1</dim>
					<dim>16</dim>
					<dim>48</dim>
				</port>
			</input>
			<output>
				<port id="1" precision="FP32" names="657">
					<dim>129</dim>
					<dim>1</dim>
					<dim>16</dim>
					<dim>48</dim>
				</port>
			</output>
		</layer>
		<layer id="260" name="527" type="Concat" version="opset1">
			<data axis="3"/>
			<rt_info>
				<attribute name="fused_names" version="0" value="527"/>
			</rt_info>
			<input>
				<port id="0" precision="FP32">
					<dim>1</dim>
					<dim>129</dim>
					<dim>32</dim>
					<dim>32</dim>
				</port>
				<port id="1" precision="FP32">
					<dim>1</dim>
					<dim>129</dim>
					<dim>32</dim>
					<dim>16</dim>
				</port>
			</input>
			<output>
				<port id="2" precision="FP32" names="527">
					<dim>1</dim>
					<dim>129</dim>
					<dim>32</dim>
					<dim>48</dim>
				</port>
			</output>
		</layer>
		<layer id="261" name="565" type="Multiply" version="opset1">
			<data auto_broadcast="numpy"/>
			<rt_info>
				<attribute name="fused_names" version="0" value="565"/>
			</rt_info>
			<input>
				<port id="0" precision="I64"/>
				<port id="1" precision="I64"/>
			</input>
			<output>
				<port id="2" precision="I64" names="565"/>
			</output>
		</layer>
		<layer id="262" name="Constant_1933" type="Const" version="opset1">
			<data element_type="i64" shape="1" offset="132112" size="8"/>
			<rt_info>
				<attribute name="fused_names" version="0" value="Constant_1933"/>
			</rt_info>
			<output>
				<port id="0" precision="I64">
					<dim>1</dim>
				</port>
			</output>
		</layer>
		<layer id="263" name="568" type="Unsqueeze" version="opset1">
			<rt_info>
				<attribute name="fused_names" version="0" value="568, Constant_1933"/>
			</rt_info>
			<input>
				<port id="0" precision="I64"/>
				<port id="1" precision="I64">
					<dim>1</dim>
				</port>
			</input>
			<output>
				<port id="2" precision="I64" names="568">
					<dim>1</dim>
				</port>
			</output>
		</layer>
		<layer id="264" name="3199" type="Const" version="opset1">
			<data element_type="i64" shape="1" offset="0" size="8"/>
			<rt_info>
				<attribute name="fused_names" version="0" value="3199"/>
			</rt_info>
			<output>
				<port id="0" precision="I64" names="3199">
					<dim>1</dim>
				</port>
			</output>
		</layer>
		<layer id="265" name="3200" type="Const" version="opset1">
			<data element_type="i64" shape="1" offset="164286" size="8"/>
			<rt_info>
				<attribute name="fused_names" version="0" value="3200"/>
			</rt_info>
			<output>
				<port id="0" precision="I64" names="3200">
					<dim>1</dim>
				</port>
			</output>
		</layer>
		<layer id="266" name="544" type="ShapeOf" version="opset3">
			<data output_type="i64"/>
			<rt_info>
				<attribute name="fused_names" version="0" value="514, 544"/>
			</rt_info>
			<input>
				<port id="0" precision="FP32">
					<dim>1</dim>
					<dim>129</dim>
					<dim>32</dim>
					<dim>48</dim>
				</port>
			</input>
			<output>
				<port id="1" precision="I64" names="514,544">
					<dim>4</dim>
				</port>
			</output>
		</layer>
		<layer id="267" name="Constant_109287" type="Const" version="opset1">
			<data element_type="i64" shape="1" offset="132152" size="8"/>
			<rt_info>
				<attribute name="fused_names" version="0" value="545, 546, 571, Constant_1792, Constant_1935"/>
			</rt_info>
			<output>
				<port id="0" precision="I64">
					<dim>1</dim>
				</port>
			</output>
		</layer>
		<layer id="268" name="Constant_1792" type="Const" version="opset1">
			<data element_type="i64" shape="" offset="132112" size="8"/>
			<rt_info>
				<attribute name="fused_names" version="0" value="Constant_1792"/>
			</rt_info>
			<output>
				<port id="0" precision="I64"/>
			</output>
		</layer>
		<layer id="269" name="546" type="Gather" version="opset8">
			<data batch_dims="0"/>
			<rt_info>
				<attribute name="fused_names" version="0" value="545, 546, 571, Constant_1792, Constant_1935"/>
			</rt_info>
			<input>
				<port id="0" precision="I64">
					<dim>4</dim>
				</port>
				<port id="1" precision="I64">
					<dim>1</dim>
				</port>
				<port id="2" precision="I64"/>
			</input>
			<output>
				<port id="3" precision="I64" names="571">
					<dim>1</dim>
				</port>
			</output>
		</layer>
		<layer id="270" name="572" type="Concat" version="opset1">
			<data axis="0"/>
			<rt_info>
				<attribute name="fused_names" version="0" value="3199, 3200, 572"/>
			</rt_info>
			<input>
				<port id="0" precision="I64">
					<dim>1</dim>
				</port>
				<port id="1" precision="I64">
					<dim>1</dim>
				</port>
				<port id="2" precision="I64">
					<dim>1</dim>
				</port>
				<port id="3" precision="I64">
					<dim>1</dim>
				</port>
			</input>
			<output>
				<port id="4" precision="I64" names="572">
					<dim>4</dim>
				</port>
			</output>
		</layer>
		<layer id="271" name="573" type="Reshape" version="opset1">
			<data special_zero="true"/>
			<rt_info>
				<attribute name="fused_names" version="0" value="573"/>
			</rt_info>
			<input>
				<port id="0" precision="FP32">
					<dim>1</dim>
					<dim>129</dim>
					<dim>32</dim>
					<dim>48</dim>
				</port>
				<port id="1" precision="I64">
					<dim>4</dim>
				</port>
			</input>
			<output>
				<port id="2" precision="FP32" names="573">
					<dim>129</dim>
					<dim>1</dim>
					<dim>32</dim>
					<dim>48</dim>
				</port>
			</output>
		</layer>
		<layer id="272" name="Constant_2003" type="Const" version="opset1">
			<data element_type="i64" shape="4" offset="164294" size="32"/>
			<rt_info>
				<attribute name="fused_names" version="0" value="Constant_2003"/>
			</rt_info>
			<output>
				<port id="0" precision="I64">
					<dim>4</dim>
				</port>
			</output>
		</layer>
		<layer id="273" name="575" type="Transpose" version="opset1">
			<rt_info>
				<attribute name="fused_names" version="0" value="575"/>
			</rt_info>
			<input>
				<port id="0" precision="FP32">
					<dim>129</dim>
					<dim>1</dim>
					<dim>32</dim>
					<dim>48</dim>
				</port>
				<port id="1" precision="I64">
					<dim>4</dim>
				</port>
			</input>
			<output>
				<port id="2" precision="FP32" names="575">
					<dim>129</dim>
					<dim>1</dim>
					<dim>48</dim>
					<dim>32</dim>
				</port>
			</output>
		</layer>
		<layer id="274" name="658" type="MatMul" version="opset1">
			<data transpose_a="false" transpose_b="false"/>
			<rt_info>
				<attribute name="fused_names" version="0" value="658"/>
			</rt_info>
			<input>
				<port id="0" precision="FP32">
					<dim>129</dim>
					<dim>1</dim>
					<dim>16</dim>
					<dim>48</dim>
				</port>
				<port id="1" precision="FP32">
					<dim>129</dim>
					<dim>1</dim>
					<dim>48</dim>
					<dim>32</dim>
				</port>
			</input>
			<output>
				<port id="2" precision="FP32" names="658">
					<dim>129</dim>
					<dim>1</dim>
					<dim>16</dim>
					<dim>32</dim>
				</port>
			</output>
		</layer>
		<layer id="275" name="Constant_2425" type="Const" version="opset1">
			<data element_type="i64" shape="4" offset="164294" size="32"/>
			<rt_info>
				<attribute name="fused_names" version="0" value="Constant_2425"/>
			</rt_info>
			<output>
				<port id="0" precision="I64">
					<dim>4</dim>
				</port>
			</output>
		</layer>
		<layer id="276" name="659" type="Transpose" version="opset1">
			<rt_info>
				<attribute name="fused_names" version="0" value="659"/>
			</rt_info>
			<input>
				<port id="0" precision="FP32">
					<dim>129</dim>
					<dim>1</dim>
					<dim>16</dim>
					<dim>32</dim>
				</port>
				<port id="1" precision="I64">
					<dim>4</dim>
				</port>
			</input>
			<output>
				<port id="2" precision="FP32" names="659">
					<dim>129</dim>
					<dim>1</dim>
					<dim>32</dim>
					<dim>16</dim>
				</port>
			</output>
		</layer>
		<layer id="277" name="Constant_109789" type="Const" version="opset1">
			<data element_type="i64" shape="3" offset="164422" size="24"/>
			<rt_info>
				<attribute name="fused_names" version="0" value="664"/>
			</rt_info>
			<output>
				<port id="0" precision="I64">
					<dim>3</dim>
				</port>
			</output>
		</layer>
		<layer id="278" name="Constant_109790" type="Const" version="opset1">
			<data element_type="i64" shape="" offset="132112" size="8"/>
			<output>
				<port id="0" precision="I64"/>
			</output>
		</layer>
		<layer id="279" name="Gather_109791" type="Gather" version="opset8">
			<data batch_dims="0"/>
			<rt_info>
				<attribute name="fused_names" version="0" value="664"/>
			</rt_info>
			<input>
				<port id="0" precision="I64">
					<dim>4</dim>
				</port>
				<port id="1" precision="I64">
					<dim>3</dim>
				</port>
				<port id="2" precision="I64"/>
			</input>
			<output>
				<port id="3" precision="I64">
					<dim>3</dim>
				</port>
			</output>
		</layer>
		<layer id="280" name="Constant_109323" type="Const" version="opset1">
			<data element_type="i64" shape="1" offset="132152" size="8"/>
			<rt_info>
				<attribute name="fused_names" version="0" value="542, 543, 663, Constant_1788, Constant_2433"/>
			</rt_info>
			<output>
				<port id="0" precision="I64">
					<dim>1</dim>
				</port>
			</output>
		</layer>
		<layer id="281" name="5430" type="Gather" version="opset8">
			<data batch_dims="0"/>
			<rt_info>
				<attribute name="fused_names" version="0" value="542, 543, 663, Constant_1788, Constant_2433"/>
			</rt_info>
			<input>
				<port id="0" precision="I64">
					<dim>4</dim>
				</port>
				<port id="1" precision="I64">
					<dim>1</dim>
				</port>
				<port id="2" precision="I64"/>
			</input>
			<output>
				<port id="3" precision="I64" names="663">
					<dim>1</dim>
				</port>
			</output>
		</layer>
		<layer id="282" name="664" type="Concat" version="opset1">
			<data axis="0"/>
			<rt_info>
				<attribute name="fused_names" version="0" value="664"/>
			</rt_info>
			<input>
				<port id="0" precision="I64">
					<dim>3</dim>
				</port>
				<port id="1" precision="I64">
					<dim>1</dim>
				</port>
			</input>
			<output>
				<port id="2" precision="I64" names="664">
					<dim>4</dim>
				</port>
			</output>
		</layer>
		<layer id="283" name="665" type="Reshape" version="opset1">
			<data special_zero="true"/>
			<rt_info>
				<attribute name="fused_names" version="0" value="665"/>
			</rt_info>
			<input>
				<port id="0" precision="FP32">
					<dim>129</dim>
					<dim>1</dim>
					<dim>32</dim>
					<dim>16</dim>
				</port>
				<port id="1" precision="I64">
					<dim>4</dim>
				</port>
			</input>
			<output>
				<port id="2" precision="FP32" names="665">
					<dim>1</dim>
					<dim>129</dim>
					<dim>32</dim>
					<dim>16</dim>
				</port>
			</output>
		</layer>
		<layer id="284" name="Constant_2514" type="Const" version="opset1">
			<data element_type="i64" shape="4" offset="164230" size="32"/>
			<rt_info>
				<attribute name="fused_names" version="0" value="Constant_2514"/>
			</rt_info>
			<output>
				<port id="0" precision="I64">
					<dim>4</dim>
				</port>
			</output>
		</layer>
		<layer id="285" name="666" type="Transpose" version="opset1">
			<rt_info>
				<attribute name="fused_names" version="0" value="666"/>
			</rt_info>
			<input>
				<port id="0" precision="FP32">
					<dim>1</dim>
					<dim>129</dim>
					<dim>32</dim>
					<dim>16</dim>
				</port>
				<port id="1" precision="I64">
					<dim>4</dim>
				</port>
			</input>
			<output>
				<port id="2" precision="FP32" names="666">
					<dim>1</dim>
					<dim>32</dim>
					<dim>129</dim>
					<dim>16</dim>
				</port>
			</output>
		</layer>
		<layer id="286" name="blocks_down.0.sa.conv_o.weight_compressed" type="Const" version="opset1">
			<data element_type="f16" shape="32, 32, 1, 1" offset="164446" size="2048"/>
			<output>
				<port id="0" precision="FP16">
					<dim>32</dim>
					<dim>32</dim>
					<dim>1</dim>
					<dim>1</dim>
				</port>
			</output>
		</layer>
		<layer id="287" name="blocks_down.0.sa.conv_o.weight" type="Convert" version="opset1">
			<data destination_type="f32"/>
			<rt_info>
				<attribute name="decompression" version="0"/>
				<attribute name="fused_names" version="0" value="blocks_down.0.sa.conv_o.weight"/>
			</rt_info>
			<input>
				<port id="0" precision="FP16">
					<dim>32</dim>
					<dim>32</dim>
					<dim>1</dim>
					<dim>1</dim>
				</port>
			</input>
			<output>
				<port id="1" precision="FP32" names="blocks_down.0.sa.conv_o.weight">
					<dim>32</dim>
					<dim>32</dim>
					<dim>1</dim>
					<dim>1</dim>
				</port>
			</output>
		</layer>
		<layer id="288" name="Convolution_2516" type="Convolution" version="opset1">
			<data strides="1, 1" dilations="1, 1" pads_begin="0, 0" pads_end="0, 0" auto_pad="explicit"/>
			<rt_info>
				<attribute name="fused_names" version="0" value="Convolution_2516"/>
			</rt_info>
			<input>
				<port id="0" precision="FP32">
					<dim>1</dim>
					<dim>32</dim>
					<dim>129</dim>
					<dim>16</dim>
				</port>
				<port id="1" precision="FP32">
					<dim>32</dim>
					<dim>32</dim>
					<dim>1</dim>
					<dim>1</dim>
				</port>
			</input>
			<output>
				<port id="2" precision="FP32">
					<dim>1</dim>
					<dim>32</dim>
					<dim>129</dim>
					<dim>16</dim>
				</port>
			</output>
		</layer>
		<layer id="289" name="Reshape_2536_compressed" type="Const" version="opset1">
			<data element_type="f16" shape="1, 32, 1, 1" offset="166494" size="64"/>
			<output>
				<port id="0" precision="FP16">
					<dim>1</dim>
					<dim>32</dim>
					<dim>1</dim>
					<dim>1</dim>
				</port>
			</output>
		</layer>
		<layer id="290" name="Reshape_2536" type="Convert" version="opset1">
			<data destination_type="f32"/>
			<rt_info>
				<attribute name="decompression" version="0"/>
			</rt_info>
			<input>
				<port id="0" precision="FP16">
					<dim>1</dim>
					<dim>32</dim>
					<dim>1</dim>
					<dim>1</dim>
				</port>
			</input>
			<output>
				<port id="1" precision="FP32">
					<dim>1</dim>
					<dim>32</dim>
					<dim>1</dim>
					<dim>1</dim>
				</port>
			</output>
		</layer>
		<layer id="291" name="667" type="Add" version="opset1">
			<data auto_broadcast="numpy"/>
			<rt_info>
				<attribute name="fused_names" version="0" value="667, Concat_2535, Reshape_2536"/>
			</rt_info>
			<input>
				<port id="0" precision="FP32">
					<dim>1</dim>
					<dim>32</dim>
					<dim>129</dim>
					<dim>16</dim>
				</port>
				<port id="1" precision="FP32">
					<dim>1</dim>
					<dim>32</dim>
					<dim>1</dim>
					<dim>1</dim>
				</port>
			</input>
			<output>
				<port id="2" precision="FP32" names="667">
					<dim>1</dim>
					<dim>32</dim>
					<dim>129</dim>
					<dim>16</dim>
				</port>
			</output>
		</layer>
		<layer id="292" name="668" type="Concat" version="opset1">
			<data axis="1"/>
			<rt_info>
				<attribute name="fused_names" version="0" value="668"/>
			</rt_info>
			<input>
				<port id="0" precision="FP32">
					<dim>1</dim>
					<dim>32</dim>
					<dim>129</dim>
					<dim>16</dim>
				</port>
				<port id="1" precision="FP32">
					<dim>1</dim>
					<dim>32</dim>
					<dim>129</dim>
					<dim>16</dim>
				</port>
			</input>
			<output>
				<port id="2" precision="FP32" names="668">
					<dim>1</dim>
					<dim>64</dim>
					<dim>129</dim>
					<dim>16</dim>
				</port>
			</output>
		</layer>
		<layer id="293" name="Constant_285157_compressed" type="Const" version="opset1">
			<data element_type="f16" shape="1, 64, 1, 1" offset="166558" size="128"/>
			<output>
				<port id="0" precision="FP16">
					<dim>1</dim>
					<dim>64</dim>
					<dim>1</dim>
					<dim>1</dim>
				</port>
			</output>
		</layer>
		<layer id="294" name="Constant_285157" type="Convert" version="opset1">
			<data destination_type="f32"/>
			<rt_info>
				<attribute name="decompression" version="0"/>
				<attribute name="fused_names" version="0" value="669, blocks_down.0.sa_out.bn.bias, blocks_down.0.sa_out.bn.running_mean, blocks_down.0.sa_out.bn.running_var, blocks_down.0.sa_out.bn.weight"/>
			</rt_info>
			<input>
				<port id="0" precision="FP16">
					<dim>1</dim>
					<dim>64</dim>
					<dim>1</dim>
					<dim>1</dim>
				</port>
			</input>
			<output>
				<port id="1" precision="FP32">
					<dim>1</dim>
					<dim>64</dim>
					<dim>1</dim>
					<dim>1</dim>
				</port>
			</output>
		</layer>
		<layer id="295" name="Multiply_289179" type="Multiply" version="opset1">
			<data auto_broadcast="numpy"/>
			<rt_info>
				<attribute name="fused_names" version="0" value="669, blocks_down.0.sa_out.bn.bias, blocks_down.0.sa_out.bn.running_mean, blocks_down.0.sa_out.bn.running_var, blocks_down.0.sa_out.bn.weight"/>
			</rt_info>
			<input>
				<port id="0" precision="FP32">
					<dim>1</dim>
					<dim>64</dim>
					<dim>129</dim>
					<dim>16</dim>
				</port>
				<port id="1" precision="FP32">
					<dim>1</dim>
					<dim>64</dim>
					<dim>1</dim>
					<dim>1</dim>
				</port>
			</input>
			<output>
				<port id="2" precision="FP32">
					<dim>1</dim>
					<dim>64</dim>
					<dim>129</dim>
					<dim>16</dim>
				</port>
			</output>
		</layer>
		<layer id="296" name="Constant_289184_compressed" type="Const" version="opset1">
			<data element_type="f16" shape="1, 64, 1, 1" offset="166686" size="128"/>
			<output>
				<port id="0" precision="FP16">
					<dim>1</dim>
					<dim>64</dim>
					<dim>1</dim>
					<dim>1</dim>
				</port>
			</output>
		</layer>
		<layer id="297" name="Constant_289184" type="Convert" version="opset1">
			<data destination_type="f32"/>
			<rt_info>
				<attribute name="decompression" version="0"/>
			</rt_info>
			<input>
				<port id="0" precision="FP16">
					<dim>1</dim>
					<dim>64</dim>
					<dim>1</dim>
					<dim>1</dim>
				</port>
			</input>
			<output>
				<port id="1" precision="FP32">
					<dim>1</dim>
					<dim>64</dim>
					<dim>1</dim>
					<dim>1</dim>
				</port>
			</output>
		</layer>
		<layer id="298" name="669" type="Add" version="opset1">
			<data auto_broadcast="numpy"/>
			<rt_info>
				<attribute name="fused_names" version="0" value="669, blocks_down.0.sa_out.bn.bias, blocks_down.0.sa_out.bn.running_mean, blocks_down.0.sa_out.bn.running_var, blocks_down.0.sa_out.bn.weight"/>
			</rt_info>
			<input>
				<port id="0" precision="FP32">
					<dim>1</dim>
					<dim>64</dim>
					<dim>129</dim>
					<dim>16</dim>
				</port>
				<port id="1" precision="FP32">
					<dim>1</dim>
					<dim>64</dim>
					<dim>1</dim>
					<dim>1</dim>
				</port>
			</input>
			<output>
				<port id="2" precision="FP32" names="669">
					<dim>1</dim>
					<dim>64</dim>
					<dim>129</dim>
					<dim>16</dim>
				</port>
			</output>
		</layer>
		<layer id="299" name="Constant_2566_compressed" type="Const" version="opset1">
			<data element_type="f16" shape="1" offset="132212" size="2"/>
			<output>
				<port id="0" precision="FP16">
					<dim>1</dim>
				</port>
			</output>
		</layer>
		<layer id="300" name="Constant_2566" type="Convert" version="opset1">
			<data destination_type="f32"/>
			<rt_info>
				<attribute name="decompression" version="0"/>
				<attribute name="fused_names" version="0" value="Constant_2566"/>
			</rt_info>
			<input>
				<port id="0" precision="FP16">
					<dim>1</dim>
				</port>
			</input>
			<output>
				<port id="1" precision="FP32">
					<dim>1</dim>
				</port>
			</output>
		</layer>
		<layer id="301" name="670" type="PReLU" version="opset1">
			<rt_info>
				<attribute name="fused_names" version="0" value="670"/>
			</rt_info>
			<input>
				<port id="0" precision="FP32">
					<dim>1</dim>
					<dim>64</dim>
					<dim>129</dim>
					<dim>16</dim>
				</port>
				<port id="1" precision="FP32">
					<dim>1</dim>
				</port>
			</input>
			<output>
				<port id="2" precision="FP32" names="670">
					<dim>1</dim>
					<dim>64</dim>
					<dim>129</dim>
					<dim>16</dim>
				</port>
			</output>
		</layer>
		<layer id="302" name="blocks_down.0.sa_out.conv.weight_compressed" type="Const" version="opset1">
			<data element_type="f16" shape="32, 64, 1, 1" offset="166814" size="4096"/>
			<output>
				<port id="0" precision="FP16">
					<dim>32</dim>
					<dim>64</dim>
					<dim>1</dim>
					<dim>1</dim>
				</port>
			</output>
		</layer>
		<layer id="303" name="blocks_down.0.sa_out.conv.weight" type="Convert" version="opset1">
			<data destination_type="f32"/>
			<rt_info>
				<attribute name="decompression" version="0"/>
				<attribute name="fused_names" version="0" value="blocks_down.0.sa_out.conv.weight"/>
			</rt_info>
			<input>
				<port id="0" precision="FP16">
					<dim>32</dim>
					<dim>64</dim>
					<dim>1</dim>
					<dim>1</dim>
				</port>
			</input>
			<output>
				<port id="1" precision="FP32" names="blocks_down.0.sa_out.conv.weight">
					<dim>32</dim>
					<dim>64</dim>
					<dim>1</dim>
					<dim>1</dim>
				</port>
			</output>
		</layer>
		<layer id="304" name="Convolution_2568" type="Convolution" version="opset1">
			<data strides="1, 1" dilations="1, 1" pads_begin="0, 0" pads_end="0, 0" auto_pad="explicit"/>
			<rt_info>
				<attribute name="fused_names" version="0" value="Convolution_2568"/>
			</rt_info>
			<input>
				<port id="0" precision="FP32">
					<dim>1</dim>
					<dim>64</dim>
					<dim>129</dim>
					<dim>16</dim>
				</port>
				<port id="1" precision="FP32">
					<dim>32</dim>
					<dim>64</dim>
					<dim>1</dim>
					<dim>1</dim>
				</port>
			</input>
			<output>
				<port id="2" precision="FP32">
					<dim>1</dim>
					<dim>32</dim>
					<dim>129</dim>
					<dim>16</dim>
				</port>
			</output>
		</layer>
		<layer id="305" name="Reshape_2588_compressed" type="Const" version="opset1">
			<data element_type="f16" shape="1, 32, 1, 1" offset="170910" size="64"/>
			<output>
				<port id="0" precision="FP16">
					<dim>1</dim>
					<dim>32</dim>
					<dim>1</dim>
					<dim>1</dim>
				</port>
			</output>
		</layer>
		<layer id="306" name="Reshape_2588" type="Convert" version="opset1">
			<data destination_type="f32"/>
			<rt_info>
				<attribute name="decompression" version="0"/>
			</rt_info>
			<input>
				<port id="0" precision="FP16">
					<dim>1</dim>
					<dim>32</dim>
					<dim>1</dim>
					<dim>1</dim>
				</port>
			</input>
			<output>
				<port id="1" precision="FP32">
					<dim>1</dim>
					<dim>32</dim>
					<dim>1</dim>
					<dim>1</dim>
				</port>
			</output>
		</layer>
		<layer id="307" name="671" type="Add" version="opset1">
			<data auto_broadcast="numpy"/>
			<rt_info>
				<attribute name="fused_names" version="0" value="671, 673, Concat_2587, Reshape_2588"/>
			</rt_info>
			<input>
				<port id="0" precision="FP32">
					<dim>1</dim>
					<dim>32</dim>
					<dim>129</dim>
					<dim>16</dim>
				</port>
				<port id="1" precision="FP32">
					<dim>1</dim>
					<dim>32</dim>
					<dim>1</dim>
					<dim>1</dim>
				</port>
			</input>
			<output>
				<port id="2" precision="FP32" names="671,673">
					<dim>1</dim>
					<dim>32</dim>
					<dim>129</dim>
					<dim>16</dim>
				</port>
			</output>
		</layer>
		<layer id="308" name="674" type="AvgPool" version="opset1">
			<data kernel="2, 2" strides="2, 2" pads_begin="0, 0" pads_end="0, 0" exclude-pad="true" auto_pad="explicit" rounding_type="floor"/>
			<rt_info>
				<attribute name="fused_names" version="0" value="674"/>
			</rt_info>
			<input>
				<port id="0" precision="FP32">
					<dim>1</dim>
					<dim>32</dim>
					<dim>129</dim>
					<dim>16</dim>
				</port>
			</input>
			<output>
				<port id="1" precision="FP32" names="674">
					<dim>1</dim>
					<dim>32</dim>
					<dim>64</dim>
					<dim>8</dim>
				</port>
			</output>
		</layer>
		<layer id="309" name="Constant_285283_compressed" type="Const" version="opset1">
			<data element_type="f16" shape="1, 32, 1, 1" offset="170974" size="64"/>
			<output>
				<port id="0" precision="FP16">
					<dim>1</dim>
					<dim>32</dim>
					<dim>1</dim>
					<dim>1</dim>
				</port>
			</output>
		</layer>
		<layer id="310" name="Constant_285283" type="Convert" version="opset1">
			<data destination_type="f32"/>
			<rt_info>
				<attribute name="decompression" version="0"/>
				<attribute name="fused_names" version="0" value="675, blocks_down.1.bd.0.bn.bias, blocks_down.1.bd.0.bn.running_mean, blocks_down.1.bd.0.bn.running_var, blocks_down.1.bd.0.bn.weight"/>
			</rt_info>
			<input>
				<port id="0" precision="FP16">
					<dim>1</dim>
					<dim>32</dim>
					<dim>1</dim>
					<dim>1</dim>
				</port>
			</input>
			<output>
				<port id="1" precision="FP32">
					<dim>1</dim>
					<dim>32</dim>
					<dim>1</dim>
					<dim>1</dim>
				</port>
			</output>
		</layer>
		<layer id="311" name="Multiply_289186" type="Multiply" version="opset1">
			<data auto_broadcast="numpy"/>
			<rt_info>
				<attribute name="fused_names" version="0" value="675, blocks_down.1.bd.0.bn.bias, blocks_down.1.bd.0.bn.running_mean, blocks_down.1.bd.0.bn.running_var, blocks_down.1.bd.0.bn.weight"/>
			</rt_info>
			<input>
				<port id="0" precision="FP32">
					<dim>1</dim>
					<dim>32</dim>
					<dim>64</dim>
					<dim>8</dim>
				</port>
				<port id="1" precision="FP32">
					<dim>1</dim>
					<dim>32</dim>
					<dim>1</dim>
					<dim>1</dim>
				</port>
			</input>
			<output>
				<port id="2" precision="FP32">
					<dim>1</dim>
					<dim>32</dim>
					<dim>64</dim>
					<dim>8</dim>
				</port>
			</output>
		</layer>
		<layer id="312" name="Constant_289191_compressed" type="Const" version="opset1">
			<data element_type="f16" shape="1, 32, 1, 1" offset="171038" size="64"/>
			<output>
				<port id="0" precision="FP16">
					<dim>1</dim>
					<dim>32</dim>
					<dim>1</dim>
					<dim>1</dim>
				</port>
			</output>
		</layer>
		<layer id="313" name="Constant_289191" type="Convert" version="opset1">
			<data destination_type="f32"/>
			<rt_info>
				<attribute name="decompression" version="0"/>
			</rt_info>
			<input>
				<port id="0" precision="FP16">
					<dim>1</dim>
					<dim>32</dim>
					<dim>1</dim>
					<dim>1</dim>
				</port>
			</input>
			<output>
				<port id="1" precision="FP32">
					<dim>1</dim>
					<dim>32</dim>
					<dim>1</dim>
					<dim>1</dim>
				</port>
			</output>
		</layer>
		<layer id="314" name="675" type="Add" version="opset1">
			<data auto_broadcast="numpy"/>
			<rt_info>
				<attribute name="fused_names" version="0" value="675, blocks_down.1.bd.0.bn.bias, blocks_down.1.bd.0.bn.running_mean, blocks_down.1.bd.0.bn.running_var, blocks_down.1.bd.0.bn.weight"/>
			</rt_info>
			<input>
				<port id="0" precision="FP32">
					<dim>1</dim>
					<dim>32</dim>
					<dim>64</dim>
					<dim>8</dim>
				</port>
				<port id="1" precision="FP32">
					<dim>1</dim>
					<dim>32</dim>
					<dim>1</dim>
					<dim>1</dim>
				</port>
			</input>
			<output>
				<port id="2" precision="FP32" names="675">
					<dim>1</dim>
					<dim>32</dim>
					<dim>64</dim>
					<dim>8</dim>
				</port>
			</output>
		</layer>
		<layer id="315" name="Constant_2623_compressed" type="Const" version="opset1">
			<data element_type="f16" shape="1" offset="132212" size="2"/>
			<output>
				<port id="0" precision="FP16">
					<dim>1</dim>
				</port>
			</output>
		</layer>
		<layer id="316" name="Constant_2623" type="Convert" version="opset1">
			<data destination_type="f32"/>
			<rt_info>
				<attribute name="decompression" version="0"/>
				<attribute name="fused_names" version="0" value="Constant_2623"/>
			</rt_info>
			<input>
				<port id="0" precision="FP16">
					<dim>1</dim>
				</port>
			</input>
			<output>
				<port id="1" precision="FP32">
					<dim>1</dim>
				</port>
			</output>
		</layer>
		<layer id="317" name="676" type="PReLU" version="opset1">
			<rt_info>
				<attribute name="fused_names" version="0" value="676"/>
			</rt_info>
			<input>
				<port id="0" precision="FP32">
					<dim>1</dim>
					<dim>32</dim>
					<dim>64</dim>
					<dim>8</dim>
				</port>
				<port id="1" precision="FP32">
					<dim>1</dim>
				</port>
			</input>
			<output>
				<port id="2" precision="FP32" names="676">
					<dim>1</dim>
					<dim>32</dim>
					<dim>64</dim>
					<dim>8</dim>
				</port>
			</output>
		</layer>
		<layer id="318" name="677" type="Concat" version="opset1">
			<data axis="3"/>
			<rt_info>
				<attribute name="fused_names" version="0" value="677"/>
			</rt_info>
			<input>
				<port id="0" precision="FP32">
					<dim>1</dim>
					<dim>32</dim>
					<dim>64</dim>
					<dim>2</dim>
				</port>
				<port id="1" precision="FP32">
					<dim>1</dim>
					<dim>32</dim>
					<dim>64</dim>
					<dim>8</dim>
				</port>
			</input>
			<output>
				<port id="2" precision="FP32" names="677">
					<dim>1</dim>
					<dim>32</dim>
					<dim>64</dim>
					<dim>10</dim>
				</port>
			</output>
		</layer>
		<layer id="319" name="blocks_down.1.bd.0.conv.weight_compressed" type="Const" version="opset1">
			<data element_type="f16" shape="16, 32, 3, 3" offset="171102" size="9216"/>
			<output>
				<port id="0" precision="FP16">
					<dim>16</dim>
					<dim>32</dim>
					<dim>3</dim>
					<dim>3</dim>
				</port>
			</output>
		</layer>
		<layer id="320" name="blocks_down.1.bd.0.conv.weight" type="Convert" version="opset1">
			<data destination_type="f32"/>
			<rt_info>
				<attribute name="decompression" version="0"/>
				<attribute name="fused_names" version="0" value="blocks_down.1.bd.0.conv.weight"/>
			</rt_info>
			<input>
				<port id="0" precision="FP16">
					<dim>16</dim>
					<dim>32</dim>
					<dim>3</dim>
					<dim>3</dim>
				</port>
			</input>
			<output>
				<port id="1" precision="FP32" names="blocks_down.1.bd.0.conv.weight">
					<dim>16</dim>
					<dim>32</dim>
					<dim>3</dim>
					<dim>3</dim>
				</port>
			</output>
		</layer>
		<layer id="321" name="Convolution_2826" type="Convolution" version="opset1">
			<data strides="1, 1" dilations="1, 1" pads_begin="1, 0" pads_end="1, 0" auto_pad="explicit"/>
			<rt_info>
				<attribute name="fused_names" version="0" value="714, Convolution_2826, Split_2758"/>
			</rt_info>
			<input>
				<port id="0" precision="FP32">
					<dim>1</dim>
					<dim>32</dim>
					<dim>64</dim>
					<dim>10</dim>
				</port>
				<port id="1" precision="FP32">
					<dim>16</dim>
					<dim>32</dim>
					<dim>3</dim>
					<dim>3</dim>
				</port>
			</input>
			<output>
				<port id="2" precision="FP32">
					<dim>1</dim>
					<dim>16</dim>
					<dim>64</dim>
					<dim>8</dim>
				</port>
			</output>
		</layer>
		<layer id="322" name="Reshape_2846_compressed" type="Const" version="opset1">
			<data element_type="f16" shape="1, 16, 1, 1" offset="180318" size="32"/>
			<output>
				<port id="0" precision="FP16">
					<dim>1</dim>
					<dim>16</dim>
					<dim>1</dim>
					<dim>1</dim>
				</port>
			</output>
		</layer>
		<layer id="323" name="Reshape_2846" type="Convert" version="opset1">
			<data destination_type="f32"/>
			<rt_info>
				<attribute name="decompression" version="0"/>
			</rt_info>
			<input>
				<port id="0" precision="FP16">
					<dim>1</dim>
…
		<edge from-layer="2420" from-port="0" to-layer="2423" to-port="0"/>
		<edge from-layer="2421" from-port="0" to-layer="2422" to-port="1"/>
		<edge from-layer="2422" from-port="2" to-layer="2423" to-port="2"/>
		<edge from-layer="2423" from-port="4" to-layer="2425" to-port="2"/>
		<edge from-layer="2424" from-port="0" to-layer="2425" to-port="3"/>
		<edge from-layer="2425" from-port="4" to-layer="2426" to-port="0"/>
		<edge from-layer="2427" from-port="0" to-layer="2437" to-port="0"/>
		<edge from-layer="2428" from-port="0" to-layer="2437" to-port="1"/>
		<edge from-layer="2428" from-port="0" to-layer="2441" to-port="1"/>
		<edge from-layer="2429" from-port="0" to-layer="2431" to-port="1"/>
		<edge from-layer="2430" from-port="0" to-layer="2431" to-port="2"/>
		<edge from-layer="2431" from-port="3" to-layer="2433" to-port="0"/>
		<edge from-layer="2432" from-port="0" to-layer="2433" to-port="1"/>
		<edge from-layer="2433" from-port="2" to-layer="2435" to-port="0"/>
		<edge from-layer="2434" from-port="0" to-layer="2435" to-port="1"/>
		<edge from-layer="2435" from-port="2" to-layer="2437" to-port="2"/>
		<edge from-layer="2435" from-port="2" to-layer="2440" to-port="0"/>
		<edge from-layer="2436" from-port="0" to-layer="2437" to-port="3"/>
		<edge from-layer="2436" from-port="0" to-layer="2441" to-port="3"/>
		<edge from-layer="2437" from-port="4" to-layer="2443" to-port="1"/>
		<edge from-layer="2438" from-port="0" to-layer="2441" to-port="0"/>
		<edge from-layer="2439" from-port="0" to-layer="2440" to-port="1"/>
		<edge from-layer="2440" from-port="2" to-layer="2441" to-port="2"/>
		<edge from-layer="2441" from-port="4" to-layer="2443" to-port="2"/>
		<edge from-layer="2442" from-port="0" to-layer="2443" to-port="3"/>
		<edge from-layer="2443" from-port="4" to-layer="2444" to-port="0"/>
		<edge from-layer="2445" from-port="0" to-layer="2456" to-port="0"/>
		<edge from-layer="2446" from-port="0" to-layer="2460" to-port="1"/>
		<edge from-layer="2446" from-port="0" to-layer="2456" to-port="1"/>
		<edge from-layer="2447" from-port="1" to-layer="2450" to-port="0"/>
		<edge from-layer="2448" from-port="0" to-layer="2450" to-port="1"/>
		<edge from-layer="2449" from-port="0" to-layer="2450" to-port="2"/>
		<edge from-layer="2450" from-port="3" to-layer="2452" to-port="0"/>
		<edge from-layer="2451" from-port="0" to-layer="2452" to-port="1"/>
		<edge from-layer="2452" from-port="2" to-layer="2454" to-port="0"/>
		<edge from-layer="2453" from-port="0" to-layer="2454" to-port="1"/>
		<edge from-layer="2454" from-port="2" to-layer="2459" to-port="0"/>
		<edge from-layer="2454" from-port="2" to-layer="2456" to-port="2"/>
		<edge from-layer="2455" from-port="0" to-layer="2456" to-port="3"/>
		<edge from-layer="2455" from-port="0" to-layer="2460" to-port="3"/>
		<edge from-layer="2456" from-port="4" to-layer="2462" to-port="1"/>
		<edge from-layer="2457" from-port="0" to-layer="2460" to-port="0"/>
		<edge from-layer="2458" from-port="0" to-layer="2459" to-port="1"/>
		<edge from-layer="2459" from-port="2" to-layer="2460" to-port="2"/>
		<edge from-layer="2460" from-port="4" to-layer="2462" to-port="2"/>
		<edge from-layer="2461" from-port="0" to-layer="2462" to-port="3"/>
		<edge from-layer="2462" from-port="4" to-layer="2463" to-port="0"/>
		<edge from-layer="2464" from-port="0" to-layer="2475" to-port="0"/>
		<edge from-layer="2465" from-port="0" to-layer="2475" to-port="1"/>
		<edge from-layer="2465" from-port="0" to-layer="2479" to-port="1"/>
		<edge from-layer="2466" from-port="1" to-layer="2469" to-port="0"/>
		<edge from-layer="2467" from-port="0" to-layer="2469" to-port="1"/>
		<edge from-layer="2468" from-port="0" to-layer="2469" to-port="2"/>
		<edge from-layer="2469" from-port="3" to-layer="2471" to-port="0"/>
		<edge from-layer="2470" from-port="0" to-layer="2471" to-port="1"/>
		<edge from-layer="2471" from-port="2" to-layer="2473" to-port="0"/>
		<edge from-layer="2472" from-port="0" to-layer="2473" to-port="1"/>
		<edge from-layer="2473" from-port="2" to-layer="2478" to-port="0"/>
		<edge from-layer="2473" from-port="2" to-layer="2475" to-port="2"/>
		<edge from-layer="2474" from-port="0" to-layer="2475" to-port="3"/>
		<edge from-layer="2474" from-port="0" to-layer="2479" to-port="3"/>
		<edge from-layer="2475" from-port="4" to-layer="2481" to-port="1"/>
		<edge from-layer="2476" from-port="0" to-layer="2479" to-port="0"/>
		<edge from-layer="2477" from-port="0" to-layer="2478" to-port="1"/>
		<edge from-layer="2478" from-port="2" to-layer="2479" to-port="2"/>
		<edge from-layer="2479" from-port="4" to-layer="2481" to-port="2"/>
		<edge from-layer="2480" from-port="0" to-layer="2481" to-port="3"/>
		<edge from-layer="2481" from-port="4" to-layer="2482" to-port="0"/>
		<edge from-layer="2483" from-port="0" to-layer="2494" to-port="0"/>
		<edge from-layer="2484" from-port="0" to-layer="2498" to-port="1"/>
		<edge from-layer="2484" from-port="0" to-layer="2494" to-port="1"/>
		<edge from-layer="2485" from-port="1" to-layer="2488" to-port="0"/>
		<edge from-layer="2486" from-port="0" to-layer="2488" to-port="1"/>
		<edge from-layer="2487" from-port="0" to-layer="2488" to-port="2"/>
		<edge from-layer="2488" from-port="3" to-layer="2490" to-port="0"/>
		<edge from-layer="2489" from-port="0" to-layer="2490" to-port="1"/>
		<edge from-layer="2490" from-port="2" to-layer="2492" to-port="0"/>
		<edge from-layer="2491" from-port="0" to-layer="2492" to-port="1"/>
		<edge from-layer="2492" from-port="2" to-layer="2494" to-port="2"/>
		<edge from-layer="2492" from-port="2" to-layer="2497" to-port="0"/>
		<edge from-layer="2493" from-port="0" to-layer="2494" to-port="3"/>
		<edge from-layer="2493" from-port="0" to-layer="2498" to-port="3"/>
		<edge from-layer="2494" from-port="4" to-layer="2500" to-port="1"/>
		<edge from-layer="2495" from-port="0" to-layer="2498" to-port="0"/>
		<edge from-layer="2496" from-port="0" to-layer="2497" to-port="1"/>
		<edge from-layer="2497" from-port="2" to-layer="2498" to-port="2"/>
		<edge from-layer="2498" from-port="4" to-layer="2500" to-port="2"/>
		<edge from-layer="2499" from-port="0" to-layer="2500" to-port="3"/>
		<edge from-layer="2500" from-port="4" to-layer="2501" to-port="0"/>
		<edge from-layer="2502" from-port="0" to-layer="2513" to-port="0"/>
		<edge from-layer="2503" from-port="0" to-layer="2513" to-port="1"/>
		<edge from-layer="2503" from-port="0" to-layer="2517" to-port="1"/>
		<edge from-layer="2504" from-port="1" to-layer="2507" to-port="0"/>
		<edge from-layer="2505" from-port="0" to-layer="2507" to-port="1"/>
		<edge from-layer="2506" from-port="0" to-layer="2507" to-port="2"/>
		<edge from-layer="2507" from-port="3" to-layer="2509" to-port="0"/>
		<edge from-layer="2508" from-port="0" to-layer="2509" to-port="1"/>
		<edge from-layer="2509" from-port="2" to-layer="2511" to-port="0"/>
		<edge from-layer="2510" from-port="0" to-layer="2511" to-port="1"/>
		<edge from-layer="2511" from-port="2" to-layer="2513" to-port="2"/>
		<edge from-layer="2511" from-port="2" to-layer="2516" to-port="0"/>
		<edge from-layer="2512" from-port="0" to-layer="2513" to-port="3"/>
		<edge from-layer="2512" from-port="0" to-layer="2517" to-port="3"/>
		<edge from-layer="2513" from-port="4" to-layer="2519" to-port="1"/>
		<edge from-layer="2514" from-port="0" to-layer="2517" to-port="0"/>
		<edge from-layer="2515" from-port="0" to-layer="2516" to-port="1"/>
		<edge from-layer="2516" from-port="2" to-layer="2517" to-port="2"/>
		<edge from-layer="2517" from-port="4" to-layer="2519" to-port="2"/>
		<edge from-layer="2518" from-port="0" to-layer="2519" to-port="3"/>
		<edge from-layer="2519" from-port="4" to-layer="2520" to-port="0"/>
		<edge from-layer="2521" from-port="0" to-layer="2531" to-port="0"/>
		<edge from-layer="2522" from-port="0" to-layer="2531" to-port="1"/>
		<edge from-layer="2522" from-port="0" to-layer="2535" to-port="1"/>
		<edge from-layer="2523" from-port="0" to-layer="2525" to-port="1"/>
		<edge from-layer="2524" from-port="0" to-layer="2525" to-port="2"/>
		<edge from-layer="2525" from-port="3" to-layer="2527" to-port="0"/>
		<edge from-layer="2526" from-port="0" to-layer="2527" to-port="1"/>
		<edge from-layer="2527" from-port="2" to-layer="2529" to-port="0"/>
		<edge from-layer="2528" from-port="0" to-layer="2529" to-port="1"/>
		<edge from-layer="2529" from-port="2" to-layer="2531" to-port="2"/>
		<edge from-layer="2529" from-port="2" to-layer="2534" to-port="0"/>
		<edge from-layer="2530" from-port="0" to-layer="2531" to-port="3"/>
		<edge from-layer="2530" from-port="0" to-layer="2535" to-port="3"/>
		<edge from-layer="2531" from-port="4" to-layer="2537" to-port="1"/>
		<edge from-layer="2532" from-port="0" to-layer="2535" to-port="0"/>
		<edge from-layer="2533" from-port="0" to-layer="2534" to-port="1"/>
		<edge from-layer="2534" from-port="2" to-layer="2535" to-port="2"/>
		<edge from-layer="2535" from-port="4" to-layer="2537" to-port="2"/>
		<edge from-layer="2536" from-port="0" to-layer="2537" to-port="3"/>
		<edge from-layer="2537" from-port="4" to-layer="2538" to-port="0"/>
		<edge from-layer="2539" from-port="0" to-layer="2550" to-port="0"/>
		<edge from-layer="2540" from-port="0" to-layer="2550" to-port="1"/>
		<edge from-layer="2540" from-port="0" to-layer="2554" to-port="1"/>
		<edge from-layer="2541" from-port="1" to-layer="2544" to-port="0"/>
		<edge from-layer="2542" from-port="0" to-layer="2544" to-port="1"/>
		<edge from-layer="2543" from-port="0" to-layer="2544" to-port="2"/>
		<edge from-layer="2544" from-port="3" to-layer="2546" to-port="0"/>
		<edge from-layer="2545" from-port="0" to-layer="2546" to-port="1"/>
		<edge from-layer="2546" from-port="2" to-layer="2548" to-port="0"/>
		<edge from-layer="2547" from-port="0" to-layer="2548" to-port="1"/>
		<edge from-layer="2548" from-port="2" to-layer="2553" to-port="0"/>
		<edge from-layer="2548" from-port="2" to-layer="2550" to-port="2"/>
		<edge from-layer="2549" from-port="0" to-layer="2550" to-port="3"/>
		<edge from-layer="2549" from-port="0" to-layer="2554" to-port="3"/>
		<edge from-layer="2550" from-port="4" to-layer="2556" to-port="1"/>
		<edge from-layer="2551" from-port="0" to-layer="2554" to-port="0"/>
		<edge from-layer="2552" from-port="0" to-layer="2553" to-port="1"/>
		<edge from-layer="2553" from-port="2" to-layer="2554" to-port="2"/>
		<edge from-layer="2554" from-port="4" to-layer="2556" to-port="2"/>
		<edge from-layer="2555" from-port="0" to-layer="2556" to-port="3"/>
		<edge from-layer="2556" from-port="4" to-layer="2557" to-port="0"/>
		<edge from-layer="2558" from-port="0" to-layer="2569" to-port="0"/>
		<edge from-layer="2559" from-port="0" to-layer="2569" to-port="1"/>
		<edge from-layer="2559" from-port="0" to-layer="2573" to-port="1"/>
		<edge from-layer="2560" from-port="1" to-layer="2563" to-port="0"/>
		<edge from-layer="2561" from-port="0" to-layer="2563" to-port="1"/>
		<edge from-layer="2562" from-port="0" to-layer="2563" to-port="2"/>
		<edge from-layer="2563" from-port="3" to-layer="2565" to-port="0"/>
		<edge from-layer="2564" from-port="0" to-layer="2565" to-port="1"/>
		<edge from-layer="2565" from-port="2" to-layer="2567" to-port="0"/>
		<edge from-layer="2566" from-port="0" to-layer="2567" to-port="1"/>
		<edge from-layer="2567" from-port="2" to-layer="2569" to-port="2"/>
		<edge from-layer="2567" from-port="2" to-layer="2572" to-port="0"/>
		<edge from-layer="2568" from-port="0" to-layer="2573" to-port="3"/>
		<edge from-layer="2568" from-port="0" to-layer="2569" to-port="3"/>
		<edge from-layer="2569" from-port="4" to-layer="2575" to-port="1"/>
		<edge from-layer="2570" from-port="0" to-layer="2573" to-port="0"/>
		<edge from-layer="2571" from-port="0" to-layer="2572" to-port="1"/>
		<edge from-layer="2572" from-port="2" to-layer="2573" to-port="2"/>
		<edge from-layer="2573" from-port="4" to-layer="2575" to-port="2"/>
		<edge from-layer="2574" from-port="0" to-layer="2575" to-port="3"/>
		<edge from-layer="2575" from-port="4" to-layer="2576" to-port="0"/>
		<edge from-layer="2577" from-port="0" to-layer="2588" to-port="0"/>
		<edge from-layer="2578" from-port="0" to-layer="2592" to-port="1"/>
		<edge from-layer="2578" from-port="0" to-layer="2588" to-port="1"/>
		<edge from-layer="2579" from-port="1" to-layer="2582" to-port="0"/>
		<edge from-layer="2580" from-port="0" to-layer="2582" to-port="1"/>
		<edge from-layer="2581" from-port="0" to-layer="2582" to-port="2"/>
		<edge from-layer="2582" from-port="3" to-layer="2584" to-port="0"/>
		<edge from-layer="2583" from-port="0" to-layer="2584" to-port="1"/>
		<edge from-layer="2584" from-port="2" to-layer="2586" to-port="0"/>
		<edge from-layer="2585" from-port="0" to-layer="2586" to-port="1"/>
		<edge from-layer="2586" from-port="2" to-layer="2588" to-port="2"/>
		<edge from-layer="2586" from-port="2" to-layer="2591" to-port="0"/>
		<edge from-layer="2587" from-port="0" to-layer="2592" to-port="3"/>
		<edge from-layer="2587" from-port="0" to-layer="2588" to-port="3"/>
		<edge from-layer="2588" from-port="4" to-layer="2594" to-port="1"/>
		<edge from-layer="2589" from-port="0" to-layer="2592" to-port="0"/>
		<edge from-layer="2590" from-port="0" to-layer="2591" to-port="1"/>
		<edge from-layer="2591" from-port="2" to-layer="2592" to-port="2"/>
		<edge from-layer="2592" from-port="4" to-layer="2594" to-port="2"/>
		<edge from-layer="2593" from-port="0" to-layer="2594" to-port="3"/>
		<edge from-layer="2594" from-port="4" to-layer="2595" to-port="0"/>
		<edge from-layer="2596" from-port="0" to-layer="2607" to-port="0"/>
		<edge from-layer="2597" from-port="0" to-layer="2611" to-port="1"/>
		<edge from-layer="2597" from-port="0" to-layer="2607" to-port="1"/>
		<edge from-layer="2598" from-port="1" to-layer="2601" to-port="0"/>
		<edge from-layer="2599" from-port="0" to-layer="2601" to-port="1"/>
		<edge from-layer="2600" from-port="0" to-layer="2601" to-port="2"/>
		<edge from-layer="2601" from-port="3" to-layer="2603" to-port="0"/>
		<edge from-layer="2602" from-port="0" to-layer="2603" to-port="1"/>
		<edge from-layer="2603" from-port="2" to-layer="2605" to-port="0"/>
		<edge from-layer="2604" from-port="0" to-layer="2605" to-port="1"/>
		<edge from-layer="2605" from-port="2" to-layer="2607" to-port="2"/>
		<edge from-layer="2605" from-port="2" to-layer="2610" to-port="0"/>
		<edge from-layer="2606" from-port="0" to-layer="2607" to-port="3"/>
		<edge from-layer="2606" from-port="0" to-layer="2611" to-port="3"/>
		<edge from-layer="2607" from-port="4" to-layer="2613" to-port="1"/>
		<edge from-layer="2608" from-port="0" to-layer="2611" to-port="0"/>
		<edge from-layer="2609" from-port="0" to-layer="2610" to-port="1"/>
		<edge from-layer="2610" from-port="2" to-layer="2611" to-port="2"/>
		<edge from-layer="2611" from-port="4" to-layer="2613" to-port="2"/>
		<edge from-layer="2612" from-port="0" to-layer="2613" to-port="3"/>
		<edge from-layer="2613" from-port="4" to-layer="2614" to-port="0"/>
		<edge from-layer="2615" from-port="0" to-layer="2625" to-port="0"/>
		<edge from-layer="2616" from-port="0" to-layer="2629" to-port="1"/>
		<edge from-layer="2616" from-port="0" to-layer="2625" to-port="1"/>
		<edge from-layer="2617" from-port="0" to-layer="2619" to-port="1"/>
		<edge from-layer="2618" from-port="0" to-layer="2619" to-port="2"/>
		<edge from-layer="2619" from-port="3" to-layer="2621" to-port="0"/>
		<edge from-layer="2620" from-port="0" to-layer="2621" to-port="1"/>
		<edge from-layer="2621" from-port="2" to-layer="2623" to-port="0"/>
		<edge from-layer="2622" from-port="0" to-layer="2623" to-port="1"/>
		<edge from-layer="2623" from-port="2" to-layer="2628" to-port="0"/>
		<edge from-layer="2623" from-port="2" to-layer="2625" to-port="2"/>
		<edge from-layer="2624" from-port="0" to-layer="2629" to-port="3"/>
		<edge from-layer="2624" from-port="0" to-layer="2625" to-port="3"/>
		<edge from-layer="2625" from-port="4" to-layer="2631" to-port="1"/>
		<edge from-layer="2626" from-port="0" to-layer="2629" to-port="0"/>
		<edge from-layer="2627" from-port="0" to-layer="2628" to-port="1"/>
		<edge from-layer="2628" from-port="2" to-layer="2629" to-port="2"/>
		<edge from-layer="2629" from-port="4" to-layer="2631" to-port="2"/>
		<edge from-layer="2630" from-port="0" to-layer="2631" to-port="3"/>
		<edge from-layer="2631" from-port="4" to-layer="2632" to-port="0"/>
		<edge from-layer="2633" from-port="0" to-layer="2644" to-port="0"/>
		<edge from-layer="2634" from-port="0" to-layer="2648" to-port="1"/>
		<edge from-layer="2634" from-port="0" to-layer="2644" to-port="1"/>
		<edge from-layer="2635" from-port="1" to-layer="2638" to-port="0"/>
		<edge from-layer="2636" from-port="0" to-layer="2638" to-port="1"/>
		<edge from-layer="2637" from-port="0" to-layer="2638" to-port="2"/>
		<edge from-layer="2638" from-port="3" to-layer="2640" to-port="0"/>
		<edge from-layer="2639" from-port="0" to-layer="2640" to-port="1"/>
		<edge from-layer="2640" from-port="2" to-layer="2642" to-port="0"/>
		<edge from-layer="2641" from-port="0" to-layer="2642" to-port="1"/>
		<edge from-layer="2642" from-port="2" to-layer="2647" to-port="0"/>
		<edge from-layer="2642" from-port="2" to-layer="2644" to-port="2"/>
		<edge from-layer="2643" from-port="0" to-layer="2648" to-port="3"/>
		<edge from-layer="2643" from-port="0" to-layer="2644" to-port="3"/>
		<edge from-layer="2644" from-port="4" to-layer="2650" to-port="1"/>
		<edge from-layer="2645" from-port="0" to-layer="2648" to-port="0"/>
		<edge from-layer="2646" from-port="0" to-layer="2647" to-port="1"/>
		<edge from-layer="2647" from-port="2" to-layer="2648" to-port="2"/>
		<edge from-layer="2648" from-port="4" to-layer="2650" to-port="2"/>
		<edge from-layer="2649" from-port="0" to-layer="2650" to-port="3"/>
		<edge from-layer="2650" from-port="4" to-layer="2651" to-port="0"/>
		<edge from-layer="2652" from-port="0" to-layer="2663" to-port="0"/>
		<edge from-layer="2653" from-port="0" to-layer="2667" to-port="1"/>
		<edge from-layer="2653" from-port="0" to-layer="2663" to-port="1"/>
		<edge from-layer="2654" from-port="1" to-layer="2657" to-port="0"/>
		<edge from-layer="2655" from-port="0" to-layer="2657" to-port="1"/>
		<edge from-layer="2656" from-port="0" to-layer="2657" to-port="2"/>
		<edge from-layer="2657" from-port="3" to-layer="2659" to-port="0"/>
		<edge from-layer="2658" from-port="0" to-layer="2659" to-port="1"/>
		<edge from-layer="2659" from-port="2" to-layer="2661" to-port="0"/>
		<edge from-layer="2660" from-port="0" to-layer="2661" to-port="1"/>
		<edge from-layer="2661" from-port="2" to-layer="2663" to-port="2"/>
		<edge from-layer="2661" from-port="2" to-layer="2666" to-port="0"/>
		<edge from-layer="2662" from-port="0" to-layer="2663" to-port="3"/>
		<edge from-layer="2662" from-port="0" to-layer="2667" to-port="3"/>
		<edge from-layer="2663" from-port="4" to-layer="2669" to-port="1"/>
		<edge from-layer="2664" from-port="0" to-layer="2667" to-port="0"/>
		<edge from-layer="2665" from-port="0" to-layer="2666" to-port="1"/>
		<edge from-layer="2666" from-port="2" to-layer="2667" to-port="2"/>
		<edge from-layer="2667" from-port="4" to-layer="2669" to-port="2"/>
		<edge from-layer="2668" from-port="0" to-layer="2669" to-port="3"/>
		<edge from-layer="2669" from-port="4" to-layer="2670" to-port="0"/>
		<edge from-layer="2671" from-port="0" to-layer="2682" to-port="0"/>
		<edge from-layer="2672" from-port="0" to-layer="2686" to-port="1"/>
		<edge from-layer="2672" from-port="0" to-layer="2682" to-port="1"/>
		<edge from-layer="2673" from-port="1" to-layer="2676" to-port="0"/>
		<edge from-layer="2674" from-port="0" to-layer="2676" to-port="1"/>
		<edge from-layer="2675" from-port="0" to-layer="2676" to-port="2"/>
		<edge from-layer="2676" from-port="3" to-layer="2678" to-port="0"/>
		<edge from-layer="2677" from-port="0" to-layer="2678" to-port="1"/>
		<edge from-layer="2678" from-port="2" to-layer="2680" to-port="0"/>
		<edge from-layer="2679" from-port="0" to-layer="2680" to-port="1"/>
		<edge from-layer="2680" from-port="2" to-layer="2682" to-port="2"/>
		<edge from-layer="2680" from-port="2" to-layer="2685" to-port="0"/>
		<edge from-layer="2681" from-port="0" to-layer="2686" to-port="3"/>
		<edge from-layer="2681" from-port="0" to-layer="2682" to-port="3"/>
		<edge from-layer="2682" from-port="4" to-layer="2688" to-port="1"/>
		<edge from-layer="2683" from-port="0" to-layer="2686" to-port="0"/>
		<edge from-layer="2684" from-port="0" to-layer="2685" to-port="1"/>
		<edge from-layer="2685" from-port="2" to-layer="2686" to-port="2"/>
		<edge from-layer="2686" from-port="4" to-layer="2688" to-port="2"/>
		<edge from-layer="2687" from-port="0" to-layer="2688" to-port="3"/>
		<edge from-layer="2688" from-port="4" to-layer="2689" to-port="0"/>
		<edge from-layer="2690" from-port="0" to-layer="2701" to-port="0"/>
		<edge from-layer="2691" from-port="0" to-layer="2701" to-port="1"/>
		<edge from-layer="2691" from-port="0" to-layer="2705" to-port="1"/>
		<edge from-layer="2692" from-port="1" to-layer="2695" to-port="0"/>
		<edge from-layer="2693" from-port="0" to-layer="2695" to-port="1"/>
		<edge from-layer="2694" from-port="0" to-layer="2695" to-port="2"/>
		<edge from-layer="2695" from-port="3" to-layer="2697" to-port="0"/>
		<edge from-layer="2696" from-port="0" to-layer="2697" to-port="1"/>
		<edge from-layer="2697" from-port="2" to-layer="2699" to-port="0"/>
		<edge from-layer="2698" from-port="0" to-layer="2699" to-port="1"/>
		<edge from-layer="2699" from-port="2" to-layer="2704" to-port="0"/>
		<edge from-layer="2699" from-port="2" to-layer="2701" to-port="2"/>
		<edge from-layer="2700" from-port="0" to-layer="2705" to-port="3"/>
		<edge from-layer="2700" from-port="0" to-layer="2701" to-port="3"/>
		<edge from-layer="2701" from-port="4" to-layer="2707" to-port="1"/>
		<edge from-layer="2702" from-port="0" to-layer="2705" to-port="0"/>
		<edge from-layer="2703" from-port="0" to-layer="2704" to-port="1"/>
		<edge from-layer="2704" from-port="2" to-layer="2705" to-port="2"/>
		<edge from-layer="2705" from-port="4" to-layer="2707" to-port="2"/>
		<edge from-layer="2706" from-port="0" to-layer="2707" to-port="3"/>
		<edge from-layer="2707" from-port="4" to-layer="2708" to-port="0"/>
		<edge from-layer="2709" from-port="0" to-layer="2719" to-port="0"/>
		<edge from-layer="2710" from-port="0" to-layer="2723" to-port="1"/>
		<edge from-layer="2710" from-port="0" to-layer="2719" to-port="1"/>
		<edge from-layer="2711" from-port="0" to-layer="2713" to-port="1"/>
		<edge from-layer="2712" from-port="0" to-layer="2713" to-port="2"/>
		<edge from-layer="2713" from-port="3" to-layer="2715" to-port="0"/>
		<edge from-layer="2714" from-port="0" to-layer="2715" to-port="1"/>
		<edge from-layer="2715" from-port="2" to-layer="2717" to-port="0"/>
		<edge from-layer="2716" from-port="0" to-layer="2717" to-port="1"/>
		<edge from-layer="2717" from-port="2" to-layer="2719" to-port="2"/>
		<edge from-layer="2717" from-port="2" to-layer="2722" to-port="0"/>
		<edge from-layer="2718" from-port="0" to-layer="2719" to-port="3"/>
		<edge from-layer="2718" from-port="0" to-layer="2723" to-port="3"/>
		<edge from-layer="2719" from-port="4" to-layer="2725" to-port="1"/>
		<edge from-layer="2720" from-port="0" to-layer="2723" to-port="0"/>
		<edge from-layer="2721" from-port="0" to-layer="2722" to-port="1"/>
		<edge from-layer="2722" from-port="2" to-layer="2723" to-port="2"/>
		<edge from-layer="2723" from-port="4" to-layer="2725" to-port="2"/>
		<edge from-layer="2724" from-port="0" to-layer="2725" to-port="3"/>
		<edge from-layer="2725" from-port="4" to-layer="2726" to-port="0"/>
		<edge from-layer="2727" from-port="0" to-layer="2738" to-port="0"/>
		<edge from-layer="2728" from-port="0" to-layer="2742" to-port="1"/>
		<edge from-layer="2728" from-port="0" to-layer="2738" to-port="1"/>
		<edge from-layer="2729" from-port="1" to-layer="2732" to-port="0"/>
		<edge from-layer="2730" from-port="0" to-layer="2732" to-port="1"/>
		<edge from-layer="2731" from-port="0" to-layer="2732" to-port="2"/>
		<edge from-layer="2732" from-port="3" to-layer="2734" to-port="0"/>
		<edge from-layer="2733" from-port="0" to-layer="2734" to-port="1"/>
		<edge from-layer="2734" from-port="2" to-layer="2736" to-port="0"/>
		<edge from-layer="2735" from-port="0" to-layer="2736" to-port="1"/>
		<edge from-layer="2736" from-port="2" to-layer="2738" to-port="2"/>
		<edge from-layer="2736" from-port="2" to-layer="2741" to-port="0"/>
		<edge from-layer="2737" from-port="0" to-layer="2742" to-port="3"/>
		<edge from-layer="2737" from-port="0" to-layer="2738" to-port="3"/>
		<edge from-layer="2738" from-port="4" to-layer="2744" to-port="1"/>
		<edge from-layer="2739" from-port="0" to-layer="2742" to-port="0"/>
		<edge from-layer="2740" from-port="0" to-layer="2741" to-port="1"/>
		<edge from-layer="2741" from-port="2" to-layer="2742" to-port="2"/>
		<edge from-layer="2742" from-port="4" to-layer="2744" to-port="2"/>
		<edge from-layer="2743" from-port="0" to-layer="2744" to-port="3"/>
		<edge from-layer="2744" from-port="4" to-layer="2745" to-port="0"/>
		<edge from-layer="2746" from-port="0" to-layer="2757" to-port="0"/>
		<edge from-layer="2747" from-port="0" to-layer="2757" to-port="1"/>
		<edge from-layer="2747" from-port="0" to-layer="2761" to-port="1"/>
		<edge from-layer="2748" from-port="1" to-layer="2751" to-port="0"/>
		<edge from-layer="2749" from-port="0" to-layer="2751" to-port="1"/>
		<edge from-layer="2750" from-port="0" to-layer="2751" to-port="2"/>
		<edge from-layer="2751" from-port="3" to-layer="2753" to-port="0"/>
		<edge from-layer="2752" from-port="0" to-layer="2753" to-port="1"/>
		<edge from-layer="2753" from-port="2" to-layer="2755" to-port="0"/>
		<edge from-layer="2754" from-port="0" to-layer="2755" to-port="1"/>
		<edge from-layer="2755" from-port="2" to-layer="2757" to-port="2"/>
		<edge from-layer="2755" from-port="2" to-layer="2760" to-port="0"/>
		<edge from-layer="2756" from-port="0" to-layer="2757" to-port="3"/>
		<edge from-layer="2756" from-port="0" to-layer="2761" to-port="3"/>
		<edge from-layer="2757" from-port="4" to-layer="2763" to-port="1"/>
		<edge from-layer="2758" from-port="0" to-layer="2761" to-port="0"/>
		<edge from-layer="2759" from-port="0" to-layer="2760" to-port="1"/>
		<edge from-layer="2760" from-port="2" to-layer="2761" to-port="2"/>
		<edge from-layer="2761" from-port="4" to-layer="2763" to-port="2"/>
		<edge from-layer="2762" from-port="0" to-layer="2763" to-port="3"/>
		<edge from-layer="2763" from-port="4" to-layer="2764" to-port="0"/>
		<edge from-layer="2765" from-port="0" to-layer="2776" to-port="0"/>
		<edge from-layer="2766" from-port="0" to-layer="2776" to-port="1"/>
		<edge from-layer="2766" from-port="0" to-layer="2780" to-port="1"/>
		<edge from-layer="2767" from-port="1" to-layer="2770" to-port="0"/>
		<edge from-layer="2768" from-port="0" to-layer="2770" to-port="1"/>
		<edge from-layer="2769" from-port="0" to-layer="2770" to-port="2"/>
		<edge from-layer="2770" from-port="3" to-layer="2772" to-port="0"/>
		<edge from-layer="2771" from-port="0" to-layer="2772" to-port="1"/>
		<edge from-layer="2772" from-port="2" to-layer="2774" to-port="0"/>
		<edge from-layer="2773" from-port="0" to-layer="2774" to-port="1"/>
		<edge from-layer="2774" from-port="2" to-layer="2779" to-port="0"/>
		<edge from-layer="2774" from-port="2" to-layer="2776" to-port="2"/>
		<edge from-layer="2775" from-port="0" to-layer="2776" to-port="3"/>
		<edge from-layer="2775" from-port="0" to-layer="2780" to-port="3"/>
		<edge from-layer="2776" from-port="4" to-layer="2782" to-port="1"/>
		<edge from-layer="2777" from-port="0" to-layer="2780" to-port="0"/>
		<edge from-layer="2778" from-port="0" to-layer="2779" to-port="1"/>
		<edge from-layer="2779" from-port="2" to-layer="2780" to-port="2"/>
		<edge from-layer="2780" from-port="4" to-layer="2782" to-port="2"/>
		<edge from-layer="2781" from-port="0" to-layer="2782" to-port="3"/>
		<edge from-layer="2782" from-port="4" to-layer="2783" to-port="0"/>
		<edge from-layer="2784" from-port="0" to-layer="2795" to-port="0"/>
		<edge from-layer="2785" from-port="0" to-layer="2795" to-port="1"/>
		<edge from-layer="2785" from-port="0" to-layer="2799" to-port="1"/>
		<edge from-layer="2786" from-port="1" to-layer="2789" to-port="0"/>
		<edge from-layer="2787" from-port="0" to-layer="2789" to-port="1"/>
		<edge from-layer="2788" from-port="0" to-layer="2789" to-port="2"/>
		<edge from-layer="2789" from-port="3" to-layer="2791" to-port="0"/>
		<edge from-layer="2790" from-port="0" to-layer="2791" to-port="1"/>
		<edge from-layer="2791" from-port="2" to-layer="2793" to-port="0"/>
		<edge from-layer="2792" from-port="0" to-layer="2793" to-port="1"/>
		<edge from-layer="2793" from-port="2" to-layer="2798" to-port="0"/>
		<edge from-layer="2793" from-port="2" to-layer="2795" to-port="2"/>
		<edge from-layer="2794" from-port="0" to-layer="2799" to-port="3"/>
		<edge from-layer="2794" from-port="0" to-layer="2795" to-port="3"/>
		<edge from-layer="2795" from-port="4" to-layer="2801" to-port="1"/>
		<edge from-layer="2796" from-port="0" to-layer="2799" to-port="0"/>
		<edge from-layer="2797" from-port="0" to-layer="2798" to-port="1"/>
		<edge from-layer="2798" from-port="2" to-layer="2799" to-port="2"/>
		<edge from-layer="2799" from-port="4" to-layer="2801" to-port="2"/>
		<edge from-layer="2800" from-port="0" to-layer="2801" to-port="3"/>
		<edge from-layer="2801" from-port="4" to-layer="2802" to-port="0"/>
		<edge from-layer="2803" from-port="0" to-layer="2813" to-port="0"/>
		<edge from-layer="2804" from-port="0" to-layer="2813" to-port="1"/>
		<edge from-layer="2804" from-port="0" to-layer="2817" to-port="1"/>
		<edge from-layer="2805" from-port="0" to-layer="2807" to-port="1"/>
		<edge from-layer="2806" from-port="0" to-layer="2807" to-port="2"/>
		<edge from-layer="2807" from-port="3" to-layer="2809" to-port="0"/>
		<edge from-layer="2808" from-port="0" to-layer="2809" to-port="1"/>
		<edge from-layer="2809" from-port="2" to-layer="2811" to-port="0"/>
		<edge from-layer="2810" from-port="0" to-layer="2811" to-port="1"/>
		<edge from-layer="2811" from-port="2" to-layer="2813" to-port="2"/>
		<edge from-layer="2811" from-port="2" to-layer="2816" to-port="0"/>
		<edge from-layer="2812" from-port="0" to-layer="2817" to-port="3"/>
		<edge from-layer="2812" from-port="0" to-layer="2813" to-port="3"/>
		<edge from-layer="2813" from-port="4" to-layer="2819" to-port="1"/>
		<edge from-layer="2814" from-port="0" to-layer="2817" to-port="0"/>
		<edge from-layer="2815" from-port="0" to-layer="2816" to-port="1"/>
		<edge from-layer="2816" from-port="2" to-layer="2817" to-port="2"/>
		<edge from-layer="2817" from-port="4" to-layer="2819" to-port="2"/>
		<edge from-layer="2818" from-port="0" to-layer="2819" to-port="3"/>
		<edge from-layer="2819" from-port="4" to-layer="2820" to-port="0"/>
		<edge from-layer="2821" from-port="0" to-layer="2832" to-port="0"/>
		<edge from-layer="2822" from-port="0" to-layer="2832" to-port="1"/>
		<edge from-layer="2822" from-port="0" to-layer="2836" to-port="1"/>
		<edge from-layer="2823" from-port="1" to-layer="2826" to-port="0"/>
		<edge from-layer="2824" from-port="0" to-layer="2826" to-port="1"/>
		<edge from-layer="2825" from-port="0" to-layer="2826" to-port="2"/>
		<edge from-layer="2826" from-port="3" to-layer="2828" to-port="0"/>
		<edge from-layer="2827" from-port="0" to-layer="2828" to-port="1"/>
		<edge from-layer="2828" from-port="2" to-layer="2830" to-port="0"/>
		<edge from-layer="2829" from-port="0" to-layer="2830" to-port="1"/>
		<edge from-layer="2830" from-port="2" to-layer="2832" to-port="2"/>
		<edge from-layer="2830" from-port="2" to-layer="2835" to-port="0"/>
		<edge from-layer="2831" from-port="0" to-layer="2836" to-port="3"/>
		<edge from-layer="2831" from-port="0" to-layer="2832" to-port="3"/>
		<edge from-layer="2832" from-port="4" to-layer="2838" to-port="1"/>
		<edge from-layer="2833" from-port="0" to-layer="2836" to-port="0"/>
		<edge from-layer="2834" from-port="0" to-layer="2835" to-port="1"/>
		<edge from-layer="2835" from-port="2" to-layer="2836" to-port="2"/>
		<edge from-layer="2836" from-port="4" to-layer="2838" to-port="2"/>
		<edge from-layer="2837" from-port="0" to-layer="2838" to-port="3"/>
		<edge from-layer="2838" from-port="4" to-layer="2839" to-port="0"/>
		<edge from-layer="2840" from-port="0" to-layer="2851" to-port="0"/>
		<edge from-layer="2841" from-port="0" to-layer="2851" to-port="1"/>
		<edge from-layer="2841" from-port="0" to-layer="2855" to-port="1"/>
		<edge from-layer="2842" from-port="1" to-layer="2845" to-port="0"/>
		<edge from-layer="2843" from-port="0" to-layer="2845" to-port="1"/>
		<edge from-layer="2844" from-port="0" to-layer="2845" to-port="2"/>
		<edge from-layer="2845" from-port="3" to-layer="2847" to-port="0"/>
		<edge from-layer="2846" from-port="0" to-layer="2847" to-port="1"/>
		<edge from-layer="2847" from-port="2" to-layer="2849" to-port="0"/>
		<edge from-layer="2848" from-port="0" to-layer="2849" to-port="1"/>
		<edge from-layer="2849" from-port="2" to-layer="2851" to-port="2"/>
		<edge from-layer="2849" from-port="2" to-layer="2854" to-port="0"/>
		<edge from-layer="2850" from-port="0" to-layer="2855" to-port="3"/>
		<edge from-layer="2850" from-port="0" to-layer="2851" to-port="3"/>
		<edge from-layer="2851" from-port="4" to-layer="2857" to-port="1"/>
		<edge from-layer="2852" from-port="0" to-layer="2855" to-port="0"/>
		<edge from-layer="2853" from-port="0" to-layer="2854" to-port="1"/>
		<edge from-layer="2854" from-port="2" to-layer="2855" to-port="2"/>
		<edge from-layer="2855" from-port="4" to-layer="2857" to-port="2"/>
		<edge from-layer="2856" from-port="0" to-layer="2857" to-port="3"/>
		<edge from-layer="2857" from-port="4" to-layer="2858" to-port="0"/>
		<edge from-layer="2859" from-port="0" to-layer="2870" to-port="0"/>
		<edge from-layer="2860" from-port="0" to-layer="2870" to-port="1"/>
		<edge from-layer="2860" from-port="0" to-layer="2874" to-port="1"/>
		<edge from-layer="2861" from-port="1" to-layer="2864" to-port="0"/>
		<edge from-layer="2862" from-port="0" to-layer="2864" to-port="1"/>
		<edge from-layer="2863" from-port="0" to-layer="2864" to-port="2"/>
		<edge from-layer="2864" from-port="3" to-layer="2866" to-port="0"/>
		<edge from-layer="2865" from-port="0" to-layer="2866" to-port="1"/>
		<edge from-layer="2866" from-port="2" to-layer="2868" to-port="0"/>
		<edge from-layer="2867" from-port="0" to-layer="2868" to-port="1"/>
		<edge from-layer="2868" from-port="2" to-layer="2873" to-port="0"/>
		<edge from-layer="2868" from-port="2" to-layer="2870" to-port="2"/>
		<edge from-layer="2869" from-port="0" to-layer="2870" to-port="3"/>
		<edge from-layer="2869" from-port="0" to-layer="2874" to-port="3"/>
		<edge from-layer="2870" from-port="4" to-layer="2876" to-port="1"/>
		<edge from-layer="2871" from-port="0" to-layer="2874" to-port="0"/>
		<edge from-layer="2872" from-port="0" to-layer="2873" to-port="1"/>
		<edge from-layer="2873" from-port="2" to-layer="2874" to-port="2"/>
		<edge from-layer="2874" from-port="4" to-layer="2876" to-port="2"/>
		<edge from-layer="2875" from-port="0" to-layer="2876" to-port="3"/>
		<edge from-layer="2876" from-port="4" to-layer="2877" to-port="0"/>
		<edge from-layer="2878" from-port="0" to-layer="2889" to-port="0"/>
		<edge from-layer="2879" from-port="0" to-layer="2889" to-port="1"/>
		<edge from-layer="2879" from-port="0" to-layer="2893" to-port="1"/>
		<edge from-layer="2880" from-port="1" to-layer="2883" to-port="0"/>
		<edge from-layer="2881" from-port="0" to-layer="2883" to-port="1"/>
		<edge from-layer="2882" from-port="0" to-layer="2883" to-port="2"/>
		<edge from-layer="2883" from-port="3" to-layer="2885" to-port="0"/>
		<edge from-layer="2884" from-port="0" to-layer="2885" to-port="1"/>
		<edge from-layer="2885" from-port="2" to-layer="2887" to-port="0"/>
		<edge from-layer="2886" from-port="0" to-layer="2887" to-port="1"/>
		<edge from-layer="2887" from-port="2" to-layer="2889" to-port="2"/>
		<edge from-layer="2887" from-port="2" to-layer="2892" to-port="0"/>
		<edge from-layer="2888" from-port="0" to-layer="2893" to-port="3"/>
		<edge from-layer="2888" from-port="0" to-layer="2889" to-port="3"/>
		<edge from-layer="2889" from-port="4" to-layer="2895" to-port="1"/>
		<edge from-layer="2890" from-port="0" to-layer="2893" to-port="0"/>
		<edge from-layer="2891" from-port="0" to-layer="2892" to-port="1"/>
		<edge from-layer="2892" from-port="2" to-layer="2893" to-port="2"/>
		<edge from-layer="2893" from-port="4" to-layer="2895" to-port="2"/>
		<edge from-layer="2894" from-port="0" to-layer="2895" to-port="3"/>
		<edge from-layer="2895" from-port="4" to-layer="2896" to-port="0"/>
		<edge from-layer="2897" from-port="0" to-layer="2907" to-port="0"/>
		<edge from-layer="2898" from-port="0" to-layer="2900" to-port="1"/>
		<edge from-layer="2899" from-port="0" to-layer="2900" to-port="2"/>
		<edge from-layer="2900" from-port="3" to-layer="2902" to-port="0"/>
		<edge from-layer="2901" from-port="0" to-layer="2902" to-port="1"/>
		<edge from-layer="2902" from-port="2" to-layer="2904" to-port="0"/>
		<edge from-layer="2903" from-port="0" to-layer="2904" to-port="1"/>
		<edge from-layer="2904" from-port="2" to-layer="2907" to-port="1"/>
		<edge from-layer="2905" from-port="0" to-layer="2907" to-port="2"/>
		<edge from-layer="2906" from-port="0" to-layer="2907" to-port="3"/>
		<edge from-layer="2907" from-port="4" to-layer="2908" to-port="1"/>
		<edge from-layer="2908" from-port="2" to-layer="2909" to-port="0"/>
		<edge from-layer="2909" from-port="2" to-layer="2912" to-port="0"/>
		<edge from-layer="2910" from-port="0" to-layer="2912" to-port="1"/>
		<edge from-layer="2911" from-port="0" to-layer="2912" to-port="2"/>
		<edge from-layer="2912" from-port="3" to-layer="2915" to-port="0"/>
		<edge from-layer="2913" from-port="0" to-layer="2915" to-port="1"/>
		<edge from-layer="2914" from-port="0" to-layer="2915" to-port="2"/>
		<edge from-layer="2915" from-port="3" to-layer="2919" to-port="0"/>
		<edge from-layer="2916" from-port="0" to-layer="2919" to-port="1"/>
		<edge from-layer="2917" from-port="0" to-layer="2919" to-port="2"/>
		<edge from-layer="2918" from-port="0" to-layer="2919" to-port="3"/>
		<edge from-layer="2919" from-port="4" to-layer="2920" to-port="0"/>
	</edges>
	<meta_data>
		<MO_version value="2022.1.0-6910-173f328c53d"/>
		<Runtime_version value="2022.1.0-6910-173f328c53d"/>
		<legacy_path value="False"/>
		<cli_parameters>
			<caffe_parser_path value="DIR"/>
			<compress_fp16 value="True"/>
			<data_type value="FP32"/>
			<disable_nhwc_to_nchw value="False"/>
			<disable_omitting_optional value="False"/>
			<disable_resnet_optimization value="False"/>
			<disable_weights_compression value="False"/>
			<enable_concat_optimization value="False"/>
			<enable_flattening_nested_params value="False"/>
			<enable_ssd_gluoncv value="False"/>
			<extensions value="DIR"/>
			<framework value="onnx"/>
			<freeze_placeholder_with_value value="{}"/>
			<generate_deprecated_IR_V7 value="False"/>
			<input value="input,inp_state_000,inp_state_001,inp_state_002,inp_state_003,inp_state_004,inp_state_005,inp_state_006,inp_state_007,inp_state_008,inp_state_009,inp_state_010,inp_state_011,inp_state_012,inp_state_013,inp_state_014,inp_state_015,inp_state_016,inp_state_017,inp_state_018,inp_state_019,inp_state_020,inp_state_021,inp_state_022,inp_state_023,inp_state_024,inp_state_025,inp_state_026,inp_state_027,inp_state_028,inp_state_029,inp_state_030,inp_state_031,inp_state_032,inp_state_033,inp_state_034,inp_state_035,inp_state_036,inp_state_037,inp_state_038,inp_state_039,inp_state_040,inp_state_041,inp_state_042,inp_state_043,inp_state_044,inp_state_045,inp_state_046,inp_state_047,inp_state_048,inp_state_049"/>
			<input_model value="DIR/model.onnx"/>
			<input_model_is_text value="False"/>
			<input_shape value="[1,2048],[1,128],[1,2,129,2],[1,18,129,2],[1,34,129,2],[1,129,32,32],[1,129,32,32],[1,32,64,2],[1,48,64,2],[1,64,64,2],[1,64,64,22],[1,64,64,22],[1,64,32,2],[1,96,32,2],[1,128,32,2],[1,32,128,16],[1,32,128,16],[1,128,16,2],[1,192,16,2],[1,256,16,2],[1,16,256,11],[1,16,256,11],[1,256,8,2],[1,384,8,2],[1,512,8,2],[1,8,256,8],[1,8,256,8],[1,512,16,2],[1,256,16,2],[1,384,16,2],[1,512,16,2],[1,16,128,11],[1,16,128,11],[1,256,32,2],[1,128,32,2],[1,192,32,2],[1,256,32,2],[1,32,64,16],[1,32,64,16],[1,128,64,2],[1,64,64,2],[1,96,64,2],[1,128,64,2],[1,64,32,22],[1,64,32,22],[1,64,129,2],[1,32,129,2],[1,48,129,2],[1,64,129,2],[1,2,129,4],[1,2,129,1]"/>
			<k value="DIR/CustomLayersMapping.xml"/>
			<keep_shape_ops value="True"/>
			<layout value="input(nc),inp_state_000(nc),inp_state_001(nchw),inp_state_002(nchw),inp_state_003(nchw),inp_state_004(nchw),inp_state_005(nchw),inp_state_006(nchw),inp_state_007(nchw),inp_state_008(nchw),inp_state_009(nchw),inp_state_010(nchw),inp_state_011(nchw),inp_state_012(nchw),inp_state_013(nchw),inp_state_014(nchw),inp_state_015(nchw),inp_state_016(nchw),inp_state_017(nchw),inp_state_018(nchw),inp_state_019(nchw),inp_state_020(nchw),inp_state_021(nchw),inp_state_022(nchw),inp_state_023(nchw),inp_state_024(nchw),inp_state_025(nchw),inp_state_026(nchw),inp_state_027(nchw),inp_state_028(nchw),inp_state_029(nchw),inp_state_030(nchw),inp_state_031(nchw),inp_state_032(nchw),inp_state_033(nchw),inp_state_034(nchw),inp_state_035(nchw),inp_state_036(nchw),inp_state_037(nchw),inp_state_038(nchw),inp_state_039(nchw),inp_state_040(nchw),inp_state_041(nchw),inp_state_042(nchw),inp_state_043(nchw),inp_state_044(nchw),inp_state_045(nchw),inp_state_046(nchw),inp_state_047(nchw),inp_state_048(nchw),inp_state_049(nchw)"/>
			<layout_values value="{'input': {'source_layout': 'nc', 'target_layout': None, 'is_input': True}, 'inp_state_000': {'source_layout': 'nc', 'target_layout': None, 'is_input': True}, 'inp_state_001': {'source_layout': 'nchw', 'target_layout': None, 'is_input': True}, 'inp_state_002': {'source_layout': 'nchw', 'target_layout': None, 'is_input': True}, 'inp_state_003': {'source_layout': 'nchw', 'target_layout': None, 'is_input': True}, 'inp_state_004': {'source_layout': 'nchw', 'target_layout': None, 'is_input': True}, 'inp_state_005': {'source_layout': 'nchw', 'target_layout': None, 'is_input': True}, 'inp_state_006': {'source_layout': 'nchw', 'target_layout': None, 'is_input': True}, 'inp_state_007': {'source_layout': 'nchw', 'target_layout': None, 'is_input': True}, 'inp_state_008': {'source_layout': 'nchw', 'target_layout': None, 'is_input': True}, 'inp_state_009': {'source_layout': 'nchw', 'target_layout': None, 'is_input': True}, 'inp_state_010': {'source_layout': 'nchw', 'target_layout': None, 'is_input': True}, 'inp_state_011': {'source_layout': 'nchw', 'target_layout': None, 'is_input': True}, 'inp_state_012': {'source_layout': 'nchw', 'target_layout': None, 'is_input': True}, 'inp_state_013': {'source_layout': 'nchw', 'target_layout': None, 'is_input': True}, 'inp_state_014': {'source_layout': 'nchw', 'target_layout': None, 'is_input': True}, 'inp_state_015': {'source_layout': 'nchw', 'target_layout': None, 'is_input': True}, 'inp_state_016': {'source_layout': 'nchw', 'target_layout': None, 'is_input': True}, 'inp_state_017': {'source_layout': 'nchw', 'target_layout': None, 'is_input': True}, 'inp_state_018': {'source_layout': 'nchw', 'target_layout': None, 'is_input': True}, 'inp_state_019': {'source_layout': 'nchw', 'target_layout': None, 'is_input': True}, 'inp_state_020': {'source_layout': 'nchw', 'target_layout': None, 'is_input': True}, 'inp_state_021': {'source_layout': 'nchw', 'target_layout': None, 'is_input': True}, 'inp_state_022': {'source_layout': 'nchw', 'target_layout': None, 'is_input': True}, 'inp_state_023': {'source_layout': 'nchw', 'target_layout': None, 'is_input': True}, 'inp_state_024': {'source_layout': 'nchw', 'target_layout': None, 'is_input': True}, 'inp_state_025': {'source_layout': 'nchw', 'target_layout': None, 'is_input': True}, 'inp_state_026': {'source_layout': 'nchw', 'target_layout': None, 'is_input': True}, 'inp_state_027': {'source_layout': 'nchw', 'target_layout': None, 'is_input': True}, 'inp_state_028': {'source_layout': 'nchw', 'target_layout': None, 'is_input': True}, 'inp_state_029': {'source_layout': 'nchw', 'target_layout': None, 'is_input': True}, 'inp_state_030': {'source_layout': 'nchw', 'target_layout': None, 'is_input': True}, 'inp_state_031': {'source_layout': 'nchw', 'target_layout': None, 'is_input': True}, 'inp_state_032': {'source_layout': 'nchw', 'target_layout': None, 'is_input': True}, 'inp_state_033': {'source_layout': 'nchw', 'target_layout': None, 'is_input': True}, 'inp_state_034': {'source_layout': 'nchw', 'target_layout': None, 'is_input': True}, 'inp_state_035': {'source_layout': 'nchw', 'target_layout': None, 'is_input': True}, 'inp_state_036': {'source_layout': 'nchw', 'target_layout': None, 'is_input': True}, 'inp_state_037': {'source_layout': 'nchw', 'target_layout': None, 'is_input': True}, 'inp_state_038': {'source_layout': 'nchw', 'target_layout': None, 'is_input': True}, 'inp_state_039': {'source_layout': 'nchw', 'target_layout': None, 'is_input': True}, 'inp_state_040': {'source_layout': 'nchw', 'target_layout': None, 'is_input': True}, 'inp_state_041': {'source_layout': 'nchw', 'target_layout': None, 'is_input': True}, 'inp_state_042': {'source_layout': 'nchw', 'target_layout': None, 'is_input': True}, 'inp_state_043': {'source_layout': 'nchw', 'target_layout': None, 'is_input': True}, 'inp_state_044': {'source_layout': 'nchw', 'target_layout': None, 'is_input': True}, 'inp_state_045': {'source_layout': 'nchw', 'target_layout': None, 'is_input': True}, 'inp_state_046': {'source_layout': 'nchw', 'target_layout': None, 'is_input': True}, 'inp_state_047': {'source_layout': 'nchw', 'target_layout': None, 'is_input': True}, 'inp_state_048': {'source_layout': 'nchw', 'target_layout': None, 'is_input': True}, 'inp_state_049': {'source_layout': 'nchw', 'target_layout': None, 'is_input': True}}"/>
			<legacy_ir_generation value="False"/>
			<legacy_mxnet_model value="False"/>
			<log_level value="ERROR"/>
			<mean_scale_values value="{}"/>
			<mean_values value="()"/>
			<model_name value="noise-suppression-poconetlike-0001"/>
			<output value="['output', 'out_state_000', 'out_state_001', 'out_state_002', 'out_state_003', 'out_state_004', 'out_state_005', 'out_state_006', 'out_state_007', 'out_state_008', 'out_state_009', 'out_state_010', 'out_state_011', 'out_state_012', 'out_state_013', 'out_state_014', 'out_state_015', 'out_state_016', 'out_state_017', 'out_state_018', 'out_state_019', 'out_state_020', 'out_state_021', 'out_state_022', 'out_state_023', 'out_state_024', 'out_state_025', 'out_state_026', 'out_state_027', 'out_state_028', 'out_state_029', 'out_state_030', 'out_state_031', 'out_state_032', 'out_state_033', 'out_state_034', 'out_state_035', 'out_state_036', 'out_state_037', 'out_state_038', 'out_state_039', 'out_state_040', 'out_state_041', 'out_state_042', 'out_state_043', 'out_state_044', 'out_state_045', 'out_state_046', 'out_state_047', 'out_state_048', 'out_state_049']"/>
			<output_dir value="DIR"/>
			<placeholder_data_types value="{}"/>
			<placeholder_shapes value="{'input': (1, 2048), 'inp_state_000': (1, 128), 'inp_state_001': (1, 2, 129, 2), 'inp_state_002': (1, 18, 129, 2), 'inp_state_003': (1, 34, 129, 2), 'inp_state_004': (1, 129, 32, 32), 'inp_state_005': (1, 129, 32, 32), 'inp_state_006': (1, 32, 64, 2), 'inp_state_007': (1, 48, 64, 2), 'inp_state_008': (1, 64, 64, 2), 'inp_state_009': (1, 64, 64, 22), 'inp_state_010': (1, 64, 64, 22), 'inp_state_011': (1, 64, 32, 2), 'inp_state_012': (1, 96, 32, 2), 'inp_state_013': (1, 128, 32, 2), 'inp_state_014': (1, 32, 128, 16), 'inp_state_015': (1, 32, 128, 16), 'inp_state_016': (1, 128, 16, 2), 'inp_state_017': (1, 192, 16, 2), 'inp_state_018': (1, 256, 16, 2), 'inp_state_019': (1, 16, 256, 11), 'inp_state_020': (1, 16, 256, 11), 'inp_state_021': (1, 256, 8, 2), 'inp_state_022': (1, 384, 8, 2), 'inp_state_023': (1, 512, 8, 2), 'inp_state_024': (1, 8, 256, 8), 'inp_state_025': (1, 8, 256, 8), 'inp_state_026': (1, 512, 16, 2), 'inp_state_027': (1, 256, 16, 2), 'inp_state_028': (1, 384, 16, 2), 'inp_state_029': (1, 512, 16, 2), 'inp_state_030': (1, 16, 128, 11), 'inp_state_031': (1, 16, 128, 11), 'inp_state_032': (1, 256, 32, 2), 'inp_state_033': (1, 128, 32, 2), 'inp_state_034': (1, 192, 32, 2), 'inp_state_035': (1, 256, 32, 2), 'inp_state_036': (1, 32, 64, 16), 'inp_state_037': (1, 32, 64, 16), 'inp_state_038': (1, 128, 64, 2), 'inp_state_039': (1, 64, 64, 2), 'inp_state_040': (1, 96, 64, 2), 'inp_state_041': (1, 128, 64, 2), 'inp_state_042': (1, 64, 32, 22), 'inp_state_043': (1, 64, 32, 22), 'inp_state_044': (1, 64, 129, 2), 'inp_state_045': (1, 32, 129, 2), 'inp_state_046': (1, 48, 129, 2), 'inp_state_047': (1, 64, 129, 2), 'inp_state_048': (1, 2, 129, 4), 'inp_state_049': (1, 2, 129, 1)}"/>
			<progress value="False"/>
			<remove_memory value="False"/>
			<remove_output_softmax value="False"/>
			<reverse_input_channels value="False"/>
			<save_params_from_nd value="False"/>
			<scale_values value="()"/>
			<silent value="False"/>
			<source_layout value="()"/>
			<static_shape value="False"/>
			<stream_output value="False"/>
			<target_layout value="()"/>
			<transform value=""/>
			<use_legacy_frontend value="False"/>
			<use_new_frontend value="False"/>
			<unset unset_cli_parameters="batch, counts, disable_fusing, disable_gfusing, finegrain_fusing, input_checkpoint, input_meta_graph, input_proto, input_symbol, mean_file, mean_file_offsets, move_to_preprocess, nd_prefix_name, pretrained_model_name, saved_model_dir, saved_model_tags, scale, tensorboard_logdir, tensorflow_custom_layer_libraries, tensorflow_custom_operations_config_update, tensorflow_object_detection_api_pipeline_config, tensorflow_use_custom_operations_config, transformations_config"/>
		</cli_parameters>
	</meta_data>
</net>
